unit06-dl-tips/6.8-debugging/logs/my-model/version_6/checkpoints/epoch=4-step=160.ckpt (torch, 71666 bytes, 14 tensors)

model.all_layers.0.weight f4 [100, 100]
000000 47 6e 68 bc 64 b1 03 ba 61 b1 82 bd e4 ad d8 3c
       -0.014186448 -0.00050236867 -0.063814886 0.026450105
000010 de 9c ad bd 3b eb 96 3d 9d d5 87 bd 9c b8 9a bd
       -0.08477186 0.073690854 -0.066325404 -0.07554743
000020 66 7a 59 bd c9 4c 3b 3d 57 55 28 bd 07 1a 98 3d
       -0.053095244 0.045727525 -0.04109701 0.07426839
000030 43 8f c8 bd 87 20 73 bd 47 eb 38 bd 53 33 18 bc
       -0.0979295 -0.059357192 -0.045146253 -0.00928958
000040 6c 3b d3 bd 60 4a 74 3d e6 06 be bc 2b 48 82 3c
       -0.10314068 0.059641242 -0.023196649 0.015903553
000050 d8 c8 90 3d cd 29 04 3d ea c6 29 3c 41 58 bb 3d
       0.07069558 0.032266427 0.010362366 0.091476925
000060 24 d0 65 bd 11 23 36 3d 4a 43 3f bd 48 ac 52 3d
       -0.0561067 0.044467036 -0.04669503 0.05143383
000070 7f 3a ad 3d fc d7 e5 bd 72 19 8e 3d 79 66 4a 3d
       0.08458423 -0.112228364 0.06938447 0.04941413
000080 22 5b d6 3c 00 6a 29 3d a7 20 b4 3d 45 61 cd bc
       0.026166502 0.041360855 0.087952904 -0.025070796
000090 bf 7d d5 bd e7 ba a2 bc 2b 83 85 bd 08 a5 ad 3c
       -0.10424375 -0.019864513 -0.06519159 0.021196857
0000a0 7d f4 01 bd 88 a8 41 bd df e9 52 3c 33 a0 c5 3d
       -0.031727303 -0.047279865 0.012873142 0.09649696
0000b0 8e a9 85 bc 8f a0 92 3c 4c 3d 00 bc a2 43 df 3c
       -0.016316202 0.017898826 -0.007827114 0.02725393
0000c0 ab a8 d4 3d cc f9 62 3d 1f cf 2b 3d 54 1c e6 3c
       0.10383733 0.055414006 0.041945573 0.02808968
0000d0 01 93 84 3b a6 13 45 3d 4b 8c 94 bb d3 31 ac bd
       0.0040458445 0.04811444 -0.004533326 -0.08407941
0000e0 0c 1a 50 bd a0 06 b8 3d db a6 cb 3c e2 db b1 bd
       -0.05080609 0.089856386 0.024859836 -0.086845174
0000f0 4c 34 9c 3b 53 2d d0 3d 0e 4e c4 bd 79 a1 81 bd
       0.0047669765 0.10164895 -0.095852 -0.063296266
000100 77 88 6e bd f6 f0 29 3c 29 37 9a bc 54 e8 18 bb
       -0.05823561 0.010372391 -0.01882513 -0.0023331838
000110 b7 8b b7 bd 57 8d 7b 3d 81 39 ff 3d 9c 11 8b 3d
       -0.08962195 0.06141409 0.1246214 0.06790468
000120 00 89 a6 bd 1d 1d ce bd a9 02 19 3d 2c 4b 06 3c
       -0.081315994 -0.10064147 0.037356053 0.008196633
000130 21 5a f1 3c 00 a1 af bd 42 f6 3b 3b 86 db aa 3d
       0.029461922 -0.0857563 0.0028680717 0.08342652
000140 77 99 3b 3d 59 1a 82 bc d0 1d e9 3c 96 6c 8d ba
       0.045800652 -0.015881704 0.028456599 -0.0010789807
000150 51 25 87 bd 63 57 05 bd cf ac 88 bd ff 53 87 3d
       -0.065989144 -0.03255404 -0.066735856 0.06607818
000160 5d 51 34 3d 8c 07 c0 3c dc 01 a9 bd b1 21 a6 3d
       0.044022907 0.023441099 -0.08252308 0.08111895
000170 af 16 fb 3c e5 dd 85 3d 21 6c 2b bd 09 81 36 3c
       0.030650465 0.06536464 -0.041851167 0.011139163
000180 5f ae bb 3d 6b 20 3e 3d ae 07 86 3d 27 ed bc bc
       0.09164118 0.046417635 0.065444335 -0.023062302
000190 38 cc a7 3d 76 17 6d bd f3 ba 0a 3d b9 7e ab bd
       0.081932485 -0.057883702 0.033869695 -0.0837378
0001a0 72 ca 43 bd 10 70 fe bc 03 00 34 3d 18 ad e5 3d
       -0.04780049 -0.031059295 0.043945324 0.11214656
0001b0 31 6d 70 3d 9d ed 23 bd 04 7b 92 3d e7 e8 c6 bd
       0.058697883 -0.040021528 0.071523696 -0.09712391
0001c0 94 2b 76 3d 4c e0 93 bc e1 f1 55 3b df 82 03 3c
       0.060100153 -0.018051289 0.0032645392 0.008026808
0001d0 d5 9c 8f bd 9c 4c 98 3b c0 cd e6 3c 79 d2 ea 3d
       -0.07012335 0.0046478044 0.028174281 0.11465926
0001e0 97 79 fb bc 19 4a f6 3c b2 d6 db 3d 6d 8f 0f bd
       -0.030697627 0.03006463 0.10734309 -0.03504889
0001f0 41 b5 fd 3d 97 ae bf bd 46 e5 73 3d b6 37 c2 3c
       0.12388087 -0.09359472 0.059544824 0.023708206
000200 6a 0f a3 3c cd 47 82 3d 22 7d 98 bc c6 fe ac 3c
       0.019904811 0.06361351 -0.018614355 0.02111758
000210 9d 6e 3d 3d 9e ec 90 bd d2 00 07 bd 80 c4 a3 bd
       0.046248067 -0.07076381 -0.032959767 -0.07996464
000220 bd 93 61 3d 7a 3c 21 bc ca 4f 70 3c b9 1c 4a bd
       0.055072535 -0.009841079 0.014667461 -0.0493438
000230 a1 2c 14 3c 72 9b af 3b 4c 86 0d 3c 89 c4 cb 3d
       0.0090438435 0.0053591067 0.008637976 0.099495955
000240 54 b0 12 3d 54 b5 18 bd dc e0 8c bd aa 69 98 bc
       0.03581269 -0.037282303 -0.06878826 -0.018605072
000250 8b d9 89 bd 50 85 aa bd df 09 8c bd 42 c5 23 3b
       -0.06730946 -0.083262086 -0.0683782 0.00249894
000260 95 06 9f 3c 9c 60 7e 3d fb 48 a2 3c 2b d0 26 3d
       0.019412318 0.062103853 0.01981019 0.04072587
000270 7c db bb bd 65 49 2c bc c0 44 c1 bd d6 ac 4e 3d
       -0.09172723 -0.0105155455 -0.09436941 0.050457798
000280 01 6b 4b 3d 2d 55 f4 3d 6e dd 95 bd 6c 02 c1 3d
       0.049662594 0.119303085 -0.07317625 0.0942429
000290 dd b1 88 3d f1 42 f0 3d 7b 83 99 bb 2b 0e b3 3d
       0.0667455 0.11731518 -0.004684863 0.08742937
0002a0 7a 77 74 3d 18 be 63 3d 9e 86 56 bd ef fb 5f bd
       0.059684254 0.05560121 -0.052374475 -0.054683622
0002b0 3e da d0 bc 36 6b 57 3b e1 34 83 bd c7 fe 57 bd
       -0.025494691 0.00328703 -0.0640657 -0.05273321
0002c0 b1 43 8e bd 62 94 f0 bc 6d d4 8b 3d 21 a4 6a ba
       -0.06946505 -0.02936763 0.068276264 -0.0008950849
0002d0 7b 29 ac 3b bb 49 83 3c 86 33 50 3d 73 9b db bd
       0.0052539683 0.016026368 0.050830387 -0.10723009
0002e0 66 fd 45 bd db 74 e8 bc 7c 03 84 bd 01 8b 71 3d
       -0.048337363 -0.028376034 -0.06445977 0.058970455
0002f0 29 bc cb 3d 8b 9d 90 bd 04 f5 bb bd 8b 28 9c bd
       0.09947998 -0.07061299 -0.091775924 -0.076249205
000300 b8 0c 85 3d c1 b1 ce 3d 60 8f 92 bd fa 24 87 bd
       0.064965665 0.100924976 -0.07156253 -0.065988496
000310 d3 8e 11 3d e6 a9 16 bd 75 3f be 3d b6 d3 ad 3c
       0.0355366 -0.03678312 0.09289447 0.021219116
000320 c0 3d c2 bc 71 34 e7 ba 3b cc b5 3c 89 d3 f5 bc
       -0.023711085 -0.001763953 0.022192111 -0.030008094
000330 a9 af 62 bd 3c 67 f1 3c d4 c9 b0 bc 1e c9 c6 bc
       -0.055343304 0.029468171 -0.021580614 -0.024265822
000340 fb bf 48 bd 79 05 d8 3d a3 64 fe bc c5 fe 23 3c
       -0.04901121 0.10547919 -0.031053847 0.010009472
000350 30 f0 31 3d bb ee 85 bd ba c3 60 3c 68 da 9a bc
       0.04344195 -0.06539675 0.01371854 -0.018902972
000360 68 b3 34 3d ad 68 30 bd 29 16 05 3d 6d da 8e 3c
       0.044116408 -0.043068577 0.032491837 0.017438138
000370 0b e0 a4 bd ac 0e 69 bd b0 c7 69 3d 93 4d 55 bb
       -0.08050545 -0.056898758 0.057075202 -0.0032547459
000380 78 77 04 3d 53 c5 aa bd 51 80 7b bd 26 af 88 bd
       0.032340497 -0.08338418 -0.06140167 -0.06674032
000390 42 77 2a 3d e3 83 50 3c 03 b0 6e bc 9c 74 4b 3a
       0.04161764 0.012726757 -0.014568332 0.00077612116
0003a0 fb cc b3 bd ef bb 09 3d 55 ef 1b 3c 34 90 86 bd
       -0.08779331 0.033626493 0.00951751 -0.06570473
0003b0 59 7c 1f 3d 58 72 a2 3c b4 52 a1 bd f2 ff aa 3d
       0.038936947 0.019829914 -0.078771025 0.08349599
0003c0 04 9b 64 3d 21 07 2d bd 1c e4 b0 bd a4 1f 86 3c
       0.055811897 -0.042243127 -0.086372584 0.01637251
0003d0 d4 97 7f 3d bf 64 be 3d 90 18 a4 bd 8b f8 fc bc
       0.062400654 0.092965595 -0.080124974 -0.030880233
0003e0 0a ca 33 3d 47 74 b7 3d 5b 1c d1 3d 0f dd 95 bd
       0.04389385 0.08957725 0.102104865 -0.07317554
0003f0 c6 06 cc 3d 18 ec aa bd 79 09 ee bb 89 b4 b5 3c
       0.099622294 -0.083458126 -0.007264313 0.022180812

model.all_layers.0.bias f4 [100]
000000 50 10 73 3c 4f eb 8b 3d 0c 7d ee 3c e6 a8 13 bd
       0.014835432 0.06831991 0.029112361 -0.036049746
000010 00 a0 3d bc 22 04 6e 3d 52 25 0b 3d be 1a 7d 3b
       -0.0115737915 0.05810941 0.03397114 0.0038620676
000020 87 56 49 bd 3b 5f a0 3d 7a b7 b0 bd 7d da b9 bd
       -0.049154785 0.07830664 -0.086287454 -0.090748765
000030 18 51 b5 3c b7 ee 85 3d 3a 3b c1 bd 52 8d 10 3d
       0.022133395 0.06539672 -0.09435125 0.035291024
000040 37 17 4a bd 65 78 8f 3d e0 9b d0 bc 83 ea bf 3d
       -0.049338546 0.07005385 -0.025464952 0.093709014
000050 6d 84 27 bd b0 f5 9f bb c1 f1 86 3d a0 ed db bc
       -0.040897775 -0.004881583 0.0658908 -0.026846707
000060 7f 65 af 3b 01 ab 9c 3d 1c a0 10 bd 25 1b a1 bd
       0.0053526754 0.07649804 -0.035308942 -0.078665055
000070 68 1a 0f 3c 9f ff b5 bd 19 9e 92 3d 70 9e 1d 3c
       0.008734323 -0.088866465 0.07159061 0.009620294
000080 14 47 de bc d8 59 75 bc 5f 40 aa 3d 98 f1 f2 bc
       -0.027133502 -0.014975034 0.08313059 -0.029656217
000090 be 3a 81 ba 50 bf 69 3c c0 7b 18 3c 8a cd 54 bd
       -0.0009859425 0.014266804 0.009306848 -0.05195383
0000a0 a0 d5 d0 bb c3 54 26 bd 58 2d 0c bc 9b eb 91 bd
       -0.0063731223 -0.04060818 -0.008555733 -0.07125016
0000b0 7a d2 14 3d bd 18 25 bd 70 06 63 3c 2f d3 c7 3d
       0.03633354 -0.040306795 0.013856515 0.09757077
0000c0 54 72 e7 3c f4 a3 80 bd 5d 74 9f bd 60 fc 7f bd
       0.028252758 -0.062812716 -0.077858664 -0.062496543
0000d0 25 d9 8b 3d 67 a8 a0 3d 7a fd 0a 3d d2 37 9f bd
       0.068285264 0.0784462 0.03393314 -0.07774319
0000e0 cc a7 dc 3c 92 a7 08 3d 08 83 9a bc bc 15 f5 3c
       0.02693548 0.033362933 -0.018861309 0.02991759
0000f0 c9 56 b1 3d b8 03 c6 bc 7d 5d 81 3d ac fe bf 3c
       0.08659131 -0.024171695 0.063166596 0.023436867
000100 65 d0 b5 bd f0 df 00 bc e8 bc d1 bc 68 69 1b bc
       -0.08877639 -0.007865891 -0.025602773 -0.00948558
000110 a0 2f 97 bb c5 37 99 bd 9e c6 48 3d b5 47 88 bd
       -0.0046138316 -0.0748134 0.04901754 -0.06654302
000120 30 7f 49 bd 71 87 c5 3d b8 49 ae 3c 58 36 0e bc
       -0.04919356 0.09644974 0.021275386 -0.008679949
000130 de 4c 4d 3d 3d 5f c7 3d 27 46 4e bd 52 9d bd bd
       0.050122134 0.09734962 -0.05035987 -0.09258522
000140 58 7c 71 bc 72 35 80 bd f0 5c c0 bd 8a 0c 0a bd
       -0.0147391185 -0.06260194 -0.093927264 -0.033703364
000150 00 7c c0 bc 80 ba 85 ba f2 aa 37 3d e1 15 8a 3d
       -0.023496628 -0.0010202676 0.04484076 0.06742454
000160 14 c2 c5 bc 94 66 f8 bc d3 19 7a bd ff 41 92 3d
       -0.024140395 -0.03032235 -0.061059784 0.07141494
000170 56 17 1c 3d 10 f9 63 bc d6 1a 73 3d 41 f5 a5 3d
       0.038108192 -0.013914362 0.059351765 0.08103419
000180 04 a0 05 bd 77 c3 96 3d a6 ec 10 bd 2c 16 a0 bc
       -0.032623306 0.07361501 -0.035381936 -0.019541822

model.all_layers.1.weight f4 [100]
000000 ce 5c 7c 3f ae c2 7f 3f 31 5a 7f 3f 10 22 7f 3f
       0.9857911 0.9990643 0.99746996 0.9966135
000010 b1 93 7d 3f 4d 92 80 3f 7a c0 7e 3f 9b b6 81 3f
       0.99053484 1.0044647 0.99512446 1.0133852
000020 0d fc 7d 3f d9 63 82 3f fa 99 7e 3f 4f 5a 80 3f
       0.99212724 1.0186721 0.994537 1.002756
000030 94 eb 80 3f cd 08 7f 3f 40 8a 7e 3f ab 5e 7f 3f
       1.0071893 0.99622804 0.994297 0.99753827
000040 bf b9 80 3f 3a 88 80 3f 30 0d 80 3f fc 93 7e 3f
       1.0056685 1.0041573 1.0004025 0.99444556
000050 59 b8 7e 3f 23 07 7f 3f 93 e5 7f 3f f0 83 81 3f
       0.9950004 0.99620265 0.9995968 1.0118389
000060 2e 94 80 3f 98 7f 80 3f 79 ea 80 3f d9 9a 7f 3f
       1.0045221 1.0038939 1.0071555 0.99845654
000070 d3 6b 81 3f 77 5e 80 3f 42 09 7d 3f 70 ad 7f 3f
       1.011103 1.0028828 0.9884225 0.9987402
000080 24 0f 82 3f 1f 13 81 3f 46 58 7e 3f 74 5d 7e 3f
       1.016087 1.008396 0.99353445 0.9936135
000090 ec f1 80 3f 2d 9b 7d 3f a5 ef 7e 3f 81 fa 7e 3f
       1.0073829 0.99064904 0.9958442 0.9960099
0000a0 1b a0 7f 3f 6a da 80 3f 6f f4 7f 3f 20 34 82 3f
       0.99853677 1.0066655 0.9998235 1.0172157
0000b0 73 9e 80 3f d3 32 80 3f 91 a1 80 3f 7a 41 7e 3f
       1.0048355 1.001551 1.0049306 0.9931866
0000c0 6b d3 7f 3f 96 41 80 3f d0 67 7e 3f 74 31 7d 3f
       0.99931973 1.0020015 0.99377155 0.98903584
0000d0 81 d8 81 3f 1e cc 81 3f bd 80 80 3f 9f 1e 80 3f
       1.0144197 1.0140417 1.0039288 1.0009345
0000e0 39 af 7f 3f 1d 0b 7f 3f c6 dc 7f 3f a0 11 81 3f
       0.99876744 0.9962633 0.9994625 1.0083504
0000f0 79 b2 7e 3f 05 3a 7e 3f 4d 36 7d 3f 1a ed 7e 3f
       0.9949108 0.9930728 0.9891098 0.9958054
000100 b2 ce 7e 3f 1b 8c 80 3f f6 a8 7d 3f c0 5f 82 3f
       0.9953414 1.0042757 0.9908594 1.018547
000110 2a 2b 80 3f b3 83 7f 3f 03 f6 7d 3f 8e 9c 7f 3f
       1.0013173 0.9981033 0.9920351 0.9984826
000120 56 58 7f 3f 18 5d 80 3f 52 5f 80 3f 93 5d 7e 3f
       0.99744165 1.002841 1.002909 0.9936153
000130 c1 c8 80 3f c9 ba 7e 3f 3e 85 81 3f 34 5f 82 3f
       1.0061265 0.9950376 1.0118787 1.0185304
000140 e0 a1 7e 3f 8e 7d 80 3f 4c 25 7f 3f f0 e1 81 3f
       0.9946575 1.0038316 0.99666286 1.0147076
000150 78 3c 7c 3f ff 31 80 3f f3 21 80 3f a3 9b 7c 3f
       0.9852977 1.0015258 1.001036 0.9867498
000160 c1 d8 7c 3f 33 ea 7d 3f 33 55 80 3f 8b 9d 80 3f
       0.9876824 0.99185485 1.0026001 1.0048078
000170 b7 16 7f 3f 77 56 7f 3f 8e eb 7c 3f 24 cb 7f 3f
       0.99644035 0.9974131 0.9879693 0.99919343
000180 89 3f 7f 3f aa 43 80 3f e9 a1 7f 3f aa 64 7e 3f
       0.9970632 1.002065 0.9985643 0.9937235

model.all_layers.1.bias f4 [100]
000000 37 3b f0 b9 00 88 52 bc 11 dd 80 b9 98 86 8a bb
       -0.00045820486 -0.012849808 -0.0002457877 -0.0042274706
000010 92 10 ca 3b 43 83 b1 bb a6 c8 5e bc 38 24 24 bc
       0.006166526 -0.005417259 -0.013597643 -0.010018401
000020 2a ea 15 bc 8a 3f ac 3b bf f9 37 bc 5d a1 85 bc
       -0.009150067 0.005256598 -0.011228978 -0.016312296
000030 d9 d6 d6 bc 2f d3 7d bb 41 ec da 3b 5b 6f 99 ba
       -0.026225494 -0.0038730612 0.0066809957 -0.001170616
000040 37 28 7e bb fb 05 65 3b f0 8d 06 bc 0e 82 83 bc
       -0.0038781294 0.0034946192 -0.0082125515 -0.016053226
000050 1a 85 68 bb e6 6b bb bc a6 e6 12 bc 37 32 ca bc
       -0.0035479725 -0.022878598 -0.008966124 -0.024682147
000060 79 11 ad ba b6 41 90 3a 11 cf 97 bc a2 2a 1c bc
       -0.001320406 0.0011005912 -0.018531354 -0.009531649
000070 92 a6 cd 3c 01 94 01 bb 6d 39 a3 bb 7a d2 82 bb
       0.025103841 -0.0019772055 -0.004981211 -0.003992376
000080 59 fd 89 b9 45 86 df ba ab f8 66 bb fc 6a 29 bc
       -0.00026319435 -0.0017053565 -0.0035243433 -0.0103404485
000090 7f 82 ec 3b 4d b0 2b bb e7 e8 97 bc 67 90 c7 b9
       0.007217705 -0.0026197613 -0.018543674 -0.00038063826
0000a0 7c da 2f 3c a7 88 b4 ba f1 6c 2c bc 51 57 9d 3c
       0.010733243 -0.0013773636 -0.0105240205 0.019206675
0000b0 f1 d6 96 3a a7 a3 13 bb 5d 9c 11 3c c3 bb 2d 3c
       0.0011508149 -0.0022527964 0.008887378 0.010603848
0000c0 b6 ae 61 3b 92 77 7d bb 05 cd 48 bb 26 60 47 bc
       0.0034436411 -0.0038676006 -0.003063978 -0.01216892
0000d0 38 28 b0 bb 60 22 35 bc 37 ae 7c bb 55 85 6a bb
       -0.005375888 -0.011055559 -0.0038555989 -0.0035785038
0000e0 27 4c 99 bc 5c 81 10 bc 84 71 20 bc dd 4b 30 3b
       -0.01871307 -0.008819904 -0.009792689 0.0026900687
0000f0 eb 8a 8e bb 80 82 5b bb 4f a5 ff bb 56 dd c4 3b
       -0.0043500564 -0.0033494532 -0.0078016887 0.0060078306
000100 72 1d c9 bc 0b e9 08 bc 03 12 b6 bb d8 06 34 3c
       -0.024550173 -0.008356343 -0.0055563464 0.01098796
000110 21 d8 95 bb bf e0 81 bb d1 c1 8b bc 54 ba 30 3c
       -0.0045728837 -0.0039635594 -0.017060192 0.010786612
000120 45 87 13 3c 0d d3 fc 3b 09 5a 0b 3a 77 71 c9 bc
       0.009004419 0.007715589 0.00053158455 -0.024590237
000130 35 a0 96 bb 22 df 81 bc 66 83 92 bc 1e ec 09 3c
       -0.004596735 -0.015853468 -0.017884921 0.008418111
000140 62 c5 f9 bc 79 14 83 bb 09 3e d1 bc 75 e0 3d bc
       -0.030489627 -0.0040002433 -0.025542276 -0.011589159
000150 9b 38 b0 bb e4 8e 60 bc 0b e2 29 bd 5f 60 8b bc
       -0.0053778416 -0.013705943 -0.041475337 -0.017013727
000160 16 df 0d bc 10 f2 eb bb 1f 04 5b bc 1d 66 d3 ba
       -0.008659145 -0.007200487 -0.013367682 -0.0016128455
000170 f9 b2 51 bb 58 31 0f 3c 0f 44 ac bb 0b 58 ef bb
       -0.0031997545 0.008739792 -0.0052571367 -0.0073041967
000180 82 e5 21 bb b9 53 a3 3b fa ef f6 ba e8 b3 5a bc
       -0.0024703448 0.0049843458 -0.0018839829 -0.013348557

model.all_layers.1.running_mean f4 [100]
000000 f0 80 87 bb ac 3c 95 3e 35 fa 26 3d 12 76 07 be
       -0.0041352436 0.2914785 0.04076596 -0.13228634
000010 ae e8 2a be 80 61 d7 3e c4 95 a9 be 55 c9 6a 3e
       -0.16690323 0.42066574 -0.33122075 0.22928365
000020 97 7a 5a bd 90 40 aa be 93 fa 4e 3d 31 7b 17 3d
       -0.053339567 -0.33252382 0.050531935 0.03698272
000030 ae 99 8a 3e 4b 39 7c bd 62 3a e6 be 20 ca 46 3e
       0.27070373 -0.061578076 -0.44966418 0.19413042
000040 9c ae 60 3d 0b e4 1b 3f 72 63 b5 3e f8 0f cb 3e
       0.05485402 0.6089484 0.35427433 0.3966062
000050 19 9b 55 3d 2d 46 42 be 1b 36 9f 3d fc 2a 8f 3c
       0.052149866 -0.18972082 0.07773992 0.017476551
000060 13 20 77 3d 43 99 0f bd 77 d6 f0 3c 37 52 77 3e
       0.060333323 -0.03505827 0.02939914 0.24152456
000070 89 62 0a 3e 60 17 14 3e fd 62 48 3d d5 e2 b6 3c
       0.1351415 0.14462042 0.048922528 0.022324959
000080 4f 07 e2 bd ba 4d fe bd 11 c9 3a 3d be 06 35 be
       -0.1103655 -0.12417169 0.045601908 -0.17678353
000090 1f 38 5e 3e 1a 1b bf 3e 17 e7 91 3d 64 10 83 3e
       0.21701096 0.37325364 0.07124155 0.25598443
0000a0 a9 01 2e be d2 cd 3c be 14 d8 8c be 6e 56 13 bf
       -0.16992821 -0.18437889 -0.27508605 -0.57553756
0000b0 a6 a2 3c 3e 49 fb 99 3e 45 90 e5 bc d4 0c a5 3e
       0.1842142 0.30074528 -0.028022895 0.3223635
0000c0 89 2f 1c be 31 85 3a bf 1c 7b 5b 3e 45 ad 49 3d
       -0.15252508 -0.72859484 0.21433681 0.04923751
0000d0 2b 2e 91 3e 8b 9c d1 3e 44 d2 83 be 01 7f e9 bd
       0.28355536 0.40939745 -0.25746357 -0.11401177
0000e0 ab a5 07 3f 57 47 d1 bd 82 7d 6d bd f4 17 e7 3d
       0.52987164 -0.10218685 -0.05798102 0.112838656
0000f0 18 16 7e 3e 8a aa 04 bf a2 18 52 be 9b 61 0c 3e
       0.24813116 -0.5182272 -0.20517209 0.13709109
000100 3c 11 81 be 7e 21 ab bc 1c cc 3a 3e a4 4d 51 3e
       -0.2520846 -0.020889994 0.18241924 0.20439774
000110 f3 75 5a be a3 5c 27 be 74 c1 5d 3e c8 4f 06 3e
       -0.21334057 -0.16343932 0.21655828 0.13116372
000120 59 cf 86 3d d0 2f 86 3e 60 9b e1 bd 6b da 4d 3e
       0.06582517 0.26208353 -0.110159636 0.20102851
000130 5c 19 4e be f7 f5 0d bd 0c 45 89 be 9e 6e 04 bf
       -0.20126861 -0.0346584 -0.2681049 -0.5173129
000140 fd 0a 10 3e 36 74 35 be 14 fa cd be 7b 7f 8d be
       0.14066692 -0.17720112 -0.40229857 -0.27636322
000150 74 0a 8e 3e 2d 49 04 bf 79 68 85 3e 7d ea ac bd
       0.2774235 -0.5167416 0.2605627 -0.084431626
000160 44 df 99 bd f0 be 9d 3e ca 09 c1 3d b9 10 fb 3e
       -0.07513288 0.30809736 0.09425695 0.49036196
000170 e0 a7 19 3e 00 87 71 bb f0 e1 fa bd 11 42 ed bc
       0.15005445 -0.0036854148 -0.122501254 -0.028962167
000180 b8 f7 7d be ed 3e 4f be 93 15 ee 3d 5f 43 35 be
       -0.24801528 -0.20238848 0.11625209 -0.17701481

model.all_layers.1.running_var f4 [100]
000000 ae ad 8a 40 9c d2 62 40 f2 6c aa 40 fb 32 b6 40
       4.333701 3.5441046 5.325799 5.693723
000010 89 e4 8f 40 fd 0d 90 40 a2 f7 a6 40 7a 08 8a 40
       4.4966474 4.5017076 5.2177286 4.3135347
000020 5e d2 7f 40 22 74 bf 40 c8 f2 9c 40 31 2f d5 40
       3.9972148 5.9829264 4.9046364 6.6620107
000030 ba 99 42 40 cb 27 ad 40 b6 7a 14 41 0f e5 92 40
       3.0406327 5.4111075 9.279959 4.5904613
000040 df fb 1e 41 cc cd a5 40 db 08 a3 40 86 36 73 40
       9.936492 5.1813717 5.094831 3.8002028
000050 72 94 83 40 67 3b a8 40 d8 30 7d 40 0a 99 ab 40
       4.111871 5.2572513 3.9561062 5.3624315
000060 ed d5 a7 40 46 d6 7d 40 6a 81 88 40 db d6 a3 40
       5.244864 3.9662032 4.2657976 5.1199775
000070 9c 60 d0 40 12 a5 c4 40 85 82 07 41 97 0f 9e 40
       6.511793 6.14515 8.469365 4.939403
000080 44 ac 9d 40 c7 1e 1b 41 22 04 b2 40 fb 20 74 40
       4.9272785 9.695014 5.5630045 3.814513
000090 19 f9 81 40 d4 64 ec 40 a0 dd 82 40 53 bb 01 41
       4.0616574 7.387308 4.089554 8.108233
0000a0 38 e1 cd 40 27 a5 8e 40 40 c2 4c 40 fd 78 e7 40
       6.4337425 4.45766 3.199356 7.233519
0000b0 7a 1f 18 41 d3 4d 6a 40 06 92 ac 40 45 54 e4 40
       9.507685 3.661 5.392825 7.135287
0000c0 7d ef ca 40 ce a1 1f 41 36 a7 96 40 69 a4 c0 40
       6.3417344 9.977003 4.7079115 6.0200696
0000d0 0a ee 94 40 69 fc a3 40 fa 1f c7 40 c2 18 7b 40
       4.6540575 5.124562 6.2226534 3.923386
0000e0 1d 98 9d 40 36 fd 82 40 b8 ea 8f 40 00 7a 9b 40
       4.9248185 4.0934095 4.497402 4.8586426
0000f0 6c 25 a7 40 03 5a 12 41 26 df c4 40 a2 f0 80 40
       5.223318 9.1469755 6.15224 4.029374
000100 b6 9c 81 40 be 64 8b 40 0b 0e 66 40 9b dc 51 40
       4.0503798 4.3560476 3.594607 3.2790897
000110 2d 8f e0 40 50 cd ae 40 57 0e 6c 40 2f c0 88 40
       7.0174775 5.4625626 3.6883752 4.27346
000120 85 99 77 40 50 d2 a7 40 d0 3d 76 40 22 9e d5 40
       3.868745 5.244423 3.8475227 6.6755533
000130 9b 27 d8 40 9a 3b 8f 40 be 1d 02 41 42 7e b2 40
       6.7548347 4.4760256 8.132261 5.5779123
000140 d7 cd 02 41 00 6a c1 40 7a 4c 8e 40 04 60 fe 40
       8.175254 6.0441895 4.4468355 7.9492207
000150 9b b2 75 40 83 59 8b 40 c5 7b 14 41 e5 bf 8a 40
       3.8390262 4.3546767 9.280217 4.3359246
000160 3b 43 cf 40 97 b4 bb 40 40 e4 b2 40 c1 12 a1 40
       6.476957 5.8657947 5.5903625 5.0335393
000170 d1 2a b4 40 cd b3 72 40 97 4f 96 40 31 87 9d 40
       5.6302266 3.7922242 4.6972156 4.922753
000180 74 ad a7 40 c7 d0 8b 40 e6 fe 9e 40 e3 38 8d 40
       5.2399235 4.3692355 4.9686155 4.413194

model.all_layers.3.weight f4 [50, 100]
000000 4b e2 62 bd 65 c5 eb 3d b0 97 b8 bd 03 6c 2c 3d
       -0.05539159 0.115122594 -0.09013307 0.042095196
000010 ef 98 96 bd 87 0d 66 3c 8c a4 1b 3d b0 b7 d5 bc
       -0.073533885 0.014041311 0.03799872 -0.026088566
000020 b0 43 54 3d dc b6 a2 bb b2 cb 77 3c a2 a3 08 3b
       0.051822364 -0.004965646 0.015124248 0.0020849486
000030 e0 40 85 3d 3c 1b 60 37 c3 2a e3 bd 7d 0c ed 3b
       0.065065145 1.3357781e-05 -0.110921405 0.0072341547
000040 94 95 dd bd 02 2b 72 3d de f7 53 3d bc bb 09 3d
       -0.108195454 0.059123047 0.051750056 0.033626303
000050 44 c8 83 3d 9d bc 90 bd b8 73 cb bd 31 90 b1 3b
       0.06434682 -0.07067225 -0.09934181 0.0054188003
000060 43 26 dd bd 2b a3 da 3c 87 91 90 bc ce d5 2c bd
       -0.107983135 0.026689133 -0.017647518 -0.042196088
000070 09 15 89 bd 2a 32 8c 3c 01 d9 55 3d f4 3c 8a bd
       -0.06693465 0.017113764 0.052208904 -0.06749907
000080 79 02 42 bd 33 c5 77 3d 71 70 9e 3c 57 83 ef 3d
       -0.04736564 0.0604908 0.019340726 0.11694973
000090 5f 29 0c bd 87 12 c8 3d c5 20 62 bc 4b 79 8f 3d
       -0.034219142 0.09769159 -0.013801758 0.07005557
0000a0 81 f3 1f 3d 9a f4 b9 3d 0b a8 93 bd c2 d2 34 bd
       0.039050583 0.09079857 -0.07209786 -0.044146307
0000b0 ae 52 42 bb dc be 93 bc 3c b1 0d bd 47 76 34 bd
       -0.0029651332 -0.018035345 -0.034592852 -0.04405811
0000c0 d5 63 99 3d 56 a3 f1 3d af 27 86 bd 4c a9 c1 bd
       0.074897446 0.11798732 -0.06550538 -0.09456119
0000d0 4f a8 6c bd 00 c0 9c 3b 3d 78 de 3c fa dc 81 bd
       -0.0577777 0.0047836304 0.027156943 -0.06340976
0000e0 0a 24 54 bd 99 0c 6c 3d 34 6f a4 3c fb c0 be bb
       -0.051792182 0.0576292 0.020072557 -0.005821345
0000f0 dc 42 47 3d a4 14 8b bd 40 45 9f bd f8 bd e1 bd
       0.048647746 -0.06791046 -0.0777688 -0.11022562
000100 1e d1 c0 3d 4c fa 03 3d eb 4c a7 bd b7 de 84 3d
       0.09414886 0.032221124 -0.08168968 0.06487792
000110 5e 60 b8 3d 18 9f 92 bd 5e 0d 88 bc 96 0e 08 be
       0.090027556 -0.07159251 -0.016607936 -0.13286814
000120 21 e9 d4 bd f2 82 65 3d b1 c6 cc 3c 34 58 13 bb
       -0.10396028 0.056033082 0.024997087 -0.0022482993
000130 3b a7 0a 3e c5 de ba 3d 12 2d 03 3d 33 95 9a bd
       0.13540356 0.09124521 0.032025404 -0.07547989
000140 f8 a6 f1 bc 8c 5f d8 bd ae 87 b6 3d 66 d6 58 3d
       -0.029498562 -0.10565099 0.089125976 0.05293884
000150 01 f0 e8 3b 19 84 36 bd 26 51 44 3d 06 5e a4 3d
       0.007108689 -0.044559572 0.04792895 0.08025746
000160 56 ee 3e bd cd e6 5b bc 93 79 9a bb b2 cb d8 3d
       -0.046614014 -0.013421726 -0.0047142 0.10585727
000170 49 1d 26 bd 13 53 4c 3d 07 d5 62 3c 53 d2 b5 3b
       -0.040555272 0.049883913 0.013844735 0.0055487542
000180 a1 e8 30 3d 90 dc d6 3d ec 20 00 3e fc fe b3 3c
       0.043190602 0.10491288 0.12512559 0.021972172
000190 74 96 2c bd 62 d1 1d 3c 4b 0d 26 3d cc 89 a1 bd
       -0.04213567 0.00963244 0.04054002 -0.07887611
0001a0 8f 80 ec bc 78 b9 1c bd f3 d6 af bc e1 06 71 3d
       -0.028869895 -0.038262814 -0.0214648 0.05884445
0001b0 ae e2 c3 3d 42 05 d8 bd 64 a3 a4 3d d9 e2 be bd
       0.0956472 -0.10547878 0.08038977 -0.093206115
0001c0 50 f0 38 3d a9 a0 5c bb d6 86 b8 bd fd 9f c1 bd
       0.045151055 -0.0033665097 -0.09010093 -0.094543435
0001d0 c5 dc d1 bc ce 51 c4 bc 9b 38 aa 3d c1 0a ab bc
       -0.025617966 -0.023964789 0.08311578 -0.020879151
0001e0 97 b1 86 bd 61 58 21 3d e3 92 89 3d 6a 88 be bd
       -0.06576841 0.039390925 0.067174695 -0.09303363
0001f0 61 a1 83 3d ce 45 81 3c 91 57 d1 bd 60 a4 5f bd
       0.06427265 0.015780356 -0.1022178 -0.05460012
000200 50 4d e3 bc 59 e1 29 bd 03 66 4b 3d c2 f9 94 3c
       -0.027746826 -0.041474674 0.049657833 0.0181855
000210 07 10 ff 3d 33 b1 87 3d ad dc bc 3d 9e 3c d1 39
       0.12454229 0.06625595 0.09221778 0.0003990875
000220 7a 96 83 3b 89 05 93 bc f7 2d 08 bd 90 7b 45 ba
       0.004015741 -0.017946975 -0.03324696 -0.0007533366
000230 21 10 a9 3c 15 ce 1b bd d3 71 f5 3c 8f 2f e0 3b
       0.020637574 -0.038038332 0.029961502 0.006841607
000240 e0 a1 13 3d 40 55 61 bd c2 fa bd 3d da e8 d1 3c
       0.036043048 -0.05501294 0.09276344 0.025623728
000250 90 3a 72 bd 8f 32 67 3d 15 43 3d bd 40 88 d6 3c
       -0.05913788 0.0564447 -0.046206553 0.026188016
000260 df be 1a 3d 6f d5 51 3c f3 f3 40 3c c1 9b 80 3d
       0.037779685 0.012807234 0.011776912 0.06279708
000270 a0 85 0a bd 50 ad b8 3b 4f 23 79 3d a9 c8 95 3d
       -0.03381884 0.005635895 0.06082469 0.073136635
000280 f2 a4 d4 bb 76 9f 6f bd f9 a1 77 bc 06 60 16 bb
       -0.0064893896 -0.058501683 -0.015114301 -0.0022945418
000290 26 4c 17 3d 23 46 87 bd 4b a4 a0 bd 99 f4 75 3d
       0.036937855 -0.066051744 -0.078438364 0.06004772
0002a0 b8 8d 63 bd 18 11 82 bd 26 99 73 bc 60 c4 4d 3d
       -0.055555075 -0.063509166 -0.014868056 0.050236106
0002b0 7a da 37 3d 5c f9 db 3b a2 83 72 bd e1 07 7c 3b
       0.04488609 0.0067130756 -0.059207566 0.0038456845
0002c0 41 e6 be 3d e1 0c c1 bd dd 77 31 3d 75 e8 a1 bc
       0.09321261 -0.094262846 0.0433272 -0.019764164
0002d0 9a 3a 92 3c 9a 8a ef 3c 9d f3 bd bd 07 e1 ac bd
       0.017850209 0.029240895 -0.09274981 -0.08441358
0002e0 cd df a0 3d 74 1c 1d bc aa 73 72 3d 92 92 7a 3d
       0.078551866 -0.009589303 0.059192337 0.061174937
0002f0 b9 0c 76 3d 28 f5 a7 bc 44 17 e6 3d 5c aa b6 3d
       0.060070727 -0.020502642 0.11234906 0.08919212
000300 16 f8 b9 bd a4 2e 25 bd 81 19 29 3d 6a b9 e6 3a
       -0.09080522 -0.040327683 0.041284088 0.0017602865
000310 e3 86 1a bb 1d c2 55 3c 22 7a a6 bd 3f 71 63 3d
       -0.0023578934 0.0130467685 -0.08128764 0.05552792
000320 4a 46 99 bd 59 22 d3 bc 0a b9 7b 3d ca 6b 9d bc
       -0.0748411 -0.025773214 0.061455764 -0.019216437
000330 93 0f 62 3d 88 16 91 3d b0 31 56 bd 0f 24 08 3b
       0.055190634 0.070843756 -0.05229348 0.0020773446
000340 e9 92 8f bd 7e b1 ac bc 2f 82 9d bd 10 92 71 bd
       -0.07010443 -0.021080729 -0.07690846 -0.058977187
000350 43 f3 a8 3d f8 05 0d bc 52 cd c1 bb cc 80 81 bd
       0.082495235 -0.00860738 -0.0059143687 -0.06323394
000360 27 ce 93 bc f0 69 7d 3d 55 a7 c7 bd 43 61 3d 3d
       -0.018042637 0.061868608 -0.09748713 0.046235334
000370 c1 d1 01 bd cb 53 35 bd f2 25 f4 3c 41 2e 2f 3d
       -0.031694178 -0.044269364 0.02980325 0.04276872
000380 28 2d e7 3c cd b3 6c bd 9a 0d 55 bd b1 4e 2e bd
       0.028219774 -0.05778866 -0.052014925 -0.042555515
000390 5a 01 81 3b 41 b9 c5 bd a9 e1 e5 bb d7 47 17 3c
       0.0039369287 -0.09654475 -0.007015426 0.009233437
0003a0 42 50 15 bd 29 b2 42 3d 9b e4 f4 bc 2d d4 af bc
       -0.036453493 0.047533188 -0.029894164 -0.021463478
0003b0 77 81 dd 3d 62 0e ce 3c 82 35 ef 3c 57 f1 99 3c
       0.10815709 0.025153343 0.02920032 0.018791838
0003c0 f6 73 d2 3c fb 71 68 bd 77 af d4 bd 32 f1 07 bd
       0.02569006 -0.056749325 -0.1038503 -0.033189006
0003d0 a0 86 e6 3d b0 c7 85 bd 76 89 aa bd 6c 37 2d 3c
       0.112561464 -0.06532228 -0.08327 0.010572296
0003e0 40 f4 a8 bc c3 f1 78 bd d5 36 b9 bc 11 af 24 3d
       -0.02062428 -0.060777437 -0.022609154 0.04020602
0003f0 57 9f 46 bd a9 98 b7 bc 8f 10 95 bd d3 2d a3 3d
       -0.048491802 -0.022411661 -0.07278549 0.07967725

model.all_layers.3.bias f4 [50]
000000 b0 10 b1 bd 5f 69 60 ba 4c 34 8d 3c ec b0 f9 3c
       -0.08645761 -0.00085606234 0.017236851 0.03047987
000010 87 44 ba 3b 60 ee 33 bd 4e 6d 8d 3c 02 1a 7f 3d
       0.0056844386 -0.043928504 0.017264035 0.062280662
000020 7a 53 40 bd 2d 42 77 bd ed 30 b8 bd 06 c7 24 3d
       -0.04695461 -0.060365845 -0.08993707 0.040228866
000030 2a 9b 58 bc 05 7c 91 3d de bd a6 bc 1c 77 b6 3b
       -0.013220588 0.07103733 -0.020354208 0.005568398
000040 bb a5 b1 bd de cb 18 3d 16 61 3f bb 3f d2 b6 3d
       -0.08674189 0.037303798 -0.0029202155 0.0892682
000050 c6 5c 3b 3d 37 10 84 3c 3a bc 01 3d c7 70 4e 3d
       0.045742773 0.016121013 0.031673647 0.05040052
000060 c4 8d 0d bc 81 43 45 3c 66 30 51 3b 93 49 73 bd
       -0.008639757 0.01204002 0.0031919717 -0.059396338
000070 7d 96 73 bd 58 6b b2 3c 11 c9 a3 3d b1 50 84 3d
       -0.05946969 0.021779701 0.07997335 0.06460703
000080 2a ad 66 3d b6 48 11 3d 2e d6 64 3d 96 18 06 bd
       0.056317486 0.035469733 0.05586832 -0.03273829
000090 26 4b 02 bd 2d f4 89 3c ec 8d 90 bc 20 ba bf bd
       -0.03180995 0.016840065 -0.017645799 -0.093616724
0000a0 5e da 4b 3d 42 08 34 3d c3 03 bc bd 37 69 9f 3d
       0.049768798 0.043953188 -0.09180405 0.0778374
0000b0 90 4b 82 ba 76 a8 a2 bd 82 de 5a bd 9f 04 4b 3c
       -0.0009940732 -0.079422876 -0.053434856 0.0123912385
0000c0 b6 77 92 bd 71 7e 87 3d
       -0.07151739 0.06615914

model.all_layers.4.weight f4 [50]
000000 92 54 81 3f d4 51 7d 3f 3a 8f 7e 3f bf 0a 7e 3f
       1.0103934 0.98952985 0.99437296 0.9923515
000010 f2 72 80 3f 02 23 7e 3f 9f 26 7f 3f 7e db 80 3f
       1.0035079 0.9927217 0.99668306 1.0066984
000020 0f 36 7c 3f f8 75 7f 3f f4 4a 80 3f 4d 6c 7d 3f
       0.98519987 0.9978938 1.0022874 0.9899338
000030 5b 0b 7e 3f 04 4b 82 3f db ea 81 3f 3c fe 84 3f
       0.9923608 1.0179143 1.0149797 1.0390086
000040 8c 55 7d 3f bf f4 80 3f ea cc 7f 3f 17 c4 7c 3f
       0.9895866 1.007469 0.9992205 0.9873671
000050 e2 f1 84 3f a5 46 7e 3f f8 d9 7d 3f da 7f 82 3f
       1.0386317 0.99326545 0.9916072 1.0195267
000060 43 1c 80 3f e8 5e 7d 3f 65 0d 7b 3f 6b 34 7f 3f
       1.0008625 0.9897294 0.98067313 0.9968936
000070 c8 05 80 3f ae d7 7c 3f 46 37 7d 3f 81 cc 7b 3f
       1.0001764 0.987666 0.98912466 0.98358923
000080 92 5f 7d 3f cf 96 80 3f 85 fb 80 3f 4c 68 7a 3f
       0.98973954 1.0046023 1.0076758 0.97815394
000090 32 68 7e 3f 4a 72 7f 3f 98 68 7e 3f be 84 7d 3f
       0.9937774 0.99783766 0.9937835 0.99030674
0000a0 e9 e1 7c 3f 6f 2c 7e 3f f7 95 81 3f 70 fc 80 3f
       0.9878221 0.9928655 1.0123891 1.0077038
0000b0 40 0b 80 3f ed 21 83 3f 03 eb 83 3f 9a 2f 7f 3f
       1.0003433 1.0244728 1.0306095 0.9968201
0000c0 56 6b 7d 3f 1c 53 86 3f
       0.98991907 1.0494113

model.all_layers.4.bias f4 [50]
000000 ca b2 ec bc 9b 04 38 bc a6 a8 87 bc 93 9b 15 bd
       -0.028893847 -0.011231567 -0.01655991 -0.03652532
000010 4e 3d e9 bc 47 b6 f3 bb 84 2d fb bc f3 0f f9 bc
       -0.028471615 -0.0074375006 -0.030661352 -0.030403113
000020 0b 76 1b bc c4 f5 98 bc c0 c1 09 bc ff 55 f2 bb
       -0.009488593 -0.018671878 -0.00840801 -0.0073955054
000030 d1 12 30 bc 56 77 b2 bc d5 c0 03 bd 15 47 b3 bc
       -0.010746674 -0.02178542 -0.03216632 -0.02188448
000040 d2 96 83 bc 4e 8b 9f bc 1f f8 c1 bc d4 c7 13 bc
       -0.016063128 -0.019475605 -0.023677884 -0.009019811
000050 a2 86 e8 bc 8d 38 47 bc d9 69 1c bc f5 fe a5 bb
       -0.02838451 -0.012159479 -0.00954672 -0.0050657936
000060 e2 9e 40 bd e4 95 8d bc 63 e8 84 bc 52 5f 29 bc
       -0.047026522 -0.017283387 -0.016224092 -0.010337668
000070 2c 2c 92 bc 08 e7 44 bc a2 0d 41 bc b1 89 ab bc
       -0.017843328 -0.012017973 -0.0117830355 -0.02093968
000080 42 de c4 bc 76 8c f0 bc 21 ed 14 bd 9d 2a f1 bb
       -0.024031762 -0.029363852 -0.036358956 -0.007359816
000090 70 32 a7 bc ee 7f f3 bc 17 b1 2a bc 08 8d bf bc
       -0.020409793 -0.029724088 -0.010418198 -0.023382679
0000a0 38 8f 80 bc 6f 64 0d 3a 4b 66 30 bd c1 ac f4 bc
       -0.015693292 0.0005393689 -0.043066304 -0.029867532
0000b0 8b dd cd bc 6f 2e 11 bd 29 18 e1 bc 69 6b eb 3c
       -0.025130054 -0.035444673 -0.02747734 0.02873774
0000c0 6c a7 37 bc b6 bf 03 bd
       -0.01120935 -0.03216525

model.all_layers.4.running_mean f4 [50]
000000 f9 5e e1 bc 14 c0 79 3d 05 b7 dc be a8 aa eb 3d
       -0.027511107 0.060974196 -0.43108383 0.115071595
000010 25 39 c7 bd ad a3 fe 3d d7 38 13 be e7 a1 08 3f
       -0.09727696 0.124335624 -0.14377151 0.53372043
000020 24 4d b8 3e b2 9c cb 3d 44 e9 66 be 02 35 1f 3d
       0.35996354 0.09941997 -0.22549921 0.03886891
000030 49 2b 04 3f ef ef 51 be cb e2 03 bf 0d 48 a1 3d
       0.5162855 -0.20501684 -0.51517934 0.07875071
000040 88 65 ea bd 68 96 b0 be 89 3e ce bd 68 58 a1 3e
       -0.11445147 -0.3448975 -0.100705214 0.3151276
000050 a7 fc b1 3e 07 8a c0 3c 4b 6d 67 3d aa 4c a2 3e
       0.3476307 0.023503317 0.056500714 0.31699115
000060 7e 3f 2d bd 8e 2f b6 bd 86 95 b1 bd 6d f6 14 bf
       -0.04229688 -0.08895789 -0.086710975 -0.58188516
000070 34 89 d4 be 5b 8f 42 3e 9a 4e 06 bf 82 0b 6e be
       -0.41510928 0.18999998 -0.52463686 -0.23246577
000080 f0 06 e4 3d e9 ae 37 3e f3 18 f3 be 01 63 87 be
       0.11134136 0.17937817 -0.47479972 -0.2644272
000090 5f 28 cf be 2e c2 d2 bd 8b 8c 2f be e9 8b d8 be
       -0.40460488 -0.10290943 -0.17143457 -0.42294243
0000a0 3d eb 53 be 07 b8 af 3d fc d0 c3 be 2f aa a4 be
       -0.20695205 0.08580022 -0.3824538 -0.3216109
0000b0 3a 6e c1 be f3 3c a0 be 94 21 bd be 82 70 90 be
       -0.3777941 -0.312965 -0.3693968 -0.28210837
0000c0 82 a9 d8 be c3 ab 69 3f
       -0.42316824 0.9127771

model.all_layers.4.running_var f4 [50]
000000 a6 66 87 3e 1b d9 30 3e d0 46 02 3e 8f 7e 41 3e
       0.26445502 0.17270319 0.12722325 0.18895935
000010 70 25 c4 3d 2a aa 17 3e 9c 22 1a 3e 02 69 4d 3e
       0.09577453 0.14811006 0.15052265 0.20059589
000020 62 6c 21 3e c6 61 00 3e 5b 40 3b 3e 8f 0f fa 3d
       0.15764001 0.12537298 0.18286268 0.12209999
000030 29 14 bd 3d 10 d1 6e 3e 87 0a 5f 3e 22 1c 90 3e
       0.09232361 0.23321939 0.2178136 0.28146464
000040 f3 61 f0 3d bb 91 26 3e e4 4d 29 3e 2c 05 cb 3d
       0.11737432 0.1626653 0.16533619 0.09913096
000050 3d 3e 94 3e da 35 37 3e b6 32 db 3d 19 12 5b 3e
       0.28953734 0.17891636 0.10703032 0.21393622
000060 4a e5 2c 3e e3 23 b3 3d 9c be 49 3e 0a 07 24 3e
       0.16884342 0.08747079 0.19701618 0.1601831
000070 94 04 09 3e 14 ca 0b 3e 40 55 fe 3d d1 44 c3 3d
       0.13380653 0.13651305 0.12418604 0.0953461
000080 e4 b6 7d 3e 93 16 36 3e 6d 59 42 3e dc e4 36 3e
       0.24776798 0.17782049 0.18979426 0.1786074
000090 79 cf 3e 3e 50 ec 23 3e e1 63 f3 3d fb 89 c8 3d
       0.18633832 0.16008115 0.11884285 0.09791943
0000a0 ee 5e d2 3d 27 10 2d 3e 75 ef af 3e 74 61 57 3e
       0.10272013 0.16900693 0.3436238 0.21033269
0000b0 ef 87 ff 3d f7 8e b4 3e b3 6d b7 3e 2f 47 71 3e
       0.12477099 0.35265324 0.3582588 0.2356231
0000c0 05 c1 9d 3d 80 42 a1 3e
       0.07702831 0.31496048

model.all_layers.6.weight f4 [2, 50]
000000 68 e8 2c 3e d1 55 3f be 82 fa f3 3d d5 4b 05 be
       0.16885531 -0.1868508 0.11913015 -0.13017209
000010 e7 ea a0 bd 23 32 66 3d 7b 70 0b be ce 23 52 3e
       -0.07857304 0.056200158 -0.13617127 0.20521471
000020 0a 12 19 bd be 9f b4 3d 11 f8 f1 bd b1 e9 8a bd
       -0.03737072 0.08819531 -0.11814893 -0.06782854
000030 08 6a 09 3c 81 d0 90 3e b5 bc 71 3e e8 79 78 3e
       0.008387096 0.28284076 0.23607142 0.24265254
000040 d8 be 4a bb 33 9b 3e 3e f4 b1 91 bd a8 f2 66 3d
       -0.0030936506 0.18613891 -0.0711402 0.05638376
000050 fd cc 81 be 87 f9 0e 3e 11 ec 4a bd 5d 75 01 3e
       -0.25351706 0.13962375 -0.049541537 0.12642427
000060 d6 1d 0a be 24 ec be bd 0f 7e 99 bc a1 12 a9 3b
       -0.13487944 -0.09322384 -0.018736867 0.0051596914
000070 03 bd 5f be 6e ff b5 3d 19 a0 11 3d 17 0b 72 bd
       -0.21849446 0.0888661 0.03555307 -0.059092607
000080 ab 2b 23 be e9 fe df 3d d2 84 3e 3e e2 0e e0 bc
       -0.15934627 0.10937292 0.18605354 -0.027350847
000090 ab de 87 bb 13 65 74 bd b4 e1 19 bd 11 cb 26 be
       -0.004146417 -0.059666704 -0.037568763 -0.16288401
0000a0 79 e0 4b bd 2f 10 27 be cf cc 50 be 37 54 69 be
       -0.04977462 -0.16314767 -0.20390628 -0.22786032
0000b0 1f ce 26 bb 70 02 5c 3e 18 4b 74 be b5 0a 3b be
       -0.0025452448 0.21485305 -0.23856771 -0.18265803
0000c0 b5 0c 16 3c 08 ed 52 3e 20 fe 32 be e1 a1 30 bd
       0.009158303 0.20598233 -0.17479753 -0.04312313
0000d0 90 0f 48 bd 37 d5 18 3e 77 43 35 3e de d5 a5 3d
       -0.048842967 0.14925085 0.17701517 0.080974326
0000e0 63 6c ae 3d 99 f6 09 be 0b 90 ff bb 55 94 a5 bd
       0.08516767 -0.13472976 -0.0077991537 -0.08084933
0000f0 e1 58 3a 3e 00 50 10 bd ae fa b0 bd 38 b7 13 bd
       0.18197967 -0.035232544 -0.08641563 -0.036063403
000100 ff 7d f3 bd 4d 76 53 be ef 57 07 3c 42 29 d7 bd
       -0.11889266 -0.20650597 0.008260711 -0.10505916
000110 93 44 12 3e 88 a5 0f 3d d0 13 80 3e 2c 58 1b be
       0.14283971 0.035069972 0.25015116 -0.15170354
000120 eb 1d 19 ba a5 a5 69 be 20 cb 33 3e 4f 6d 43 3c
       -0.0005840945 -0.22817095 0.17557955 0.011927917
000130 2e e4 d0 bc d7 1a 06 be 5a da b7 3b fe 4e 1d 3d
       -0.02549943 -0.13096176 0.0056107463 0.03840541
000140 01 be 2d 3e 50 07 a7 bd 80 b8 17 3e 91 89 fa bd
       0.16967012 -0.081556916 0.14816475 -0.1223327
000150 de ed 0a be 19 57 24 3d a7 61 13 be ec af 36 3e
       -0.13567302 0.040122125 -0.1439272 0.17840546
000160 17 ad 09 3e 8d 49 51 bd 85 06 e0 ba 4f 6a d2 3c
       0.13444935 -0.051095534 -0.0017091787 0.025685458
000170 81 0e 48 3e a4 b3 b4 3d 2f a4 34 be 46 48 4e be
       0.19536783 0.08823326 -0.17640756 -0.20144758
000180 af 44 76 3e 7b 70 9f 3d 04 a4 27 bd 87 3c a2 be
       0.24049638 0.07785126 -0.040927902 -0.31686804

model.all_layers.6.bias f4 [2]
000000 bc e9 82 bd 45 3f e9 bd
       -0.063922375 -0.11389021
