unit06-dl-tips/6.8-debugging/lightning_logs/version_0/checkpoints/epoch=3-step=1800.ckpt (torch, 71922 bytes, 14 tensors)

model.all_layers.0.weight f4 [100, 100]
00000000: 3b05 febc bf8a 4dbb 7f16 05be 25f7 903c
00000010: 9a22 f2bd f028 893d ef33 f7bc 0105 3bbb
00000020: 4761 ddbd 5270 593d 1a72 95bd d28f d83d
00000030: 5a89 0ebd 0d88 e5bc 3e0d 91bd 6d4b 52bc
00000040: c7e2 b0bd 795f ab3d 0d10 f5bc 9482 3c3d
00000050: 20a0 e23c 707a 003c 922f 00bd b279 a03d
00000060: 5106 b9bd 6348 153c 41c6 dbbc e344 7eba
00000070: 7f70 ea3d 4795 28be 58d6 c93d 792b c43d
00000080: cbea 933b 337f 963c b6d0 6f3d a8d4 48bd
00000090: 7745 bebd e0b8 bbbd 5e4a cdbd e1a2 003c
000000a0: 9ea0 003d 4d5d 36bc 51f0 623d ad49 d33d
000000b0: fa03 2cbd 1431 543d 4164 adba de43 e73b
000000c0: ea09 3e3e c968 8f3d 8847 3b3d b78f 833d
000000d0: 1a3b 78bc 56fa c03d 0f4c 2abc 73f9 98bd
000000e0: 6d67 3fbd 5f85 5c3d 4830 c33d a2a1 80bd
000000f0: 736b f1bc e8b5 5c3d 31ae d8bd 269b 7fbd
00000100: f90b ecbd 708d 3e3d 84a3 60bd 0247 a43c
00000110: a48a d0bd 97e3 443d a8d7 1f3e 3096 983d
00000120: 7641 1dbe d7b7 1cbe 244a 083d 4df9 323c
00000130: 2f4c c63b 29d7 cbbd 732a 8dbd 0b0b af3d
00000140: d1da d53d 44ae 0fbd 7822 073d 0867 e3bb
00000150: 8d43 cdbd e772 8abd 17e5 2ebd aa0d c83c
00000160: 6354 203c b9f5 0038 358f 6fbd 0e81 1d3e
00000170: 009d 883d e178 803d 758d b2bd 8ca5 e4bc
00000180: b073 963d 66f9 223d 1e97 a13d f166 48bd
00000190: 4ecc 6f3d 4d89 b9bd bafa 53bc 8dd7 91bd
000001a0: 8443 f6bc 0f57 903c 0678 a63d 6c43 b03d
000001b0: cb85 7dbc 9734 aebc 7d7e 613d 2881 e5bd
000001c0: 7433 943d b077 23bb 0a3d 0d3d ef9e 7a3d
000001d0: 7cfb 8ebd 5309 c93b 3d65 9d3d c535 f73d
000001e0: 76f8 4dbd 945f ad3d 5ee0 0d3e 40b0 c8bc
000001f0: 69a2 d83d f5f1 fabd 3628 9a3c 99ba 6f3d
00000200: 017e 99bc 2797 c93d f6fe 21bd d9ed a43d
00000210: 911e 9e3d 9b49 35bd ed1d 18bd 03cc c1bd
00000220: 8989 143d a466 b33c 986d 483d f2b9 1fbd
00000230: 128d ae3c 57e3 2e3d a979 1cbc 1a55 0b3e
00000240: 2047 893d 1fa2 5fbd 3ed6 bebd 3cd5 92bc
00000250: 817b d1bd ac61 b1bd c726 9abd 4c2c 233d
00000260: f0a4 5b3d 725a 183d 03c4 9fbd e590 133d
00000270: f5dd c2bd e402 3f3d 5a08 0ebe 79c4 543d
00000280: 5245 013d 39a2 da3d 81ae 89bd 303f dc3d
00000290: 0cd5 023e 6b5d 1e3e c1e4 563d fdfb de3d
000002a0: 8c54 a03d 6210 873d 88db 89bd 90d1 05bd
000002b0: be3d 163c 6815 1c3d 9366 83bd 3081 c93c
000002c0: 47f1 e2bd 3c8e 3fbc 9dd5 cc3d 25d6 7a3a
000002d0: 1d86 b4bc 87c6 4d3d 9401 5e3d dcf8 51be
000002e0: 8911 88bd bff9 c03b b3f7 80bd 6faf b83d
000002f0: 50a9 a63d 1b4b e5bd 39e9 b8bd 3792 d1bd
00000300: 3bae d53d 30b4 8b3d c5b0 9bbd 5b55 cabc
00000310: 9cf4 813c b531 91bd 4c7b d03d 506e bc3c
00000320: 730c 50bd d802 04bc 5531 c63d 538d 8bbc
00000330: 9eb0 53bd 9243 923b 4907 b3bd a9a3 90bc
00000340: bafb 66bd 4508 503d 435b bf3c 61ab a4bd
00000350: b193 8e3d 7241 b4bd 035b 473d 198f 8abc
00000360: 24a6 683d 1191 fbbc f657 f53b 9630 873c
00000370: 5275 45bd f669 a2bd b7e8 353e d88e f1bc
00000380: 12ce af3d db7d 01be 421e aabd b572 d7bc
00000390: 9d46 fdb9 08c6 593d 35a5 83bd 8533 83bd
000003a0: 9923 8ebd d2b5 9b3c 3c2e babc 9421 d0bd
000003b0: 7e9b 8f3d a1ec 673d 658b a8bd d78f 923d
000003c0: 27e9 a73d 6558 ddbd 0756 1ebe 7891 84bc
000003d0: 0361 c73d 8a0d fd3c 9ced c6bd efd0 6a3c
000003e0: 06bb 403c a5fb 6c3d e023 743d f158 0ebe
000003f0: 82ac 153e e755 d8bd 2f47 493b ee87 b83c
-0.031008353 -0.0031363217 -0.12996863 0.017695973 -0.11823006 0.06697261 -0.030176131 -0.0028536918
-0.1080957 0.053085633 -0.07297154 0.105743065 -0.034798957 -0.028018976 -0.07082604 -0.012835366
-0.08637004 0.08367819 -0.02991488 0.046022967 0.027664244 0.007841691 -0.031295367 0.078357115
-0.09034408 0.009111497 -0.026827933 -0.0009699596 0.11447238 -0.16463195 0.09855336 0.09578604
0.0045140735 0.0183712 0.05854865 -0.04903093 -0.09290593 -0.091661215 -0.1002395 0.007851333
0.031403176 -0.011130643 0.055404965 0.10316787 -0.04199598 0.051804617 -0.001322873 0.007057651
0.1855847 0.07002408 0.045722514 0.06423896 -0.01515081 0.09422748 -0.01039411 -0.07469454
-0.046729494 0.05383813 0.09530693 -0.06280829 -0.029470181 0.053884417 -0.105800994 -0.06240382
-0.11525721 0.046521604 -0.05484344 0.02005339 -0.101826936 0.04806861 0.1560961 0.07450521
-0.15357003 -0.15304504 0.03327383 0.010923696 0.0060515623 -0.09953148 -0.06892862 0.08547028
0.104421265 -0.035078302 0.032991856 -0.0069397725 -0.1002265 -0.06760197 -0.042698946 0.024420578
0.009785744 3.0746425e-05 -0.058486182 0.15381262 0.066705704 0.06273056 -0.08718387 -0.02791097
0.073462844 0.039788626 0.078901514 -0.048926298 0.05854445 -0.09059391 -0.012938196 -0.07121191
-0.03006149 0.017619638 0.081283614 0.0860661 -0.015473793 -0.021265311 0.05505227 -0.11206275
0.072363764 -0.0024943165 0.03448204 0.061186727 -0.069815606 0.0061351447 0.07685325 0.120708026
-0.05028578 0.08465496 0.1385512 -0.024498105 0.10577852 -0.12253181 0.018818002 0.058527563
-0.018736841 0.09843283 -0.03954979 0.08053178 0.07720674 -0.04425965 -0.037137914 -0.0946274
0.036263976 0.021899529 0.04893264 -0.03899569 0.021307502 0.042697277 -0.00955049 0.13606682
0.06703019 -0.05459797 -0.09318207 -0.017923944 -0.102286346 -0.086612076 -0.075269274 0.039837167
0.053624094 0.03719563 -0.07801058 0.036026854 -0.09514991 0.046633616 -0.13870373 0.051945183
0.03156025 0.10675473 -0.06722737 0.107542396 0.12776583 0.15465324 0.05246425 0.10887907
0.07828626 0.06594922 -0.067313254 -0.032670557 0.009169994 0.038106352 -0.06416049 0.024597734
-0.11081176 -0.011691626 0.10001681 0.0009568653 -0.022036606 0.05023816 0.054200724 -0.20505089
-0.066439696 0.005889147 -0.06297245 0.09017836 0.081377625 -0.11195966 -0.09028859 -0.102329664
0.104336224 0.068214774 -0.076020755 -0.024698904 0.01586371 -0.07089559 0.10179767 0.02300182
-0.050793123 -0.008057319 0.09677378 -0.017035162 -0.051682107 0.0044636214 -0.08741624 -0.017656164
-0.05639241 0.050789136 0.023358947 -0.080405004 0.06961764 -0.08801545 0.04867078 -0.016913937
0.05679907 -0.030708821 0.0074872924 0.01650266 -0.04820759 -0.07930367 0.17764555 -0.029487059
0.08584227 -0.12645666 -0.083065525 -0.026299814 -0.0004830853 0.053167373 -0.06427995 -0.06406311
-0.069403835 0.019007597 -0.022727124 -0.101626545 0.0701208 0.05662215 -0.082297124 0.071563415
0.08198767 -0.108078755 -0.15462504 -0.016182646 0.097353004 0.030890245 -0.09713289 0.01433204
0.01176334 0.057857174 0.059604526 -0.13901116 0.14616588 -0.105632596 0.0030712595 0.022525754

model.all_layers.0.bias f4 [100]
00000000: 5010 733c 4feb 8b3d 0c7d ee3c e6a8 13bd
00000010: 00a0 3dbc 2204 6e3d 5225 0b3d c41a 7d3b
00000020: 8756 49bd 3b5f a03d 7ab7 b0bd 7dda b9bd
00000030: 1851 b53c b7ee 853d 3a3b c1bd 528d 103d
00000040: 3717 4abd 6578 8f3d e09b d0bc 83ea bf3d
00000050: 6d84 27bd b0f5 9fbb c1f1 863d a0ed dbbc
00000060: 8065 af3b 01ab 9c3d 1ca0 10bd 251b a1bd
00000070: 681a 0f3c 9fff b5bd 199e 923d 709e 1d3c
00000080: 1447 debc d859 75bc 5f40 aa3d 98f1 f2bc
00000090: 8a3a 81ba 50bf 693c c07b 183c 8acd 54bd
000000a0: a0d5 d0bb c354 26bd 582d 0cbc 9beb 91bd
000000b0: 7ad2 143d bd18 25bd 7006 633c 2fd3 c73d
000000c0: 5472 e73c f4a3 80bd 5d74 9fbd 60fc 7fbd
000000d0: 25d9 8b3d 67a8 a03d 7afd 0a3d d237 9fbd
000000e0: cca7 dc3c 92a7 083d 0883 9abc bc15 f53c
000000f0: c956 b13d b803 c6bc 7d5d 813d acfe bf3c
00000100: 65d0 b5bd f0df 00bc e8bc d1bc 6869 1bbc
00000110: a02f 97bb c537 99bd 9ec6 483d b547 88bd
00000120: 307f 49bd 7187 c53d b849 ae3c 5836 0ebc
00000130: de4c 4d3d 3d5f c73d 2746 4ebd 529d bdbd
00000140: 587c 71bc 7235 80bd f05c c0bd 8a0c 0abd
00000150: 007c c0bc 7eba 85ba f2aa 373d e115 8a3d
00000160: 14c2 c5bc 9466 f8bc d319 7abd ff41 923d
00000170: 5617 1c3d 10f9 63bc d61a 733d 41f5 a53d
00000180: 04a0 05bd 77c3 963d a6ec 10bd 2c16 a0bc
0.014835432 0.06831991 0.029112361 -0.036049746 -0.0115737915 0.05810941 0.03397114 0.003862069
-0.049154785 0.07830664 -0.086287454 -0.090748765 0.022133395 0.06539672 -0.09435125 0.035291024
-0.049338546 0.07005385 -0.025464952 0.093709014 -0.040897775 -0.004881583 0.0658908 -0.026846707
0.005352676 0.07649804 -0.035308942 -0.078665055 0.008734323 -0.088866465 0.07159061 0.009620294
-0.027133502 -0.014975034 0.08313059 -0.029656217 -0.0009859365 0.014266804 0.009306848 -0.05195383
-0.0063731223 -0.04060818 -0.008555733 -0.07125016 0.03633354 -0.040306795 0.013856515 0.09757077
0.028252758 -0.062812716 -0.077858664 -0.062496543 0.068285264 0.0784462 0.03393314 -0.07774319
0.02693548 0.033362933 -0.018861309 0.02991759 0.08659131 -0.024171695 0.063166596 0.023436867
-0.08877639 -0.007865891 -0.025602773 -0.00948558 -0.0046138316 -0.0748134 0.04901754 -0.06654302
-0.04919356 0.09644974 0.021275386 -0.008679949 0.050122134 0.09734962 -0.05035987 -0.09258522
-0.0147391185 -0.06260194 -0.093927264 -0.033703364 -0.023496628 -0.0010202674 0.04484076 0.06742454
-0.024140395 -0.03032235 -0.061059784 0.07141494 0.038108192 -0.013914362 0.059351765 0.08103419
-0.032623306 0.07361501 -0.035381936 -0.019541822

model.all_layers.1.weight f4 [100]
00000000: d2b6 6e3f 4bed 773f a436 783f 26ff 763f
00000010: 3f10 703f 26d6 813f 4816 8c3f 48de 823f
00000020: b8a9 7e3f dd0e 6a3f f657 833f 52ba 863f
00000030: 6634 863f f23b 783f c9c8 793f 3626 873f
00000040: 410e 803f 724c 883f 3fe9 833f 7ce7 8e3f
00000050: 679a 6f3f cd20 7b3f 10f7 7b3f f3ef 753f
00000060: 5471 753f 174c 843f a0b9 843f 48d1 803f
00000070: e945 813f c8d5 793f b7cc 853f d5dc 833f
00000080: 823d 7d3f 5e53 773f da49 733f b63a 833f
00000090: 9d97 7f3f 6fd1 7b3f c59c 813f ba60 8b3f
000000a0: bca8 733f bf02 7a3f 4110 883f 7a7b 763f
000000b0: 2c9b 803f bb30 7c3f ed45 813f 46f4 7f3f
000000c0: c46f 6d3f 354e 803f ff88 6f3f 53f5 803f
000000d0: e90c 803f 82fe 7f3f 07e6 7c3f 8e29 7b3f
000000e0: 865a 7f3f 7248 883f c28e 743f 83ef 7a3f
000000f0: f621 793f 15d8 743f ca74 833f 8a5e 813f
00000100: 37b7 833f afcd 8b3f 360b 753f 78c7 863f
00000110: f388 833f 8dcf 873f 92f4 813f 33be 7b3f
00000120: 17b4 7a3f 0f11 7e3f 92aa 743f 1613 833f
00000130: 105a 723f 2641 733f a185 833f cc2a 883f
00000140: b1fe 813f c8ca 793f ce62 823f 46be 8d3f
00000150: 6cbb 753f d67a 713f 80a8 7c3f 33fc 7a3f
00000160: 6503 813f c832 7c3f 314a 843f 53bd 763f
00000170: 0dae 723f 9d52 7b3f 5ef0 813f 061f 7f3f
00000180: 18ff 6c3f 9e51 843f 823e 803f 3f84 7e3f
0.9324771 0.96846455 0.96958375 0.96483076 0.9377479 1.0143478 1.09443 1.0224085
0.9947772 0.9142893 1.0261219 1.052561 1.0484741 0.9696647 0.97572 1.0558536
1.000435 1.0648329 1.0305556 1.1164393 0.93594974 0.98096925 0.9842386 0.9606926
0.9587605 1.0335721 1.0369148 1.0063868 1.009946 0.9759183 1.0453099 1.0301768
0.9892198 0.96611583 0.95034564 1.0252292 0.9984072 0.98366445 1.0125967 1.0888894
0.95179343 0.9766044 1.062996 0.9628216 1.0047355 0.98511857 1.0099465 0.99982107
0.92748666 1.0023867 0.93568414 1.0074867 1.000394 0.99997723 0.98788494 0.9811028
0.997475 1.0647109 0.9553033 0.98021716 0.97317445 0.95642215 1.0270016 1.0106976
1.0290288 1.0922145 0.9572023 1.0529623 1.0276169 1.0610214 1.0152762 0.98337096
0.97931045 0.9924478 0.9557277 1.02402 0.94668674 0.95021284 1.0275155 1.063806
1.0155851 0.97575045 1.0186403 1.1073692 0.9598911 0.9432806 0.9869461 0.98041075
1.0079161 0.98514986 1.0335141 0.96382636 0.9479683 0.9817293 1.0151479 0.99656713
0.9257674 1.0337408 1.0019076 0.9942054

model.all_layers.1.bias f4 [100]
00000000: 9fc1 d2bd 33e6 2dbe 49f6 493c 8ef6 acbc
00000010: 6afc 26bd 7e96 bb3a ca88 45bd 88b4 1cbe
00000020: 159c 38bd 3f5d 91bd 0126 e1bd 4b3f 683d
00000030: 0918 f63b 80ff b6bc 312b 3cbd c44d fbbb
00000040: f7ef 8abd 39a2 36bd 7df9 cdbc 2134 b3bc
00000050: 5ab8 bdbd 2c7b 08bd 13dd 6b3c ee3a ddbc
00000060: ab1e b7bd 6027 5ebd 5961 a9bd 58c9 13bd
00000070: c7a3 acbd dea3 69bc 9639 98bd da3f 533d
00000080: b406 d0bc 7835 c33c f2a8 9bbc b1eb 07bd
00000090: d4f7 83bd 815a 0ebd 8164 b6bd 0a98 603c
000000a0: aed6 8ebd 81bf 06ba b9ac 0bbb 3e76 e6bd
000000b0: db0a 7bbc 46f3 1dbd 30fd ca3b de63 46bc
000000c0: cf96 cebd fa4a 5abd 89fb 2a3d addc d2bc
000000d0: 78cc 8abd 90c3 71bd 2f67 56bd bcdb 94bd
000000e0: eb1e 19be 840a 40bd eb2b 8fbd 7d3b a2bd
000000f0: ea7d c8bd 7e12 8bbd a523 9b3c 4d78 4ebc
00000100: abb3 0abe 4201 74bd e93e 23bd ea15 ba3b
00000110: 1063 4f3d 026d b13d 3bb2 97bd df48 efbd
00000120: 7a7e f9bc 196d aabd f8fa 28bd c828 09bc
00000130: dc83 92bd 694d b1bd 419a 32bc 5e5e 8bbd
00000140: 382c 02be 1f05 87bd 269a e5bc 152a fe3d
00000150: b0ec 92bd 0a2e b8bd 18e0 21be c2c3 843c
00000160: 83e1 e2bd 022b a0bd 1645 debd f8d3 6ebd
00000170: d646 2fbd bfc9 1d3d 92ca 99bd 48ed 9fbd
00000180: 8ab4 dabd 23b1 05be f8df af3c 62f6 09be
-0.102908365 -0.16982345 0.012326785 -0.02111366 -0.040768065 0.0014311818 -0.048226155 -0.15303242
-0.045070726 -0.070978634 -0.10993577 0.056700986 0.0075101894 -0.022338629 -0.045939628 -0.0076691825
-0.06784051 -0.0445883 -0.02514338 -0.021875443 -0.09263678 -0.03332059 0.01439597 -0.027005639
-0.08941396 -0.05423677 -0.08270521 -0.03608069 -0.084296755 -0.01426026 -0.07432859 0.051574565
-0.025393821 0.023829207 -0.019001458 -0.033183757 -0.06443754 -0.03475428 -0.08905888 0.013708124
-0.06974541 -0.00051402306 -0.0021312668 -0.11253022 -0.015322412 -0.03856208 0.006194733 -0.012108771
-0.10087358 -0.05329416 0.04174379 -0.025739992 -0.067772806 -0.059024394 -0.052344497 -0.072684735
-0.149532 -0.04688503 -0.069907986 -0.07921503 -0.09789641 -0.067906365 0.018937895 -0.012601924
-0.135451 -0.059571512 -0.039854918 0.005678882 0.050631583 0.0866337 -0.07407042 -0.11683821
-0.030455817 -0.0832159 -0.041254967 -0.008371539 -0.071540564 -0.08657343 -0.010901035 -0.068051085
-0.1271218 -0.06592774 -0.028027605 0.1241037 -0.07174051 -0.08993156 -0.15808141 0.016206626
-0.11078169 -0.07820703 -0.10853021 -0.058307618 -0.042792164 0.03852248 -0.0750934 -0.0780893
-0.10678966 -0.13055854 0.021469101 -0.13472894

model.all_layers.1.running_mean f4 [100]
00000000: d8ae d23d cc25 6ebd ebfc 4cbe 549b 56bf
00000010: 82da 49be c155 383f 2c2d b6be 0113 a33e
00000020: c227 50be 8fc9 ebbe 4567 cb3e 10b3 853f
00000030: f4a0 163e de36 58bf bb38 82bf 5144 a3be
00000040: 7f9d 97be eea7 8d3e f97f fcbe 5c29 8ebd
00000050: da0c 2a3f 98ca a63e 8ea0 ff3d 9f83 5b3f
00000060: 22e2 31bf 0ae5 17bf 6078 013f 46d7 0ebf
00000070: b3f4 853d 6a7f 983d b718 fabd c998 773c
00000080: 4f3e 87bc 730b 21bf ea9d 0ebf 0538 2bbf
00000090: 1562 2d3f abac 85be ee5b b23e bff7 c43e
000000a0: eaa8 cdbe 0926 993d 7b16 62be 758a a7bf
000000b0: 6f55 83be 5ecc bc3f ec51 fabe cbdf 913f
000000c0: ef71 34bf bedf e1be f146 503f 6f86 bd3e
000000d0: 6e03 183e 79b9 0a3f 614f 3c3f c4f7 8cbf
000000e0: e649 f43e 7d14 f03d ae74 bc3e 36da e43d
000000f0: f622 003f 97fa 0ebe 0100 e3be a6e4 b93e
00000100: c45b 20bf e12c 43bf a56c a2be 6e7a 803f
00000110: 6fce cfbe daa8 d43d bef5 abbd 47fa 833f
00000120: b5ae 333f 8e78 5abd d510 7b3e c2d9 293f
00000130: b4e2 ecbd 6a68 413f ebe8 be3e 823c 99bf
00000140: c609 b1be 79a8 48bf f63d 42bf 40ee 27be
00000150: 2ac8 563e 1ea7 18bf 7834 393f 040c 853d
00000160: 860c ebbd a5d1 0c3f 8e8f 4b3f 4060 073f
00000170: d672 e9be 534e 1dbf 6252 20bf f7a6 273f
00000180: ffd2 3abe 752b 333e dccb 1b3f 4c5c 88bf
0.10287255 -0.058141515 -0.20018356 -0.8383076 -0.1971226 0.7200585 -0.35581338 0.31850436
-0.20327666 -0.46052215 0.39727226 1.044527 0.14709836 -0.8445872 -1.0173563 -0.3188806
-0.29612347 0.27667183 -0.49316385 -0.069414824 0.6642586 0.32576442 0.12481795 0.8574771
-0.69485676 -0.5933386 0.505743 -0.5579723 0.06540813 0.07446177 -0.12211745 0.01511211
-0.016509203 -0.62908095 -0.5570971 -0.66882354 0.67727786 -0.26108298 0.34835762 0.38470265
-0.40167934 0.07477958 -0.22078888 -1.3089129 -0.25651118 1.4749868 -0.48890626 1.1396421
-0.7048635 -0.44116014 0.8135825 0.37016627 0.14845058 0.5418926 0.7355862 -1.1013112
0.4771263 0.11722658 0.3680777 0.11174433 0.50053346 -0.1396278 -0.4433594 0.36307257
-0.62640023 -0.76240355 -0.31723514 1.0037363 -0.40587184 0.103837684 -0.08396481 1.0310754
0.70188457 -0.053337626 0.2451814 0.663479 -0.11566678 0.7554995 0.37287077 -1.197159
-0.3457777 -0.7838207 -0.75875795 -0.16399479 0.20974794 -0.5963 0.72345686 0.064964324
-0.11476998 0.5500739 0.7951592 0.5288124 -0.45595425 -0.6144764 -0.62625706 0.65489143
-0.18244551 0.17497046 0.6085794 -1.0653167

model.all_layers.1.running_var f4 [100]
00000000: fdd5 8e41 ce0a 4641 7de0 8c41 441d 9641
00000010: 1861 4641 4784 c441 e357 d041 6ca1 cc41
00000020: e2cf 9b41 1ffb 5e41 b3d1 f641 6e2e ad41
00000030: fe0c a941 378d 9341 be96 d641 b151 8641
00000040: ef2a a541 3aa9 ea41 65db cc41 140b df41
00000050: 5dd5 8f41 510f 8541 0e34 be41 be67 7b41
00000060: 90ce 6741 b878 1242 8b43 9141 d2e8 ae41
00000070: 9073 c441 9fc0 a941 0c58 9641 c874 e841
00000080: 9e71 a441 432b c441 11af cd41 19c4 9b41
00000090: e944 5441 ef5e 9741 637a 8341 80f4 0242
000000a0: e33e cf41 f52a 8641 aee4 b941 8e5a e041
000000b0: aeab 2d42 6f9b de41 0892 a141 34b7 b441
000000c0: be9d 9a41 ecc1 a441 ffab 6141 049c fe41
000000d0: c280 9d41 f873 8941 1c91 0142 10cd bb41
000000e0: 8614 ca41 82be e141 b5bc 7141 cd02 8a41
000000f0: 8bf7 af41 b508 9441 f688 df41 4b8a 9641
00000100: 99c5 7c41 2819 df41 739f cb41 053c 0542
00000110: 4cc8 8e41 6e4f e841 f9d2 8141 0025 9f41
00000120: b02d 9441 26b1 7741 d950 7941 71e4 5f41
00000130: 5cca bd41 e7eb b941 02ab a641 5525 c541
00000140: b255 1342 bbd4 5241 7776 6341 76c7 3042
00000150: 57db 9141 b94c a041 7830 2e42 c983 3341
00000160: 53a5 f541 9a95 ce41 aa22 ac41 7fef 7341
00000170: 548c 8841 5999 9541 9c09 9e41 d1ee 0242
00000180: 126b a241 af7b 0d42 c540 9a41 2293 c641
17.854486 12.377638 17.609613 18.76429 12.398705 24.564589 26.042913 25.57882
19.476505 13.936309 30.852392 21.64767 21.131344 18.443953 26.823605 16.789888
20.645964 29.33263 25.607126 27.88041 17.979181 16.632479 23.775417 15.712828
14.48793 36.61789 18.15798 21.863682 24.556427 21.219053 18.792992 29.057022
20.555477 24.521124 25.710482 19.47075 13.266824 18.921354 16.43476 32.73877
25.905706 16.770975 23.23666 28.044216 43.417656 27.825895 20.196304 22.589455
19.327023 20.594688 14.104491 31.82618 19.68787 17.181625 32.39171 23.475128
25.260021 28.218021 15.108571 17.251368 21.99587 18.504251 27.941875 18.817526
15.798242 27.887283 25.452856 33.308613 17.847801 29.038784 16.228014 19.893066
18.522308 15.480749 15.582238 13.993272 23.723808 23.240187 20.8335 24.643229
36.833687 13.176936 14.216422 44.194786 18.2321 20.037462 43.547333 11.219674
30.705725 25.823048 21.516926 15.245971 17.06852 18.699877 19.754692 32.73322
20.30228 35.370785 19.281626 24.821842

model.all_layers.3.weight f4 [50, 100]
00000000: ea8e 1fbe bf75 323e a6e4 bdbd c625 8b3d
00000010: 74ca 23bd 8094 23bc d30e 0f3e 69eb bc3c
00000020: cb19 21bd 96cc bdbd 89ac e33c a87e 17be
00000030: 993d 053e 46b7 13ba e224 dfbd ab56 573d
00000040: 7756 25be 84bd 393b 6d50 503d 357b 153d
00000050: 315c 8a3d 03f8 d2bd 7310 1ebe 4706 d9bc
00000060: 88f9 19be 2502 60bd f30c b43d 120c 26be
00000070: c6c4 abbd d307 963c 17d6 1c3e 7bc0 38be
00000080: 92ad f93c 4c40 283d e41f cfbc 55fc a03d
00000090: 9e15 f5bd 6e75 f13d b3c2 9cbd 4d14 193e
000000a0: 5478 86bc 2b37 9e3d 168a f0bc 256b 8138
000000b0: 7483 023d fefb b1bd 42d8 56bd 7fb7 b7bc
000000c0: 0853 1f3d 9276 f73d bf75 0bbe c51e c2bd
000000d0: 0553 f6bd 8b4a 39bd 05e0 ad3a 9131 1fbd
000000e0: 2742 70bd 127b 09bb 6e4b e23c 92c4 99bc
000000f0: a582 493d 0d6c e4bd 4b9e 89bc bc90 21be
00000100: ff69 5f3e c1ca ad3d 239e 2ebe 06d4 893d
00000110: 92d7 3c3e 7caa 1abc 671d adbc c356 d8bd
00000120: 3e40 95bd 2789 e83d c48e 273d 010e 793b
00000130: 6bf0 403d 157c 893d c531 933d 7424 8cbb
00000140: a0b9 eb3c 1dd6 9cbd 763a 2b3e 76e0 9dbc
00000150: ee30 c3bb 86bf ddbd 163a d53c 1b4c a83d
00000160: 9a78 823c 1435 d5bc 9bec 663d f0c2 203d
00000170: 3051 f2bc 5b67 543d 929c a63d f6cb dcbb
00000180: 353c e53d f315 d73d 927b a13d eb04 85bd
00000190: 4e94 02bd 46c4 853c 523b 623d dc19 e5bd
000001a0: 90ee 46bd a27a babd 4b0f 20be f712 24bc
000001b0: edce cf3d cec7 20be b064 d53d 5619 11be
000001c0: eac1 533d c180 3bbd 6311 b3bd 0b7a 2ebe
000001d0: d055 61bd b3e0 a0bd 4870 053d 11f1 adbc
000001e0: f595 c6bd 69e4 323d 44c7 df3d 2164 c3bd
000001f0: 3bd6 f13c d2be 5bbd 04f2 52be 2e0d 60bd
00000200: 5e1e bf3c b066 acbc 43df ac3c 6605 893c
00000210: 701f 853d 4526 673d 58e1 c83d 7ee6 d5bc
00000220: 1863 debd 15c6 acbd a682 59bb cb16 213d
00000230: c135 893a 39b8 ddbb 80c6 ea3c d819 4c3d
00000240: 44ad 393d 4bfe 12be 0e64 b23d f974 4cbd
00000250: 8975 66bd 0aa5 ae3c b671 52bd 387d ea3d
00000260: 3943 313d 3a9f 443c 7449 073d 4277 3c3d
00000270: 7620 28bd 2c35 ac3d 02f0 873d a45f 893d
00000280: d9fb da3c 4525 29be 263b 84bd aae4 49bd
00000290: 5ce4 1d3d 6b0a 1fbd 5552 95bd 297c b43d
000002a0: 1096 24bd c23b d9bc c689 833c 6afc 2c3d
000002b0: f91e a03d 1c9e 113c ffa5 3bbd aa56 f33d
000002c0: f5eb 153e ea42 e5bc f77e a03c 3ff6 08bd
000002d0: 7b28 b93c 77b4 213c d5b1 b2bd 96a8 85bd
000002e0: e272 703d a70f e5bc edc1 6b3d 99c5 753d
000002f0: c109 fc3d 6bbf 2ebd d7fd 043d 06e9 443d
00000300: fa3d ffbd a3de f93a 7131 8c3d b904 123d
00000310: 8642 30bd 378a 7f3d 43ce a1bd 4629 c83d
00000320: 5499 9cbd 0e0c 72bd 9e6a c13d 3249 6abc
00000330: 2f50 a13c 88ad dd3d c68b 52bd 3f8c 8dbd
00000340: 401e ffbc 5cac f0bc f9a0 37be 357a b23b
00000350: ffd8 923d 5fe5 97bc d34f 2bbc 2229 89bd
00000360: d8cd f4bb e2b7 dd3d c98e 48be 1388 903d
00000370: 8ea7 8b3c b7db 7fbd 375a 09bc 309b a63d
00000380: 23a1 b9bc 40aa 0a3c 425b 08be 5123 a7bd
00000390: 89f1 873c 7882 a5bd ff51 53bd 5441 793d
000003a0: c1c0 1cbd 11cc ddbc 742e 00be 2aae 65bd
000003b0: f9be 203e 0dc8 49bd c812 473d 5199 a73c
000003c0: 44f4 5b3d 4dee 1ebd 8fb7 b6bd 4db5 7abd
000003d0: 2abe 593d c5c5 3cbc cfde 2cbe 4603 543d
000003e0: 74bd 70bd b24f 3dbd 38b3 513c 056b c63d
000003f0: f737 d83c 1e1c 0c3d 4c48 11be 02f8 c63d
-0.15581861 0.17427729 -0.09272127 0.06794314 -0.039987996 -0.009984136 0.13970499 0.023061471
-0.03933124 -0.09267537 0.027792232 -0.1479441 0.13011779 -0.0005634915 -0.10895707 0.052572887
-0.16146265 0.002834172 0.05085795 0.036494453 0.06755865 -0.10301211 -0.15435962 -0.026492251
-0.15036595 -0.054689545 0.08791532 -0.16215542 -0.08387141 0.018314278 0.15316044 -0.18042175
0.030478273 0.041076943 -0.025283761 0.078606285 -0.11967014 0.11789976 -0.076543234 0.1494915
-0.016414799 0.07725366 -0.02936272 6.1711566e-05 0.031863645 -0.08690642 -0.052452333 -0.022426365
0.038897544 0.12083162 -0.13619135 -0.09478525 -0.120275535 -0.045237105 0.0013265616 -0.03886563
-0.058656838 -0.0020977897 0.027623858 -0.01877049 0.049196858 -0.111534216 -0.016799113 -0.15777868
0.21817778 0.08485938 -0.17052512 0.067298934 0.18441609 -0.009440061 -0.021132184 -0.105634235
-0.07287644 0.11354285 0.040907636 0.0038002732 0.04710428 0.0671312 0.07187227 -0.0042768065
0.028775036 -0.07658026 0.1672152 -0.01927207 -0.0059567606 -0.10827546 0.026028674 0.08217641
0.015926648 -0.026026286 0.05637799 0.039248407 -0.029579729 0.05185638 0.08135332 -0.006738181
0.11193124 0.10502233 0.07884897 -0.06495079 -0.031879716 0.016328942 0.055232354 -0.11186573
-0.048567355 -0.091054216 -0.15630834 -0.010014287 0.1014689 -0.1570122 0.10419595 -0.14169821
0.051698603 -0.045777086 -0.08743551 -0.17038743 -0.055013478 -0.07855358 0.032577783 -0.021233113
-0.09696571 0.04367486 0.10926679 -0.095405824 0.029521098 -0.053648777 -0.20600134 -0.05470007
0.02332991 -0.021045059 0.021102553 0.016726207 0.06500137 0.05643298 0.09808606 -0.026110884
-0.108587444 -0.08436219 -0.0033189445 0.039328378 0.001046829 -0.006766346 0.028659105 0.049829334
0.045331255 -0.14354818 0.0871049 -0.04991624 -0.056264434 0.021318931 -0.051377974 0.11449665
0.043277 0.012000853 0.033029035 0.04601217 -0.041046582 0.08408579 0.06637575 0.06707695
0.026731418 -0.16518123 -0.06456594 -0.049290337 0.03854786 -0.038828295 -0.07291094 0.08812744
-0.040182173 -0.026517753 0.016056906 0.04223291 0.078184076 0.008887794 -0.045812603 0.11881764
0.14640792 -0.027986009 0.019591792 -0.033437964 0.02260231 0.009869686 -0.08725325 -0.06526296
0.05870331 -0.027961565 0.05755799 0.060002897 0.12306548 -0.04266302 0.032468643 0.04807379
-0.12462993 0.0019063543 0.06845368 0.035649035 -0.04303219 0.06238767 -0.079006694 0.09773497
-0.076464325 -0.059093527 0.09444164 -0.014299678 0.019691555 0.10824114 -0.05140283 -0.069115154
-0.031142354 -0.029379062 -0.179325 0.005446697 0.07170295 -0.01854199 -0.010456043 -0.066972986
-0.0074708275 0.108260885 -0.19585718 0.07057204 0.01704767 -0.062465396 -0.008383325 0.081350684
-0.022659844 0.008463442 -0.13316062 -0.08161033 0.016594665 -0.080815256 -0.05159187 0.060853317
-0.038269762 -0.027074846 -0.1251772 -0.0560743 0.1569785 -0.04926305 0.048601896 0.02045885
0.053699747 -0.03880148 -0.0892173 -0.06120806 0.05315987 -0.011521761 -0.1688187 0.051760934
-0.058774427 -0.04621858 0.012799077 0.09688381 0.026393874 0.034206502 -0.14187735 0.097152725

model.all_layers.3.bias f4 [50]
00000000: b010 b1bd 0e6a 60ba 4d34 8d3c e9b0 f93c
00000010: 7d44 ba3b 60ee 33bd 4a6d 8d3c 021a 7f3d
00000020: 7a53 40bd 2d42 77bd ed30 b8bd 06c7 243d
00000030: 1f9b 58bc 057c 913d e2bd a6bc 3b77 b63b
00000040: bba5 b1bd decb 183d 2d61 3fbb 3fd2 b63d
00000050: c45c 3b3d 5410 843c 3abc 013d c670 4e3d
00000060: c28d 0dbc a943 453c 3730 513b 9349 73bd
00000070: 7e96 73bd 586b b23c 11c9 a33d b150 843d
00000080: 2aad 663d b648 113d 2ed6 643d 9718 06bd
00000090: 264b 02bd 2cf4 893c ec8d 90bc 20ba bfbd
000000a0: 5eda 4b3d 4108 343d c303 bcbd 3769 9f3d
000000b0: 084c 82ba 76a8 a2bd 83de 5abd ad04 4b3c
000000c0: b677 92bd 717e 873d
-0.08645761 -0.0008560725 0.017236853 0.030479865 0.005684434 -0.043928504 0.017264027 0.062280662
-0.04695461 -0.060365845 -0.08993707 0.040228866 -0.0132205775 0.07103733 -0.020354215 0.0055684126
-0.08674189 0.037303798 -0.0029202208 0.0892682 0.045742765 0.016121067 0.031673647 0.050400518
-0.008639755 0.012040057 0.0031919607 -0.059396338 -0.059469692 0.021779701 0.07997335 0.06460703
0.056317486 0.035469733 0.05586832 -0.032738294 -0.03180995 0.016840063 -0.017645799 -0.093616724
0.049768798 0.043953184 -0.09180405 0.0778374 -0.0009940872 -0.079422876 -0.05343486 0.0123912515
-0.07151739 0.06615914

model.all_layers.4.weight f4 [50]
00000000: e2e3 773f 6b4e 6c3f a1c1 6a3f d230 673f
00000010: d5ac 683f 101a 883f 5891 6c3f d256 7a3f
00000020: 6ca1 783f ffd3 6f3f 6f45 833f d3d2 653f
00000030: d477 6d3f 7060 783f a76e 713f b2db 833f
00000040: 0119 783f 0208 713f bb00 723f 1c85 7d3f
00000050: ed03 853f 83be 8d3f 80dd 663f efd5 683f
00000060: 95ab 6c3f 7934 823f 556d 673f 2557 6c3f
00000070: 156b 6b3f 0e4d 673f c5ce 703f 82c4 673f
00000080: 1f1f 663f 4f85 733f 49e4 703f e43b 7b3f
00000090: 7c43 6e3f 32c4 713f 55cf 673f 15bf 6d3f
000000a0: 8a45 663f 382b 7e3f f9b7 823f 5c42 663f
000000b0: 0807 753f 9cf2 813f b675 6d3f 5710 6a3f
000000c0: c25a 733f 5e86 7a3f
0.96832097 0.92307156 0.91701704 0.9030887 0.9088872 1.0632954 0.92409277 0.9778873
0.9712131 0.93682855 1.0255564 0.8977482 0.9276097 0.9702215 0.9430947 1.0301421
0.9691315 0.94152844 0.94532365 0.99031234 1.0391823 1.1073765 0.9018173 0.90951437
0.92449313 1.0172263 0.904012 0.9232047 0.9196027 0.9035195 0.94065505 0.9053422
0.8989124 0.9512529 0.94098336 0.9813826 0.93071723 0.94439995 0.9055074 0.92869693
0.8994986 0.99284697 1.0212394 0.89945006 0.95713854 1.0152164 0.9275774 0.9143118
0.9506036 0.9786128

model.all_layers.4.bias f4 [50]
00000000: f640 06be 0838 92bd 1554 f0bd 6d92 fdbd
00000010: 5d2e 81bd 47f3 96bd faed 13be c276 cfbd
00000020: f2f2 9fbd 1a09 c1bd 7108 8fbe b04b 15be
00000030: 5953 7d3c 997d 18be beb9 31bd 4380 04be
00000040: 283b 2abe 72cd e8bd 4a6f 20be daa1 74be
00000050: c8aa 46be 42d8 82bd 8e08 dbbd 5b69 11be
00000060: 322a 76be 6b2b 2dbe 2b5c 11be 48d1 86be
00000070: b4b1 2ebe aaa4 c6bd b368 34be 2570 01be
00000080: 3ca8 45be f7e1 62bd 90fa cfbd 925d 2ebe
00000090: fdcd 00be af6b a4be d1da bdbd bcff 0abe
000000a0: ca34 cebd 5035 52be a57d 0ebe 4ae5 d4bd
000000b0: 6672 c6bd 0975 bdbd 6252 04be 3ab9 35be
000000c0: af0e 0bbe d171 afbd
-0.13110718 -0.07139593 -0.117347874 -0.12381444 -0.06307671 -0.0737062 -0.1444625 -0.10130073
-0.0781001 -0.09425564 -0.27936128 -0.14579654 0.015461766 -0.14891662 -0.04339003 -0.12939553
-0.16624129 -0.113673106 -0.15667453 -0.23889866 -0.19401085 -0.06388904 -0.10694991 -0.14200346
-0.24039534 -0.16911094 -0.14195316 -0.26331544 -0.17059976 -0.09699376 -0.17618065 -0.12640436
-0.19302458 -0.055391278 -0.10155213 -0.17027882 -0.12578578 -0.32113406 -0.092702515 -0.13574117
-0.100686625 -0.2052815 -0.13915117 -0.10395296 -0.096897885 -0.09250838 -0.12922052 -0.1774644
-0.1357982 -0.08566631

model.all_layers.4.running_mean f4 [50]
00000000: 2a6b 07be 36b2 80be 33b6 2bbf 20e1 f4bb
00000010: daa9 9dbd 8853 45bd e638 8d3b 8b9b 583f
00000020: 4bad 99be 0da3 acbe 9a0c 9abe 52ff 26bc
00000030: fbb8 6c3f 7d96 ccbe fcb9 f6be 3293 493e
00000040: b16d 0fbf bd9d 7dbd 2579 4c3e 246d d63e
00000050: faa0 b8be 61a2 12bf e860 95be 26e2 273f
00000060: ab35 5f3e d9d7 70bd a35e 02be 5e37 57bf
00000070: c018 6bbf 89c9 a33e 26b5 1dbf 300f 5ebd
00000080: c9db 21bd 9371 0ebf 944f aabe 1808 1bbf
00000090: 1c0d b3be 6a38 8bbf d427 94be 1de4 56bf
000000a0: 8069 15be d6c7 44be 08e2 89be 0a3f f1be
000000b0: 3ad8 32be 345a 5cbe ae0c 653e facc 41be
000000c0: f0f2 32bf 9b47 a53e
-0.13224474 -0.25135964 -0.6707489 -0.007473126 -0.07698412 -0.048175365 0.0043097613 0.8461234
-0.30015025 -0.33718148 -0.3008774 -0.010192709 0.9246976 -0.39958563 -0.4818877 0.19685057
-0.5602675 -0.06191801 0.19968088 0.41880143 -0.36060315 -0.5727902 -0.29175496 0.6557945
0.21797816 -0.0587996 -0.12731414 -0.8406886 -0.9183464 0.31989697 -0.61604536 -0.054213703
-0.039516244 -0.5564205 -0.33263838 -0.60559225 -0.3497094 -1.0876591 -0.28936636 -0.83941823
-0.14591026 -0.19216856 -0.2693026 -0.47118407 -0.17465296 -0.21518785 0.22368118 -0.18925849
-0.69901943 0.32281193

model.all_layers.4.running_var f4 [50]
00000000: 9a50 323f 8393 a43e 3b1a c13e 63d4 053f
00000010: acac 6a3e dace a43f 88b1 193f 7e37 663f
00000020: 1531 693f e114 2f3f 7639 7f3f 43a0 9d3e
00000030: f1aa 443f aab6 203f 2149 413f 68c7 9d3f
00000040: fa6a 853f b6cc 423f f092 363f 2edf 6e3f
00000050: b9e0 863f 4c7a ec3f d28e a23e 7395 be3e
00000060: bc49 243f cb39 9b3f 42a2 ca3e 8bd9 073f
00000070: 04a1 f13e ccce 953e 03cd 243f ddff b63e
00000080: 367c da3e 87e5 513f d514 2d3f c0e8 8d3f
00000090: cdde a33e aade 353f 1034 e63d ffeb fa3e
000000a0: 1f9e 2b3e 4a24 563f f122 b73f 0453 8e3e
000000b0: 52ec 153f 62ed c83f 3c0f 833f a35a 9e3e
000000c0: 3b40 e33e cc1a eb3e
0.6965424 0.32143793 0.37715325 0.522772 0.22917432 1.2875626 0.60036516 0.89928424
0.9109052 0.68391234 0.99697053 0.30786332 0.76823336 0.62778723 0.7550221 1.2326479
1.0423272 0.76093614 0.7131796 0.93309295 1.053733 1.8474822 0.31749588 0.37223396
0.6417501 1.2127012 0.39576918 0.5306632 0.47193158 0.29259336 0.64375323 0.35742083
0.4267289 0.81990856 0.6760991 1.1086655 0.3200592 0.71042883 0.11240399 0.49008176
0.16759537 0.8364912 1.4307538 0.2779771 0.5856372 1.5697443 1.0239024 0.30928525
0.4438494 0.45918882

model.all_layers.6.weight f4 [2, 50]
00000000: 880a 793e 0a37 133d aa3f 84bd d98a d2bd
00000010: 2bd9 d73d 0327 9dbe c48e 3bbe 79c1 9a3e
00000020: d6ae 8cbe c976 31be f819 b1be 06af 10bb
00000030: 1c7d 1c3e 94de b63e 06f4 6f3e 6438 b03e
00000040: ab19 7dbe 494c 5d3e d8ce 35be 6f19 b43e
00000050: 439c bcbe 4172 d43e 1b80 8cbd e219 cb3d
00000060: d917 3bbe 65d8 9f3e 9044 04be 9b76 76be
00000070: ab12 7abe 502a 10bc caff bfbd e09f df3c
00000080: 68a6 1ebe 761c 393e dc76 4a3e b0c5 8fbe
00000090: e825 a83d 973c 4fbe 6e35 2a3d dec2 8abe
000000a0: bab0 7dbd 2e55 b9be c725 abbe d354 f3bd
000000b0: 73ad e53d 7d3e a13e 11bd 46be 7645 4dbe
000000c0: 6be9 363e c567 3e3e 4920 7fbe 0f26 88be
000000d0: 4219 0a3e 9b9d f93d f8d2 e3bb be62 e33e
000000e0: 7454 073e be55 6dbe b91c 6b3e 85fc 383e
000000f0: 68c8 d13e 5b8c cebd c963 6cbe d613 e2bd
00000100: c2ec efbd 92b6 9dbe 1a32 813e b945 0abe
00000110: 513a 7f3e 6846 85be 1ee3 ba3e 93a1 dabe
00000120: 625f 973c 42bd 4dbe 21c5 643e ed77 c9be
00000130: 95f0 ad3d f748 eb3d d151 003d 1456 0b3e
00000140: ec12 993e 69fa 2bbe 5133 133e cf61 46be
00000150: f9df 16be a34f 963e 9cb3 6bbe a269 a43e
00000160: 2a9d 623d caa0 693d 863f 2b3c 87e7 653e
00000170: a0c6 a63e d57f aabc 130b 95be 6761 9abe
00000180: a8b6 483e bbe5 c33d 9371 57be f4f9 97be
0.24320424 0.03594116 -0.064574555 -0.10280389 0.105394684 -0.30693826 -0.1831618 0.30225733
-0.2747714 -0.17330469 -0.34590125 -0.0022076978 0.152821 0.3571669 0.23432931 0.34418023
-0.24716823 0.21611132 -0.17754686 0.35175654 -0.36837968 0.4149342 -0.06860372 0.09917046
-0.18270816 0.31219783 -0.1291678 -0.24068682 -0.24421184 -0.008799151 -0.0937496 0.027297914
-0.15493166 0.18077263 0.19771904 -0.2808051 0.08210355 -0.20237957 0.04155486 -0.27101797
-0.061936118 -0.361978 -0.3342726 -0.11881413 0.112147234 0.31492987 -0.1940806 -0.20046028
0.1786248 0.18594272 -0.2491466 -0.26591536 0.13486198 0.12188264 -0.0069526397 0.44411272
0.1321581 -0.2317724 0.22960176 0.18065079 0.4097321 -0.100853644 -0.2308494 -0.1103894
-0.1171508 -0.30803353 0.25233537 -0.1350316 0.2492459 -0.26030278 0.36501402 -0.42701396
0.0184781 -0.20091727 0.22340824 -0.3934931 0.08493153 0.11488526 0.031328026 0.13607055
0.2989725 -0.16794743 0.14375044 -0.19373249 -0.14733876 0.29357633 -0.23017734 0.3211184
0.055325665 0.057038106 0.010452157 0.22451602 0.32573414 -0.020812908 -0.2911001 -0.30152437
0.19600928 0.09565302 -0.21039419 -0.29682887

model.all_layers.6.bias f4 [2]
00000000: 840b 433e fe8f bcbe
0.19047362 -0.36828607
