unit06-dl-tips/6.8-debugging/lightning_logs/version_4/checkpoints/epoch=4-step=5.ckpt (torch, 71794 bytes, 14 tensors)

model.all_layers.0.weight f4 [100, 100]
-0.051127817 0.01361592 -0.10046149 0.041231953 -0.09809347 0.0930645 -0.039422806 -0.052850466
-0.1049558 0.06709256 -0.049450632 0.03435091 -0.054240923 -0.043295298 -0.039099757 0.014602815
-0.08003896 0.07402985 -0.0038230384 0.03493113 0.06431666 0.007225067 0.03658327 0.0919088
-0.061220475 0.010704868 -0.049824685 0.07980439 0.08734798 -0.083857805 0.07963168 0.09026664
0.038293626 0.052514706 0.08382097 -0.021692222 -0.083465636 -0.044342525 -0.056001995 -0.0074632927
0.011961193 -0.020377224 -0.014017004 0.09106923 -0.010269641 0.010849778 -0.022426993 0.008569203
0.11111349 0.060885694 0.03511538 0.05499227 0.027827548 0.041191686 -0.034024276 -0.09182708
-0.059094947 0.09733513 0.01814128 -0.072456576 -0.00034674868 0.078144625 -0.09352022 -0.070059806
-0.049431052 0.037274994 -0.0113464175 -2.1197744e-05 -0.084919594 0.03275401 0.084704 0.06000717
-0.077924244 -0.07227091 0.03748862 0.03666898 0.03665228 -0.096444644 -0.0216099 0.06372398
0.05638404 0.007900068 0.019937336 -0.03056993 -0.071102865 -0.023364516 -0.052347045 0.09229912
0.03890915 0.030631376 -0.068134345 0.10381586 0.055920277 0.0794831 -0.036967736 0.011596978
0.07806454 0.068490215 0.085283406 -0.024189038 0.09122021 -0.070089564 0.14300266 -0.05990047
-0.017991805 -0.054111484 -0.022712646 0.08169404 0.11238141 -0.041925058 0.104983374 -0.08458716
0.025789907 -0.03847461 -0.011295854 -0.06955774 -0.07853977 -0.023278233 0.005122029 0.08373644
-0.031114528 0.04751326 0.08534909 -0.018292319 0.15199818 -0.062004365 0.08512832 0.038530532
0.026951628 0.0784357 -0.017434143 -0.040496267 0.041474175 -0.088141344 -0.014379196 -0.0385681
0.025597349 0.011758217 -0.01479669 -0.031500157 -0.025266401 -0.061298877 -0.0063217836 0.09221705
0.021252288 -0.05568674 -0.059970908 -0.008444478 -0.10215968 -0.06752101 -0.08141746 -0.064159036
0.01845065 0.08253224 0.07143017 0.03879293 -0.10225362 -0.019161522 -0.10874402 0.022531753
0.077779755 0.12126928 -0.08385896 0.09965447 0.072028235 0.05065729 -0.013330834 0.031452518
0.05065647 0.073444985 -0.03983793 -0.06396164 0.003127919 0.01810932 -0.07977144 -0.11177148
-0.04875885 -0.032581564 0.08987545 0.03148431 -0.022912182 0.015064694 0.0802868 -0.055610117
-0.020220183 -0.057840183 -0.0923856 0.03697667 0.1275971 -0.049906813 -0.119701676 -0.10670174
0.010465073 0.088719115 -0.097758174 -0.0638576 0.066730715 -0.049607746 0.0902589 0.041372117
-0.044311468 -0.004712194 -0.03781749 -0.03371401 -0.07923424 0.024260102 0.009090455 0.012974806
-0.07574835 0.10910683 -0.052617505 0.020727236 0.072062455 -0.042487856 0.0032968235 -0.0034808374
0.05175104 -0.024074014 0.027283778 0.0064783175 -0.096889466 -0.08463006 0.03442665 -0.027652638
0.017636364 -0.09764037 -0.059749268 -0.0866265 0.04770728 -0.0071595893 -0.037056535 0.03621693
-0.10483257 0.027720544 -0.01566193 -0.09933799 0.06296826 -0.021743292 -0.095815755 0.063262716
0.08443236 -0.011572049 -0.050223008 -0.00061378686 0.05197892 0.10815003 -0.07740307 -0.043386642
0.096442096 0.04670187 0.082546145 -0.042504493 0.08512362 -0.07364064 -0.016862344 0.03042308
00000000: 676b 51bd 4f15 5f3c c1be cdbd d6e2 283d
00000010: 3be5 c8bd 9a98 be3d cf79 21bd bb79 58bd
00000020: 11f3 d6bd d367 893d bf8c 4abd 8ab3 0c3d
00000030: bb2b 5ebd 6956 31bd 1127 20bd a540 6f3c
00000040: 77eb a3bd f69c 973d f18b 7abb f213 0f3d
00000050: 74b8 833d 41c0 ec3b 57d8 153d ae3a bc3d
00000060: 52c2 7abd 7863 2f3c f814 4cbd 7c70 a33d
00000070: 7fe3 b23d a4bd abbd ef15 a33d b7dd b83d
00000080: c7d9 1c3d a919 573d 54aa ab3d e3b3 b1bc
00000090: 08f0 aabd 82a0 35bd 5962 65bd a38e f4bb
000000a0: e1f8 433c 23ee a6bc 93a7 65bc 8182 ba3d
000000b0: ff41 28bc 44c3 313c d0b8 b7bc d865 0c3c
000000c0: 788f e33d 4763 793d 25d5 0f3d 933f 613d
000000d0: 99f6 e33c 9db8 283d 0a5d 0bbd d60f bcbd
000000e0: 8b0d 72bd a457 c73d 069d 943c 1d64 94bd
000000f0: d2cb b5b9 4a0a a03d 8787 bfbd 847b 8fbd
00000100: 3778 4abd aaad 183d 53e6 39bc cfd1 b1b7
00000110: 53ea adbd 1229 063d 4a79 ad3d 14ca 753d
00000120: bf96 9fbd c502 94bd ab8d 193d 3632 163d
00000130: b320 163d c584 c5bd 3f07 b1bc b881 823d
00000140: f3f2 663d 496f 013c a053 a33c ca6d fabc
00000150: 619e 91bd f166 bfbc db69 56bd 5207 bd3d
00000160: 335f 1f3d a7ee fa3c 058a 8bbd 699d d43d
00000170: a90c 653d 09c8 a23d 7b6b 17bd 4001 3e3c
00000180: 4de0 9f3d 9944 8c3d 11a9 ae3d 1728 c6bc
00000190: a9d1 ba3d 1e8b 8fbd 4a6f 123e 325a 75bd
000001a0: 8d63 93bc 01a4 5dbd df0f babc 344f a73d
000001b0: 3a28 e63d 9cb9 2bbd 8601 d73d 083c adbd
000001c0: 5b45 d33c 8d97 1dbd 3f12 39bc 4a74 8ebd
000001d0: 75d9 a0bd feb1 bebc b2d6 a73b 037e ab3d
000001e0: e5e3 febc 449d 423d 81cb ae3d c6d9 95bc
000001f0: 69a5 1b3e 4af8 7dbd c257 ae3d 31d2 1d3d
00000200: a9c9 dc3c e5a2 a03d 0cd2 8ebc 6adf 25bd
00000210: d3e0 293d 7383 b4bd b896 6bbc 96f9 1dbd
00000220: 88b1 d13c 89a5 403c d16d 72bc 4f06 01bd
00000230: 7cfb cebc 8814 7bbd f726 cfbb 4bdc bc3d
00000240: 4719 ae3c c717 64bd 0ea4 75bd b55a 0abc
00000250: 1839 d1bd 7548 8abd 33be a6bd d065 83bd
00000260: d125 973c aa06 a93d fb49 923d 56e5 1e3d
00000270: 596a d1bd a0f8 9cbc 2fb5 debd 8394 b83c
00000280: fe4a 9f3d 075c f83d 3fbe abbd a517 cc3d
00000290: 8a83 933d 057e 4f3d 9269 5abc 5bd4 003d
000002a0: 297d 4f3d 536a 963d 192d 23bd 52fe 82bd
000002b0: c6fd 4c3b ff59 943c 355f a3bd 72e8 e4bd
000002c0: 5cb7 47bd 3f74 05bd 9f10 b83d b1f5 003d
000002d0: 54b2 bbbc e8d1 763c 686d a43d 6fc7 63bd
000002e0: cca4 a5bc d4e9 6cbd a934 bdbd d974 173d
000002f0: d0a8 023e 166b 4cbd 2726 f5bd 7186 dabd
00000300: b375 2b3c 5eb2 b53d 7035 c8bd c6c7 82bd
00000310: 1daa 883d 7e31 4bbd a8d9 b83d cf75 293d
00000320: f17f 35bd c068 9abb 83e6 1abd b417 0abd
00000330: 9045 a2bd 1fbd c63c 22f0 143c 4894 543c
00000340: f321 9bbd 6773 df3d 7485 57bd 2acc a93c
00000350: 7b95 933d bf07 2ebd 850f 583b c31e 64bb
00000360: e6f8 533d de36 c5bc 3b82 df3c 1148 d43b
00000370: fc6d c6bd 8652 adbd f502 0d3d c987 e2bc
00000380: 237a 903c adf7 c7bd a6bb 74bd 3c69 b1bd
00000390: b568 433d fd9a eabb 98c8 17bd 3458 143d
000003a0: 75b2 d6bd 3216 e33c 734d 80bc b771 cbbd
000003b0: 81f5 803d fd1e b2bc 0d3b c4bd e28f 813d
000003c0: e0ea ac3d b198 3dbc a4b6 4dbd 8ae6 20ba
000003d0: d9e7 543d c37d dd3d 8085 9ebd 31b6 31bd
000003e0: 6f83 c53d 764a 3f3d f40d a93d 3119 2ebd
000003f0: 4b55 ae3d e7d0 96bd e622 8abc d339 f93c

model.all_layers.0.bias f4 [100]
0.014835432 0.06831991 0.029112361 -0.036049746 -0.0115737915 0.05810941 0.03397114 0.0038620683
-0.049154785 0.07830664 -0.086287454 -0.090748765 0.022133395 0.06539672 -0.09435125 0.035291024
-0.049338546 0.07005385 -0.025464952 0.093709014 -0.040897775 -0.004881583 0.0658908 -0.026846707
0.005352676 0.07649804 -0.035308942 -0.078665055 0.008734323 -0.088866465 0.07159061 0.009620294
-0.027133502 -0.014975034 0.08313059 -0.029656217 -0.0009859417 0.014266804 0.009306848 -0.05195383
-0.0063731223 -0.04060818 -0.008555733 -0.07125016 0.03633354 -0.040306795 0.013856515 0.09757077
0.028252758 -0.062812716 -0.077858664 -0.062496543 0.068285264 0.0784462 0.03393314 -0.07774319
0.02693548 0.033362933 -0.018861309 0.02991759 0.08659131 -0.024171695 0.063166596 0.023436867
-0.08877639 -0.007865891 -0.025602773 -0.00948558 -0.0046138316 -0.0748134 0.04901754 -0.06654302
-0.04919356 0.09644974 0.021275386 -0.008679949 0.050122134 0.09734962 -0.05035987 -0.09258522
-0.0147391185 -0.06260194 -0.093927264 -0.033703364 -0.023496628 -0.0010202674 0.04484076 0.06742454
-0.024140395 -0.03032235 -0.061059784 0.07141494 0.038108192 -0.013914362 0.059351765 0.08103419
-0.032623306 0.07361501 -0.035381936 -0.019541822
00000000: 5010 733c 4feb 8b3d 0c7d ee3c e6a8 13bd
00000010: 00a0 3dbc 2204 6e3d 5225 0b3d c11a 7d3b
00000020: 8756 49bd 3b5f a03d 7ab7 b0bd 7dda b9bd
00000030: 1851 b53c b7ee 853d 3a3b c1bd 528d 103d
00000040: 3717 4abd 6578 8f3d e09b d0bc 83ea bf3d
00000050: 6d84 27bd b0f5 9fbb c1f1 863d a0ed dbbc
00000060: 8065 af3b 01ab 9c3d 1ca0 10bd 251b a1bd
00000070: 681a 0f3c 9fff b5bd 199e 923d 709e 1d3c
00000080: 1447 debc d859 75bc 5f40 aa3d 98f1 f2bc
00000090: b73a 81ba 50bf 693c c07b 183c 8acd 54bd
000000a0: a0d5 d0bb c354 26bd 582d 0cbc 9beb 91bd
000000b0: 7ad2 143d bd18 25bd 7006 633c 2fd3 c73d
000000c0: 5472 e73c f4a3 80bd 5d74 9fbd 60fc 7fbd
000000d0: 25d9 8b3d 67a8 a03d 7afd 0a3d d237 9fbd
000000e0: cca7 dc3c 92a7 083d 0883 9abc bc15 f53c
000000f0: c956 b13d b803 c6bc 7d5d 813d acfe bf3c
00000100: 65d0 b5bd f0df 00bc e8bc d1bc 6869 1bbc
00000110: a02f 97bb c537 99bd 9ec6 483d b547 88bd
00000120: 307f 49bd 7187 c53d b849 ae3c 5836 0ebc
00000130: de4c 4d3d 3d5f c73d 2746 4ebd 529d bdbd
00000140: 587c 71bc 7235 80bd f05c c0bd 8a0c 0abd
00000150: 007c c0bc 7eba 85ba f2aa 373d e115 8a3d
00000160: 14c2 c5bc 9466 f8bc d319 7abd ff41 923d
00000170: 5617 1c3d 10f9 63bc d61a 733d 41f5 a53d
00000180: 04a0 05bd 77c3 963d a6ec 10bd 2c16 a0bc

model.all_layers.1.weight f4 [100]
0.9976825 1.0083398 1.0243212 0.98923934 0.98147345 1.0050014 1.0014194 0.9932933
0.9933603 0.99281406 1.0054946 0.9953664 1.0081035 0.9990393 1.0157009 1.0045292
0.9941887 0.98610425 1.0092858 1.0000074 0.9905152 0.990598 0.9827847 1.0135045
1.0030048 0.99832296 0.9951954 0.99783295 1.0098841 1.0086237 0.99965036 0.9977284
0.99395454 1.0079703 0.99083215 1.0041519 1.0106336 0.9901476 0.9875998 1.0151576
0.99496007 1.0017546 0.9940716 1.0137494 0.9976896 1.0011373 1.0106863 1.0077547
0.98493123 1.0045638 1.0095536 1.0108926 1.0032063 0.9983833 1.0005939 1.0052222
0.98999155 1.0075703 1.0180768 0.995863 1.002967 0.9905555 0.99755657 0.99410355
0.98652273 0.99695706 1.0051637 1.0032089 0.9971289 0.99400723 1.0066215 1.0024823
0.9995282 0.99462306 0.9949222 0.98917335 0.9988924 1.001635 0.9977733 0.9870361
0.9873422 1.0045656 0.98824537 1.0152727 0.99369496 0.98919886 1.0195093 1.0005804
0.99802285 1.000076 0.9891495 1.0096942 1.0075219 1.014683 0.99219805 1.0075179
0.9994148 1.0079545 0.9994709 0.9950077
00000000: 1f68 7f3f 4711 813f f51c 833f ca3e 7d3f
00000010: d841 7b3f e3a3 803f 832e 803f 7848 7e3f
00000020: dc4c 7e3f 1029 7e3f 0cb4 803f 55d0 7e3f
00000030: 8909 813f 0ac1 7f3f 7d02 823f 6a94 803f
00000040: 2783 7e3f 5471 7c3f 4730 813f 3e00 803f
00000050: 6792 7d3f d597 7d3f c797 7b3f 84ba 813f
00000060: 7662 803f 1892 7f3f 20c5 7e3f fb71 7f3f
00000070: e243 813f 951a 813f 16e9 7f3f 216b 7f3f
00000080: ce73 7e3f 2c05 813f 2da7 7d3f 0d88 803f
00000090: 715c 813f 507a 7d3f 57d3 7c3f aff0 813f
000000a0: b4b5 7e3f 7f39 803f 7a7b 7e3f 8ac2 813f
000000b0: 9668 7f3f 4425 803f 2b5e 813f 1bfe 803f
000000c0: 7424 7c3f 8c95 803f 0d39 813f ee64 813f
000000d0: 1069 803f 0c96 7f3f 7613 803f 1fab 803f
000000e0: 1670 7d3f 10f8 803f 5750 823f e1f0 7e3f
000000f0: 3961 803f 0c95 7d3f de5f 7f3f 927d 7e3f
00000100: c18c 7c3f 9438 7f3f 34a9 803f 2669 803f
00000110: d743 7f3f 4277 7e3f f9d8 803f 5751 803f
00000120: 15e1 7f3f 9e9f 7e3f 39b3 7e3f 773a 7d3f
00000130: 6ab7 7f3f 9335 803f 126e 7f3f 66ae 7c3f
00000140: 75c2 7c3f 9b95 803f a6fd 7c3f 75f4 813f
00000150: cb62 7e3f 233c 7d3f 487f 823f 0513 803f
00000160: 6d7e 7f3f 7e02 803f e738 7d3f a93d 813f
00000170: 7af6 803f 22e1 813f b100 7e3f 59f6 803f
00000180: a6d9 7f3f a704 813f 53dd 7f3f d3b8 7e3f

model.all_layers.1.bias f4 [100]
-4.9627696e-10 2.3270554e-09 1.7953766e-09 1.4775596e-09 1.2052299e-09 -6.791044e-10 1.4468636e-09 -1.0243918e-09
2.3599683e-10 3.1753769e-09 1.9877087e-09 9.0073705e-11 2.2520419e-09 -9.512713e-10 -1.3014521e-09 -3.6658818e-10
-1.6531635e-09 -1.8511583e-09 1.3448532e-09 -2.5979763e-09 7.2651046e-10 4.8413124e-10 -6.382925e-11 1.6506321e-09
-9.231659e-10 -1.1327714e-09 -1.5492673e-09 1.2816668e-09 2.5200622e-09 -9.752288e-10 1.2705025e-09 1.5855749e-09
-2.5145541e-09 -9.4935004e-11 1.7387171e-09 -7.642498e-10 1.6720242e-09 -3.0553027e-10 -1.7122601e-09 9.559449e-10
-9.130186e-10 -3.2127698e-10 1.3211502e-09 -9.189548e-10 4.1686926e-10 1.0739135e-09 1.7270632e-09 -7.162226e-11
-3.0216224e-10 2.5985578e-09 1.6221193e-09 -1.2660152e-10 -2.7283817e-09 -2.7062161e-09 -8.649877e-10 -1.0052751e-09
-1.265028e-09 -2.3407838e-09 -1.6031896e-09 -6.971961e-10 2.2721447e-09 -1.5891205e-09 -7.3375706e-10 -2.1581685e-09
-1.7109132e-09 2.0223203e-09 1.031641e-09 1.0002124e-09 9.428963e-10 -4.362845e-10 6.8349076e-11 1.6393253e-09
-9.792015e-10 -1.023447e-09 1.0146549e-10 -2.8987066e-09 -8.969377e-10 -1.9676976e-09 -1.1937791e-09 1.7738644e-09
-1.4522256e-09 3.3236566e-11 -2.315323e-09 -1.169253e-09 -6.8940946e-09 -1.3925519e-09 -1.4648495e-10 1.6386682e-09
-2.4716313e-09 2.7213474e-09 -1.3414919e-09 2.6412081e-09 -5.4815275e-10 -6.92615e-10 9.671437e-10 -2.8277576e-09
2.4745346e-09 2.0458013e-09 2.769412e-10 -8.8656815e-10
00000000: 636a 08b0 fee9 1f31 33c1 f630 0213 cb30
00000010: 42a5 a530 b9ab 3ab0 fdda c630 95ca 8cb0
00000020: 9abd 812f d235 5a31 2498 0831 fd12 c62e
00000030: 57c2 1a31 e2bd 82b0 c6de b2b0 b388 c9af
00000040: 8535 e3b0 d86b feb0 d1d5 b830 1588 32b1
00000050: a1b3 4730 b513 0530 ac5c 8cae 74dc e230
00000060: 06c2 7db0 daaf 9bb0 ffed d4b0 a426 b030
00000070: 672d 2d31 d008 86b0 d59d ae30 75eb d930
00000080: 81cc 2cb1 a8c3 d0ae abf7 ee30 4c13 52b0
00000090: 1fcd e530 90f7 a7af cc54 ebb0 5262 8330
000000a0: f9f7 7ab0 b79f b0af d793 b530 b299 7cb0
000000b0: 222d e52f f998 9330 a25d ed30 bf7f 9dae
000000c0: 8e1d a6af 5092 3231 40f1 de30 2933 0baf
000000d0: 337e 3bb1 42f8 39b1 19c4 6db0 f929 8ab0
000000e0: 37dd adb0 81db 20b1 3857 dcb0 d0a4 3fb0
000000f0: fe23 1c31 3568 dab0 90b1 49b0 e74e 14b1
00000100: 6825 ebb0 09f9 0a31 a4c9 8d30 d877 8930
00000110: 3797 8130 96d9 efaf 1c4d 962e a24e e130
00000120: 9794 86b0 57a9 8cb0 fe1f df2e 9632 47b1
00000130: 618c 76b0 1a38 07b1 5e12 a4b0 4ecc f330
00000140: a597 c7b0 0c2d 122e 981b 1fb1 6fb3 a0b0
00000150: 19e1 ecb1 1064 bfb0 d90f 21af 8337 e130
00000160: 66d9 29b1 7302 3b31 8d5f b8b0 a080 3531
00000170: d2ac 16b0 7362 3eb0 58ec 8430 7052 42b1
00000180: 790c 2a31 1e96 0c31 0240 982f b0b2 73b0

model.all_layers.1.running_mean f4 [100]
-0.23763186 0.4263668 -0.43443614 -0.17500404 0.15781963 -0.368971 -0.12303094 -0.51157355
0.111459896 -0.43270823 -0.08354284 -0.30861375 0.016425796 -0.22584492 -0.5148853 0.28639483
-0.22644861 0.34931165 -0.05008728 0.27850792 -0.06055311 -0.26852334 0.020408876 0.045928
-0.28373602 0.017447196 0.026633117 0.15057813 -0.3178263 -0.00022510327 0.34403777 -0.30897808
0.057036243 0.3673944 -0.19754472 0.25547013 -0.38057947 0.50259084 0.036998365 0.61300504
-0.36419332 -0.014793279 -0.6828134 0.08341966 0.122369446 0.27340955 -0.15432024 0.14087458
0.139261 -0.2918948 -0.36482048 -0.49248657 0.28838146 0.23201092 0.03176186 -0.10967563
0.42514464 0.28592378 -0.11195511 0.13931918 0.032245707 -0.38014457 -0.16628008 0.2825323
-0.4581706 0.28563577 -0.1722341 -0.13979477 -0.24567798 0.11230671 -0.3202895 -0.08007657
-0.11902002 -0.10873214 0.23907574 0.11692631 -0.039379995 -0.01573163 -0.008186568 -0.40920293
-0.264756 0.09589895 -0.12186135 0.26959866 -0.43012276 -0.28037095 0.07192961 0.14484641
0.43936533 -0.042116504 0.23664197 -0.032898754 0.24899788 0.326944 -0.036027495 0.024639005
-0.09102024 -0.18495692 -0.25225353 0.0042328704
00000000: c455 73be c04c da3e 6a6e debe 4234 33be
00000010: 789b 213e c4e9 bcbe a5f7 fbbd 7cf6 02bf
00000020: 1645 e43d ef8b ddbe 8218 abbd 9f02 9ebe
00000030: 648f 863c e443 67be 86cf 03bf 58a2 923e
00000040: 25e2 67be fad8 b23e 5228 4dbd 9798 8e3e
00000050: 8a06 78bd e47b 89be 8430 a73c 001f 3c3d
00000060: d945 91be 6ced 8e3c b22d da3c 2731 1a3e
00000070: 21ba a2be b309 6cb9 b825 b03e 6032 9ebe
00000080: d69e 693d 1e1b bc3e 2a49 4abe fbcc 823e
00000090: 50db c2be cba9 003f 998b 173d e6ed 1c3f
000000a0: 8c77 babe 825f 72bc dccc 2ebf edd7 aa3d
000000b0: d59c fa3d 56fc 8b3e 2006 1ebe 6d41 103e
000000c0: 709a 0e3e 3c73 95be c0c9 babe 3327 fcbe
000000d0: bca6 933e 4594 6d3e b918 023d 9e9d e0bd
000000e0: 8fac d93e 9a64 923e b948 e5bd b0a9 0e3e
000000f0: 1314 043d 4fa2 c2be 5345 2abe 13a8 903e
00000100: 5695 eabe da3e 923e 235e 30be 5c26 0fbe
00000110: 0293 7bbe 0f01 e63d fcfc a3be 2fff a3bd
00000120: c5c0 f3bd f5ae debd 45d0 743e 1077 ef3d
00000130: eb4c 21bd 9fdf 80bc f420 06bc 0c83 d1be
00000140: 198e 87be ab66 c43d 7292 f9bd d608 8a3e
00000150: 0d39 dcbe c88c 8fbe d54f 933d 9e52 143e
00000160: 7ef4 e03e 5b82 2cbd 4652 723e d8c0 06bd
00000170: 4df9 7e3e 3465 a73e 9191 13bd bdd7 c93c
00000180: d268 babd 5965 3dbe 6027 81be e4b3 8a3b

model.all_layers.1.running_var f4 [100]
4.2174363 6.8851523 8.533073 5.410133 4.601076 6.613743 4.092304 4.8757086
7.006331 4.2075367 4.761845 7.28876 5.2320704 7.4067173 11.420794 5.721843
8.440723 7.4346714 4.668512 3.6819031 4.985639 4.032949 2.9735732 4.2332206
5.989626 4.80962 4.2086425 6.9938498 6.962246 5.2040505 9.442847 4.3980465
3.8944938 9.165795 4.562311 5.607717 4.0574965 6.1077843 6.24876 5.957182
7.2140927 3.086232 3.8246207 10.023991 4.8737955 3.548432 5.750959 4.7903275
3.9000337 8.871548 8.344061 6.2951035 4.55426 3.7928805 5.25231 5.68855
5.9505253 4.477424 9.42039 4.897086 7.1471167 5.6122284 5.8727107 6.7212157
5.072734 3.5789187 8.593732 3.0744376 5.057022 6.8674946 6.048585 3.9586465
4.456814 5.1098766 7.6817985 8.179777 3.9506185 3.7443953 5.4269724 5.1877728
4.6484146 4.392449 7.6052103 4.108579 5.7301726 5.296738 7.696746 7.233221
4.723838 6.113838 4.847142 6.0266376 5.806974 6.4485507 4.9215384 4.348096
6.8453603 4.132347 4.4186215 5.9153547
00000000: 3df5 8640 2b53 dc40 7887 0841 cf1f ad40
00000010: 043c 9340 c8a3 d340 28f4 8240 ce05 9c40
00000020: dd33 e040 24a4 8640 0961 9840 863d e940
00000030: 1f6d a740 d403 ed40 92bb 3641 5619 b740
00000040: 340d 0741 d4e8 ed40 7364 9540 4da4 6b40
00000050: 5b8a 9f40 eb0d 8140 064f 3e40 8b76 8740
00000060: 04ab bf40 68e8 9940 33ad 8640 9ecd df40
00000070: b8ca de40 9587 a640 e715 1741 ccbc 8c40
00000080: 633f 7940 19a7 1241 74fe 9140 6b72 b340
00000090: 03d7 8140 f872 c340 d8f5 c740 3ca1 be40
000000a0: d9d9 e640 d384 4540 96c6 7440 4462 2041
000000b0: 22f6 9b40 8319 6340 db07 b840 5d4a 9940
000000c0: 279a 7940 dcf1 0d41 4681 0541 7d71 c940
000000d0: 7fbc 9140 8ebe 7240 ec12 a840 9a08 b640
000000e0: b46a be40 0f47 8f40 ebb9 1641 eeb4 9c40
000000f0: 2eb5 e440 6097 b340 3fed bb40 3314 d740
00000100: d653 a240 010d 6540 ed7f 0941 96c3 4440
00000110: 20d3 a140 84c2 db40 028e c140 775a 7d40
00000120: 389e 8e40 1c84 a340 4bd1 f540 5ee0 0241
00000130: efd6 7c40 2ca4 6f40 c2a9 ad40 3c02 a640
00000140: d0bf 9440 f18e 8c40 e25d f340 7b79 8340
00000150: 935d b740 e17e a940 be4b f640 8c76 e740
00000160: ae29 9740 90a4 c340 ca1b 9b40 37da c040
00000170: bbd2 b940 875a ce40 3e7d 9d40 9a23 8b40
00000180: 310d db40 303c 8440 5965 8d40 964a bd40

model.all_layers.2.weight f4 [50, 100]
-0.042390987 0.07956648 -0.131085 0.032277912 -0.097250864 0.00018354766 0.016941218 -0.03879643
0.04259716 -0.08639387 0.00847942 -0.052413527 0.085149296 -0.024382837 -0.15921487 0.011206222
-0.081338376 0.0638962 0.013341047 0.01680084 0.120623015 -0.055713467 -0.062247124 -0.029977866
-0.116553836 0.00011918296 0.0034851378 -0.034178603 -0.08389352 0.02684469 0.08655061 -0.10868954
-0.019027757 0.014927707 -0.033781134 0.08940887 -0.0657372 0.0867732 -0.020574594 0.11565877
0.015807398 0.0777988 -0.12240346 -0.018570257 -0.020386228 -0.017678972 -0.016944863 -0.04492476
0.0788449 0.10577894 -0.1306449 -0.0874256 -0.10212327 -0.02105149 0.020693986 -0.05577343
-0.094385795 0.06525348 -0.049278278 -0.014445766 -0.0057058386 -0.06394986 -0.092499144 -0.05201832
0.08985189 0.0009925477 -0.09764062 0.087052606 0.059940036 -0.028436467 -0.043849286 -0.081841
-0.09713015 0.024607155 0.08397517 -0.05784837 0.08068191 0.0781649 -0.006510001 -0.06181924
-0.06576287 -0.09016549 0.12263203 -0.016660616 -0.025698675 -0.07163052 0.04103831 0.1195109
-0.006555541 -0.04015663 0.019818373 0.03919241 -0.027727304 0.08873813 0.022472322 0.015908554
0.06189756 0.06514004 0.074039795 -0.0028807078 -0.04563243 0.046854146 0.06011103 -0.07122373
-0.027308378 -0.021133162 0.002006347 0.09805745 0.09127592 -0.073842995 0.113242105 -0.06563789
0.007301797 0.01115012 -0.07841445 -0.08385427 0.011391216 -0.03443431 0.06607093 -0.02750274
-0.088858314 0.03570067 0.07726141 -0.12326158 0.052068513 0.023247879 -0.1168194 -0.05733873
-0.016575353 -0.046809953 0.03907841 0.053370412 0.09072719 0.06647246 0.105592266 -0.044823226
0.01227247 -0.049301624 -0.04506173 -0.028394407 0.03397459 -0.040336132 0.04761247 0.02478617
0.02220165 -0.08616104 0.036266584 0.010062323 -0.0563792 0.08838202 -0.037911654 0.060945418
0.057829186 0.019771488 0.026197018 0.089259 -0.03276129 -0.028161738 0.082857735 0.038872704
0.0064073037 -0.016716842 -0.019570418 -0.031556293 0.042396236 -0.06277327 -0.07071047 0.07887252
-0.034421097 -0.10238083 0.0050377497 0.018185511 0.058870133 0.013880774 -0.06153928 0.01681246
0.10222978 -0.101813085 0.045200177 -0.015771411 0.049928978 0.039089076 -0.07495032 -0.09223726
0.090952806 0.007712464 0.0654585 0.073043525 0.04990618 -0.03321767 0.071805574 0.11119719
-0.13538381 -0.03267065 0.06478703 -0.0062019243 0.007510365 0.0039457628 -0.042982962 0.075250566
-0.08588562 -0.0535971 0.084124826 -0.0033954415 0.06993374 0.08822984 -0.04135972 0.0047991322
-0.062334552 -0.0067535094 -0.106292255 -0.030442294 0.105638206 -0.041963197 0.024945775 -0.06593389
-0.030651622 0.04249763 -0.060446907 0.053949032 -0.017142886 -0.018305393 0.032707624 0.0671546
0.098235354 -0.024775628 -0.04645823 -0.047863405 0.017634116 -0.08344714 -0.012733673 0.037911016
-0.02056679 -0.0022422762 -0.034544952 -0.011002018 0.12678148 0.052736964 0.03030639 -0.016811829
0.045128882 -0.07508007 -0.0635389 -0.053125985 0.10446597 -0.101105176 -0.05647498 0.044088166
-0.03012585 -0.08537549 0.018559938 0.087705694 -0.044977825 -0.03811586 -0.117894635 0.047509324
00000000: 2ca2 2dbd c0f3 a23d 253b 06be d835 043d
00000010: 762b c7bd b376 4039 4fc8 8a3c 01e9 1ebd
00000020: 5c7a 2e3d 45ef b0bd 44ed 0a3c 91af 56bd
00000030: c162 ae3d 84be c7bc 3909 23be 4d9a 373c
00000040: bc94 a6bd 03dc 823d 6894 5a3c eaa1 893c
00000050: 3309 f73d ce33 64bd d7f6 7ebd 2494 f5bc
00000060: c7b3 eebd ddf1 f938 e966 643b ddfe 0bbd
00000070: 5ed0 abbd 65e9 db3c 7241 b13d 9f98 debd
00000080: 19e0 9bbc 5793 743c 165e 0abd ff1b b73d
00000090: 3aa1 86bd 26b6 b13d 0d8c a8bc 81de ec3d
000000a0: 847e 813c fa54 9f3d aaae fabd a720 98bc
000000b0: 0501 a7bc 7ed3 90bc f4cf 8abc 0603 38bd
000000c0: 6f79 a13d a1a2 d83d c7c7 05be 310c b3bd
000000d0: 0126 d1bd 2d74 acbc 6f86 a93c ae72 64bd
000000e0: 574d c1bd 9ea3 853d 05d8 49bd efad 6cbc
000000f0: 0bf8 babb 25f8 82bd 3170 bdbd 2911 55bd
00000100: 4504 b83d 6018 823a cef7 c7bd a348 b23d
00000110: af83 753d 98f3 e8bc 4f9b 33bd 419c a7bd
00000120: 2cec c6bd f294 c93c 2dfb ab3d 6af2 6cbd
00000130: 8f3c a53d eb14 a03d d951 d5bb 2c36 7dbd
00000140: afae 86bd afa8 b8bd 8026 fb3d d87b 88bc
00000150: 0786 d2bc 06b3 92bd c917 283d 21c2 f43d
00000160: ddcf d6bb 477b 24bd 245a a23c 3888 203d
00000170: 5f24 e3bc 56bc b53d e017 b83c a852 823c
00000180: 4c88 7d3d 2468 853d 2da2 973d 42ca 3cbb
00000190: 12e9 3abd 22ea 3f3d fc36 763d bfdd 91bd
000001a0: d2b5 dfbc 741f adbc eb7c 033b 58d2 c83d
000001b0: dfee ba3d ff3a 97bd 7aeb e73d 286d 86bd
000001c0: ea43 ef3b feae 363c c197 a0bd cabb abbd
000001d0: 39a2 3a3c fe0a 0dbd 3250 873d 6d4d e1bc
000001e0: 59fb b5bd de3a 123d 3b3b 9e3d 9170 fcbd
000001f0: cb45 553d 5672 be3c 023f efbd 04dc 6abd
00000200: 09c9 87bc cbbb 3fbd af10 203d ef9a 5a3d
00000210: 2dcf b93d b722 883d c240 d83d 8f98 37bd
00000220: 7812 493c 80f0 49bd a692 38bd 639b e8bc
00000230: f128 0b3d 8037 25bd 4b05 433d 5e0c cb3c
00000240: 3ce0 b53c 3375 b0bd 458c 143d 71dc 243c
00000250: e0ed 66bd a201 b53d 4049 1bbd e7a1 793d
00000260: 4cde 6c3d d1f7 a13c 219b d63c 6ccd b63d
00000270: b430 06bd 72b3 e6bc 51b1 a93d fc38 1f3d
00000280: 5cf4 d13b c2f1 88bc 2452 a0bc 2c41 01bd
00000290: ada7 2d3d 468f 80bd a7d0 90bd ea87 a13d
000002a0: 23fd 0cbd 0aad d1bd b513 a53b c8f9 943c
000002b0: cf21 713d 306c 633c 9d10 7cbd 49ba 893c
000002c0: d95d d13d 6183 d0bd d223 393d 0c33 81bc
000002d0: 5482 4c3d de1b 203d 8e7f 99bd e3e6 bcbd
000002e0: 7745 ba3d d6b8 fc3b 1b0f 863d d897 953d
000002f0: 6c6a 4c3d 400f 08bd cd0e 933d 5abb e33d
00000300: 0ea2 0abe a9d1 05bd 10af 843d 8339 cbbb
00000310: 8219 f63b 754b 813b e70e 30bd f81c 9a3d
00000320: cde4 afbd a288 5bbd a349 ac3d 0e86 5ebb
00000330: 6c39 8f3d d9b1 b43d cf68 29bd 0a42 9d3b
00000340: 8452 7fbd 8b4c ddbb c1af d9bd 1e62 f9bc
00000350: d858 d83d 9ae1 2bbd 155b cc3c 5908 87bd
00000360: 1c19 fbbc ff11 2e3d 2d97 77bd a9f9 5c3d
00000370: 3d6f 8cbc 31f5 95bc 6ef8 053d 5a88 893d
00000380: 9e2f c93d 42f6 cabc fc4a 3ebd 6b0c 44bd
00000390: 6c75 903c 56e6 aabd e5a0 50bc 9548 1b3d
000003a0: af7b a8bc 27f3 12bb 027f 0dbd cf41 34bc
000003b0: 01d3 013e b702 583d 1b45 f83c f6b8 89bc
000003c0: 10d9 383d 94c3 99bd af20 82bd a29a 59bd
000003d0: 41f2 d53d 3b10 cfbd 4f52 67bd cb95 343d
000003e0: 7dca f6bc 58d9 aebd 030b 983c 0b9f b33d
000003f0: ab3a 38bd 601f 1cbd be72 f1bd 2399 423d

model.all_layers.2.bias f4 [50]
-0.08645761 -0.00085606176 0.017236851 0.03047987 0.0056844354 -0.043928504 0.01726403 0.062280662
-0.04695461 -0.060365845 -0.08993707 0.040228866 -0.013220586 0.07103733 -0.020354211 0.005568398
-0.08674189 0.037303798 -0.0029202173 0.0892682 0.045742773 0.016121015 0.031673647 0.050400518
-0.008639753 0.012040019 0.0031919735 -0.059396338 -0.05946969 0.021779701 0.07997335 0.06460703
0.056317486 0.035469733 0.05586832 -0.03273829 -0.03180995 0.016840063 -0.017645799 -0.093616724
0.049768798 0.043953188 -0.09180405 0.0778374 -0.000994061 -0.079422876 -0.05343486 0.012391247
-0.07151739 0.06615914
00000000: b010 b1bd 5569 60ba 4c34 8d3c ecb0 f93c
00000010: 8044 ba3b 60ee 33bd 4c6d 8d3c 021a 7f3d
00000020: 7a53 40bd 2d42 77bd ed30 b8bd 06c7 243d
00000030: 289b 58bc 057c 913d e0bd a6bc 1c77 b63b
00000040: bba5 b1bd decb 183d 1e61 3fbb 3fd2 b63d
00000050: c65c 3b3d 3810 843c 3abc 013d c670 4e3d
00000060: c08d 0dbc 8043 453c 6e30 513b 9349 73bd
00000070: 7d96 73bd 586b b23c 11c9 a33d b150 843d
00000080: 2aad 663d b648 113d 2ed6 643d 9618 06bd
00000090: 264b 02bd 2cf4 893c ec8d 90bc 20ba bfbd
000000a0: 5eda 4b3d 4208 343d c303 bcbd 3769 9f3d
000000b0: 274b 82ba 76a8 a2bd 83de 5abd a804 4b3c
000000c0: b677 92bd 717e 873d

model.all_layers.3.weight f4 [50]
0.6495114 0.66652316 0.65070134 0.65457 0.66358244 0.65922964 0.65048087 0.64334637
0.6466639 0.6663203 0.65360844 0.6697873 0.66950566 0.6596871 0.66308165 0.6536835
0.6714826 0.6583274 0.6576334 0.65669036 0.64565015 0.64769316 0.6591015 0.6622356
0.643268 0.6659618 0.6566971 0.6479096 0.64969254 0.659382 0.664412 0.6539299
0.6641335 0.65813553 0.6468068 0.6612664 0.65901375 0.6691154 0.66289806 0.65592694
0.6577513 0.65294784 0.6542533 0.65294427 0.6591877 0.6615657 0.6531218 0.65923417
0.6570277 0.6455754
00000000: 6146 263f 43a1 2a3f 5d94 263f e691 273f
00000010: 8ae0 293f 46c3 283f ea85 263f 59b2 243f
00000020: c48b 253f f893 2a3f e252 273f 2e77 2b3f
00000030: b964 2b3f 41e1 283f b8bf 293f cd57 273f
00000040: 49e6 2b3f 2588 283f aa5a 283f dc1c 283f
00000050: 5449 253f 38cf 253f e0ba 283f 4688 293f
00000060: 36ad 243f 797c 2a3f 4d1d 283f 67dd 253f
00000070: 4052 263f 42cd 283f e816 2a3f f367 273f
00000080: a704 2a3f 927b 283f 2195 253f c148 293f
00000090: 20b5 283f 264b 2b3f b0b3 293f d4ea 273f
000000a0: 6462 283f 9727 273f 257d 273f 5b27 273f
000000b0: 86c0 283f 5f5c 293f fe32 273f 92c3 283f
000000c0: f832 283f 6e44 253f

model.all_layers.3.bias f4 [50]
0.01557968 0.0075718253 -0.02597606 -0.009901787 -0.012057129 0.010987533 -0.014037093 -0.00012383543
0.00039637482 -0.021508647 0.0018011775 0.016361874 0.005490857 -0.014658731 0.008917462 0.008820224
0.03349579 -0.0032021168 -0.009603824 0.024173021 0.007582113 0.007024278 0.009594304 0.000274131
0.009669574 -0.00060177874 0.019892644 0.012508349 -0.013110476 0.016814766 -0.0130689535 -0.017339168
-0.00873979 0.038952444 -0.010634604 -0.0058641387 0.001408202 0.02117681 -0.0058035264 0.001281489
-0.005787728 0.010527863 -0.0018419406 -0.012763476 -0.00047984105 0.014503164 -0.018237675 -0.01986639
-0.006228428 0.0026389505
00000000: ea41 7f3c 131d f83b bfcb d4bc 1b3b 22bc
00000010: 448b 45bc 0e05 343c d6fb 65bc d2d9 01b9
00000020: 87d0 cf39 e732 b0bc 7d15 ec3a 5609 863c
00000030: a6ec b33b 2d2b 70bc 8c1a 123c b382 103c
00000040: e232 093d 9bda 51bb 5b59 1dbc 8006 c63c
00000050: 6073 f83b ea2b e63b 6d31 1d3c 3db9 8f39
00000060: 226d 1e3c b0c0 1dba e6f5 a23c d1ef 4c3c
00000070: 52cd 56bc 1fbf 893c 2a1f 56bc df0a 8ebc
00000080: 5631 0fbc 998c 1f3d c33c 2ebc f627 c0bb
00000090: 6b93 b83a fd7a ad3c 822b bebb a3f7 a73a
000000a0: fba6 bdbb 0f7d 2c3c 456d f1ba e61d 51bc
000000b0: 2d93 fbb9 ae9e 6d3c 2d67 95bc d7be a2bc
000000c0: d717 ccbb 3ef2 2c3b

model.all_layers.3.running_mean f4 [50]
-0.08645761 -0.0008560543 0.01723686 0.030479874 0.005684435 -0.043928504 0.01726404 0.062280662
-0.0469546 -0.06036586 -0.089937076 0.04022887 -0.01322058 0.07103732 -0.020354204 0.005568395
-0.08674189 0.0373038 -0.0029202155 0.08926822 0.045742773 0.016121022 0.03167364 0.050400507
-0.008639756 0.0120400125 0.003191982 -0.05939635 -0.059469685 0.021779707 0.07997334 0.064607024
0.056317493 0.035469744 0.055868313 -0.0327383 -0.031809937 0.016840056 -0.017645791 -0.09361672
0.0497688 0.043953184 -0.091804035 0.0778374 -0.0009940724 -0.079422876 -0.053434845 0.012391262
-0.07151739 0.06615914
00000000: b010 b1bd d568 60ba 5134 8d3c eeb0 f93c
00000010: 7f44 ba3b 60ee 33bd 516d 8d3c 021a 7f3d
00000020: 7753 40bd 3142 77bd ee30 b8bd 07c7 243d
00000030: 229b 58bc 047c 913d dcbd a6bc 1577 b63b
00000040: bba5 b1bd dfcb 183d 1661 3fbb 42d2 b63d
00000050: c65c 3b3d 3c10 843c 38bc 013d c370 4e3d
00000060: c38d 0dbc 7943 453c 9230 513b 9649 73bd
00000070: 7c96 73bd 5b6b b23c 10c9 a33d b050 843d
00000080: 2cad 663d b948 113d 2cd6 643d 9818 06bd
00000090: 234b 02bd 28f4 893c e88d 90bc 1fba bfbd
000000a0: 5fda 4b3d 4108 343d c103 bcbd 3769 9f3d
000000b0: 894b 82ba 76a8 a2bd 7fde 5abd b804 4b3c
000000c0: b677 92bd 717e 873d

model.all_layers.3.running_var f4 [50]
3.2700691 1.0069985 2.5285516 2.6928241 1.2369634 0.94757974 1.7079623 1.4988681
1.2973126 0.96589977 0.9333322 1.0884318 1.3168154 0.9489633 3.2136884 1.4137911
0.9651676 0.98706305 1.3764112 1.9417582 1.0507725 1.8308755 1.2473699 1.2549995
1.1718694 1.8693002 1.8551147 1.5314294 1.8142154 1.3177145 1.4445015 1.0769087
1.1599416 1.6068095 1.2813623 1.2323431 1.3509021 1.8013831 1.0963808 1.1104131
1.1869705 1.1619763 3.1380877 1.372251 0.9308741 4.725975 2.1286416 2.8001354
1.2039592 1.1724848
00000000: d048 5140 54e5 803f cad3 2140 3b57 2c40
00000010: d154 9e3f 9694 723f 829e da3f e9da bf3f
00000020: 570e a63f 3545 773f dcee 6e3f bc51 8b3f
00000030: 688d a83f 42ef 723f 12ad 4d40 1bf7 b43f
00000040: 3915 773f 2ab0 7c3f 3e2e b03f 888b f83f
00000050: b77f 863f 215a ea3f d1a9 9f3f d3a3 a03f
00000060: d1ff 953f 3b45 ef3f 6674 ed3f e105 c43f
00000070: 3638 e83f deaa a83f 6de5 b83f 25d8 893f
00000080: f778 943f efab cd3f ae03 a43f 6bbd 9d3f
00000090: 5cea ac3f b993 e63f 3556 8c3f 0422 8e3f
000000a0: a6ee 973f a4bb 943f 6ed6 4840 eca5 af3f
000000b0: c44d 6e3f 303b 9740 aa3b 0840 6b35 3340
000000c0: 561b 9a3f fb13 963f

model.all_layers.4.weight f4 [2, 50]
0.06273323 -0.11704504 -0.021627897 -0.026380947 0.009263219 0.034184895 -0.08174889 0.044163007
-0.051685415 -0.05570424 0.03391717 -0.02130523 -0.039371684 0.14246546 0.115843706 0.025271028
0.026171966 -0.017987976 -0.0010747237 0.09700764 -0.012962978 0.029498847 -0.06266216 -0.051364906
-0.006753022 -0.079860345 0.015455817 -0.011838439 -0.1040527 0.07745186 0.05268189 -0.07592849
-0.060986303 0.06613141 -0.007521014 -0.040285736 -0.053436067 0.10599321 0.029961033 -0.12734877
-0.042419333 -0.08218269 -0.050908 -0.11411865 -0.11537217 0.08956601 -0.044255164 -0.11336768
-0.032580193 -0.047120173 -0.068675436 -0.11292915 0.09191498 0.04545945 0.089178905 0.10298958
0.030745188 0.026321853 0.0065155723 0.06305016 0.029913643 -0.08175585 -0.038656916 0.104312114
0.0013352009 0.010875735 -0.021005062 0.09906777 0.07277397 -0.0055541373 0.009596945 -0.041578684
0.012536411 -0.050381787 0.0474531 -0.0014356287 -0.059691973 -0.113963686 -0.10883131 0.049819842
0.1525413 -0.06472111 0.049804833 -0.079091094 0.05790155 0.05305702 -0.09463748 0.012745423
0.06691953 -0.08663073 -0.009064455 -0.055279978 0.042369507 -0.025508286 -0.063580565 -0.07616076
0.04618391 0.008561016 0.000810439 -0.06376557
00000000: 487a 803d 4fb5 efbd fd2c b1bc db1c d8bc
00000010: c2c4 173c 7605 0c3d f66b a7bd 45e4 343d
00000020: 16b4 53bd 212a 64bd bbec 0a3d 4e88 aebc
00000030: 3444 21bd 77e2 113e 773f ed3d 3005 cf3c
00000040: 9766 d63c 855b 93bc bedd 8cba f1ab c63d
00000050: ac62 54bc 91a7 f13c 0555 80bd 0264 52bd
00000060: 7448 ddbb d28d a3bd 653a 7d3c 03f6 41bc
00000070: 9519 d5bd 159f 9e3d f7c8 573d 6580 9bbd
00000080: c6cc 79bd e86f 873d d772 f6bb a802 25bd
00000090: c7df 5abd f812 d93d d770 f53c b767 02be
000000a0: e5bf 2dbd 664f a8bd e884 50bd 0ab7 e9bd
000000b0: 3f48 ecbd 626e b73d e744 35bd 502d e8bd
000000c0: cf72 05bd 1501 41bd b5a5 8cbd 6647 e7bd
000000d0: ec3d bc3d b033 3a3d 6ea3 b63d 33ec d23d
000000e0: 55dd fb3c eda0 d73c 9580 d53b 7120 813d
000000f0: 750d f53c 9c6f a7bd b756 1ebd 97a1 d53d
00000100: e801 af3a 2430 323c cf12 acbc 0be4 ca3d
00000110: 850a 953d 7bff b5bb 813c 1d3c 694e 2abd
00000120: 8565 4d3c 225d 4ebd 2f5e 423d b52b bcba
00000130: 927f 74bd cb65 e9bd f3e2 debd e40f 4c3d
00000140: c933 1c3e 808c 84bd 2700 4c3d 83fa a1bd
00000150: 2d2a 6d3d 5152 593d 4cd1 c1bd 2ed2 503c
00000160: 1b0d 893d 746b b1bd 1483 14bc 426d 62bd
00000170: a68b 2d3d c1f6 d0bc 8736 82bd 2cfa 9bbd
00000180: 572b 3d3d 8143 0c3c a473 543a 8697 82bd

model.all_layers.4.bias f4 [2]
-0.01896398 -0.15884833
00000000: 595a 9bbc 23a9 22be
