unit06-dl-tips/6.8-debugging/lightning_logs/version_8/checkpoints/epoch=9-step=10.ckpt (torch, 70776 bytes, 12 tensors)

model.all_layers.0.weight f4 [100, 100]
-0.036483932 0.002099311 -0.053904507 0.04083478 -0.08577684 0.073108695 -0.06716746 -0.075475484
-0.06667867 0.04697219 -0.03901206 0.038222436 -0.081635386 -0.058308627 -0.037231326 -0.018145395
-0.07191808 0.06619538 -0.023778815 0.037950605 0.06609822 0.018878672 0.022815228 0.09805483
-0.04830635 0.03125683 -0.043396357 0.07225346 0.078808926 -0.09140874 0.0864218 0.05107864
0.044316743 0.04101815 0.080498084 -0.006107618 -0.08812018 -0.032497384 -0.070719674 0.0047909603
-0.015433201 -0.048121918 -0.007977444 0.104822166 -0.008401256 0.006253161 -0.017277403 0.014614754
0.09339343 0.06217829 0.034839563 0.027247634 0.02215917 0.041238412 -0.015189531 -0.09214005
-0.062200934 0.085363954 0.00846132 -0.08029104 0.0125673385 0.08194237 -0.09561269 -0.06697799
-0.041116845 0.00953033 -0.023317562 -0.0091774 -0.096413106 0.045008212 0.08857541 0.066135034
-0.07558672 -0.07982184 0.045563754 0.0032339492 0.039885197 -0.09836536 -0.009764791 0.06991274
0.046317343 0.0022316244 0.022229211 -0.011735189 -0.058188766 -0.03808215 -0.06018167 0.078531094
0.05182326 0.033864353 -0.07596894 0.08119089 0.0310242 0.06796632 -0.0368697 0.016711809
0.09692172 0.06312775 0.0795244 -0.019830985 0.06851476 -0.072996356 0.014325071 -0.062466096
-0.020536942 -0.02426735 -0.0016535188 0.07808507 0.059983198 0.0007844431 0.07257893 -0.053108312
0.04207172 -0.0141192535 -0.01643934 0.008312636 -0.08290162 0.009522215 0.034966204 0.076542534
-0.02159062 0.037404913 0.10383163 -0.041953176 0.09844193 -0.042568512 0.042857014 0.040478572
0.030229907 0.08038388 -0.039240014 0.020489471 0.00033300606 -0.07309975 -0.020242115 -0.07498161
0.049968068 0.015245892 0.011908524 -0.028190086 -0.008984577 -0.04023974 0.026439417 0.08243203
0.016108802 -0.049141936 -0.05750182 0.005774637 -0.08653122 -0.07518195 -0.06391866 -0.043099906
0.009370124 0.061510224 0.043581527 0.074168414 -0.064400926 0.007124851 -0.09848608 0.055332206
0.024223669 0.09918809 -0.06958969 0.0775393 0.08541675 0.07171633 0.012955527 0.08510396
0.067245826 0.07675491 -0.008358839 -0.08623373 0.007466112 0.02005739 -0.07408758 -0.06090809
-0.09140602 -0.034531932 0.09336314 0.018699747 -0.005873947 0.005984178 0.058657635 -0.083458774
-0.073776275 -0.031134976 -0.05958533 0.05545893 0.07404104 -0.09255396 -0.086901486 -0.11031069
0.037237108 0.08581232 -0.08104888 -0.04060137 0.033745732 -0.059081603 0.0854585 0.02165135
-0.010841822 0.0059319907 0.019716622 -0.022936584 -0.07950876 0.008367704 0.016572956 0.009611882
-0.026723213 0.06947491 -0.029510902 -0.008503901 0.045241766 -0.06039219 0.026029892 -0.00662719
0.06617725 -0.05154155 0.011391373 0.0344192 -0.082500815 -0.075236574 0.042978942 -0.026161904
0.05493361 -0.10365656 -0.052718937 -0.077403 0.035433598 0.0020640616 -0.019560672 -0.0046108863
-0.076760925 0.034671687 -0.0061675166 -0.03888493 0.019776111 0.00032584002 -0.08450775 0.054653745
0.05761171 -0.004089553 -0.07319224 0.042907383 0.07471202 0.0996885 -0.08173431 -0.04050866
0.0833638 0.052856695 0.052461132 -0.03502197 0.08601544 -0.08267978 -0.011332806 0.005614999
00000000: 2d70 15bd 9894 093b f9ca 5cbd 5f42 273d
00000010: c5ab afbd 03ba 953d 188f 89bd e492 9abd
00000020: d48e 88bd e965 403d 1ccb 1fbd 218f 1c3d
00000030: 7430 a7bd 07d5 6ebd e07f 18bd a7a5 94bc
00000040: c949 93bd 7291 873d cacb c2bc 1872 1b3d
00000050: 815e 873d 72a7 9a3c 00e7 ba3c f9d0 c83d
00000060: e1dc 45bd 2907 003d 61c0 31bd 9ff9 933d
00000070: 9366 a13d 8134 bbbd eafd b03d d637 513d
00000080: 7985 353d a602 283d 2edc a43d 6a22 c8bb
00000090: 5a78 b4bd fa1b 05bd 7ad5 90bd 7dfd 9c3b
000000a0: 89db 7cbc 7d1b 45bd d3b3 02bc 01ad d63d
000000b0: 6ca5 09bc 51e7 cc3b 5789 8dbc b972 6f3c
000000c0: 0e45 bf3d aaae 7e3d eeb3 0e3d 6e36 df3c
000000d0: 2687 b53c 9ce9 283d 83dd 78bc ecb3 bcbd
000000e0: 68c6 7ebd 4cd3 ae3d 59a1 0a3c a16f a4bd
000000f0: 3de7 4d3c 67d1 a73d 96d0 c3bd c22b 89bd
00000100: 236a 28bd 1a25 1c3c 7904 bfbc ce5c 16bc
00000110: 3c74 c5bd 885a 383d 0667 b53d ce71 873d
00000120: 36cd 9abd a279 a3bd 0fa1 3a3d aaf0 533b
00000130: a95e 233d c773 c9bd 80fc 1fbc 692e 8f3d
00000140: 41b7 3d3d 7240 123b 091a b63c f344 40bc
00000150: 5857 6ebd 07fc 1bbd 0e81 76bd e9d4 a03d
00000160: a044 543d 59b5 0a3d 9b95 9bbd 6947 a63d
00000170: 7726 fe3c ed31 8b3d af04 17bd 34e7 883c
00000180: e57e c63d 1f49 813d b0dd a23d 9774 a2bc
00000190: 7751 8c3d 1d7f 95bd b4b3 6a3c 73dc 7fbd
000001a0: 173d a8bc 52cc c6bc e2ba d8ba 11eb 9f3d
000001b0: f1b0 753d 16a3 4d3a 43a4 943d 1a88 59bd
000001c0: 6553 2c3d 7154 67bc cbab 86bc b931 083c
000001d0: 53c8 a9bd 1103 1c3c b938 0f3d 55c2 9c3d
000001e0: d0de b0bc e535 193d ada5 d43d 18d7 2bbd
000001f0: ec9b c93d 525c 2ebd d68a 2f3d dccc 253d
00000200: b6a4 f73c 4ea0 a43d 23ba 20bd 89d9 a73c
00000210: 5197 ae39 52b5 95bd cbd2 a5bc f58f 99bd
00000220: 51ab 4c3d e8c9 793c f81b 433c e5ee e6bc
00000230: 0c34 13bc 6dd2 24bd 7a97 d83c 20d2 a83d
00000240: 9bf6 833c 0e49 49bd 0787 6bbd 2b39 bd3b
00000250: 4837 b1bd fff8 99bd c9e7 82bd 8789 30bd
00000260: 2685 193c 25f2 7b3d 8b82 323d 9ce5 973d
00000270: a2e4 83bd 9577 e93b 12b3 c9bd 06a4 623d
00000280: b770 c63c 2023 cb3d 0a85 8ebd edcc 9e3d
00000290: faee ae3d 03e0 923d 6b43 543c fc4a ae3d
000002a0: 2eb8 893d ae31 9d3d 83f3 08bc 4f9b b0bd
000002b0: 49a6 f43b 654f a43c 3bbb 97bd c37a 79bd
000002c0: 1433 bbbd 5b71 0dbd 2d35 bf3d 3630 993c
000002d0: 3d7a c0bb ec16 c43b fd42 703d 6fec aabd
000002e0: 0418 97bd c70e ffbc bf0f 74bd e728 633d
000002f0: d4a2 973d ee8c bdbd 68f9 b1bd 92ea e1bd
00000300: f085 183d 5fbe af3d f5fc a5bd 9f4d 26bd
00000310: f738 0a3d 8dff 71bd de04 af3d 2c5e b13c
00000320: e6a1 31bc 2561 c23b c184 a13c 81e5 bbbc
00000330: 7dd5 a2bd b218 093c 02c4 873c 287b 1d3c
00000340: a4ea dabc dd48 8e3d d9c0 f1bc f253 0bbc
00000350: 6e4f 393d cd5d 77bd a43c d53c e628 d9bb
00000360: f087 873d 3b1d 53bd e2a2 3a3c 26fb 0c3d
00000370: 30f6 a8bd a215 9abd b00a 303d 7d51 d6bc
00000380: 1102 613d e449 d4bd d0ef 57bd 7785 9ebd
00000390: d222 113d 3545 073b b43d a0bc eb16 97bb
000003a0: d534 9dbd e603 0e3d e118 cabb ce45 1fbd
000003b0: 8301 a23c 82d5 aa39 6612 adbd 9bdc 5f3d
000003c0: 42fa 6b3d a801 86bb d0e5 95bd a7bf 2f3d
000003d0: 9e02 993d 7c29 cc3d 5164 a7bd 69ec 25bd
000003e0: a4ba aa3d 4380 583d 7ce1 563d 3273 0fbd
000003f0: dd28 b03d 0454 a9bd 3cad 39bc 07fe b73b

model.all_layers.0.bias f4 [100]
0.014835432 0.06831991 0.029112361 -0.036049746 -0.0115737915 0.05810941 0.03397114 0.003862068
-0.049154785 0.07830664 -0.086287454 -0.090748765 0.022133395 0.06539672 -0.09435125 0.035291024
-0.049338546 0.07005385 -0.025464952 0.093709014 -0.040897775 -0.0048815836 0.0658908 -0.026846707
0.0053526754 0.07649804 -0.035308942 -0.078665055 0.008734323 -0.088866465 0.07159061 0.009620294
-0.027133502 -0.014975034 0.08313059 -0.029656217 -0.0009859429 0.014266804 0.009306848 -0.05195383
-0.0063731223 -0.04060818 -0.008555732 -0.07125016 0.03633354 -0.040306795 0.013856515 0.09757077
0.028252758 -0.062812716 -0.077858664 -0.062496543 0.068285264 0.0784462 0.03393314 -0.07774319
0.02693548 0.033362933 -0.018861309 0.02991759 0.08659131 -0.024171695 0.063166596 0.023436867
-0.08877639 -0.007865891 -0.025602773 -0.00948558 -0.004613832 -0.0748134 0.04901754 -0.06654302
-0.04919356 0.09644974 0.021275386 -0.008679949 0.050122134 0.09734962 -0.05035987 -0.09258522
-0.0147391185 -0.06260194 -0.093927264 -0.033703364 -0.023496628 -0.001020268 0.04484076 0.06742454
-0.024140395 -0.03032235 -0.061059784 0.07141494 0.038108192 -0.013914362 0.059351765 0.08103419
-0.032623306 0.07361501 -0.035381936 -0.019541822
00000000: 5010 733c 4feb 8b3d 0c7d ee3c e6a8 13bd
00000010: 00a0 3dbc 2204 6e3d 5225 0b3d c01a 7d3b
00000020: 8756 49bd 3b5f a03d 7ab7 b0bd 7dda b9bd
00000030: 1851 b53c b7ee 853d 3a3b c1bd 528d 103d
00000040: 3717 4abd 6578 8f3d e09b d0bc 83ea bf3d
00000050: 6d84 27bd b1f5 9fbb c1f1 863d a0ed dbbc
00000060: 7f65 af3b 01ab 9c3d 1ca0 10bd 251b a1bd
00000070: 681a 0f3c 9fff b5bd 199e 923d 709e 1d3c
00000080: 1447 debc d859 75bc 5f40 aa3d 98f1 f2bc
00000090: c13a 81ba 50bf 693c c07b 183c 8acd 54bd
000000a0: a0d5 d0bb c354 26bd 572d 0cbc 9beb 91bd
000000b0: 7ad2 143d bd18 25bd 7006 633c 2fd3 c73d
000000c0: 5472 e73c f4a3 80bd 5d74 9fbd 60fc 7fbd
000000d0: 25d9 8b3d 67a8 a03d 7afd 0a3d d237 9fbd
000000e0: cca7 dc3c 92a7 083d 0883 9abc bc15 f53c
000000f0: c956 b13d b803 c6bc 7d5d 813d acfe bf3c
00000100: 65d0 b5bd f0df 00bc e8bc d1bc 6869 1bbc
00000110: a12f 97bb c537 99bd 9ec6 483d b547 88bd
00000120: 307f 49bd 7187 c53d b849 ae3c 5836 0ebc
00000130: de4c 4d3d 3d5f c73d 2746 4ebd 529d bdbd
00000140: 587c 71bc 7235 80bd f05c c0bd 8a0c 0abd
00000150: 007c c0bc 83ba 85ba f2aa 373d e115 8a3d
00000160: 14c2 c5bc 9466 f8bc d319 7abd ff41 923d
00000170: 5617 1c3d 10f9 63bc d61a 733d 41f5 a53d
00000180: 04a0 05bd 77c3 963d a6ec 10bd 2c16 a0bc

model.all_layers.1.weight f4 [100]
0.998497 0.9956923 1.0054213 0.99765235 0.99878496 1.0000911 0.9971358 1.0035042
0.99802876 0.9924102 0.99656475 0.99675405 0.99812686 0.9954075 1.0005202 0.99264234
0.99984443 0.9974826 0.9964633 0.9980082 0.9988629 0.99501705 0.9997183 0.99763113
1.0123601 0.999009 0.9992529 1.0008525 1.0067434 1.0017433 1.0034797 0.9988828
0.9984209 0.9960907 0.99831504 1.0076238 1.0043455 0.9956043 1.0002974 1.005677
0.9992503 1.0061655 1.0032839 0.99656034 1.0007346 1.0070992 1.0014768 0.995916
0.992856 1.0040972 1.0000848 1.0036296 1.0044005 0.9991692 1.0018165 1.00148
1.0064052 0.9990479 0.99612427 1.0028175 0.99828345 1.0004919 0.99723536 1.0002948
0.99281317 1.0056337 1.0017298 0.997485 1.0031176 0.9993241 0.9963116 0.9963893
1.0023437 0.99719816 0.99962056 0.997985 0.99530137 1.0075163 1.0030783 0.99955857
1.0071315 1.0036771 1.0040588 0.99598527 0.9992894 0.99695915 0.99974346 1.0008954
1.0031003 0.9987867 0.9983983 0.99462456 1.0039753 1.0005877 0.9964303 0.9993885
1.0000119 1.0008807 1.0028287 0.99989855
00000000: 809d 7f3f b1e5 7e3f a5b1 803f 2566 7f3f
00000010: 5fb0 7f3f fc02 803f 4b44 7f3f d372 803f
00000020: d07e 7f3f 980e 7e3f de1e 7f3f 462b 7f3f
00000030: 3e85 7f3f 07d3 7e3f 0c11 803f cf1d 7e3f
00000040: cef5 7f3f 055b 7f3f 3818 7f3f 777d 7f3f
00000050: 7bb5 7f3f 70b9 7e3f 8aed 7f3f c164 7f3f
00000060: 0495 813f 0ebf 7f3f 0acf 7f3f ef1b 803f
00000070: f8dc 803f 2039 803f 0672 803f c8b6 7f3f
00000080: 8398 7f3f cdff 7e3f 9391 7f3f d1f9 803f
00000090: 658e 803f ecdf 7e3f bf09 803f 06ba 803f
000000a0: dece 7f3f 08ca 803f 9b6b 803f 941e 7f3f
000000b0: 1218 803f a0e8 803f 6430 803f 5af4 7e3f
000000c0: d02b 7e3f 4286 803f c702 803f ef76 803f
000000d0: 3290 803f 8dc9 7f3f 863b 803f 7f30 803f
000000e0: e3d1 803f 9ac1 7f3f 0002 7f3f 535c 803f
000000f0: 818f 7f3f 1e10 803f d14a 7f3f a909 803f
00000100: 0129 7e3f 9bb8 803f af38 803f 2d5b 7f3f
00000110: 2866 803f b4d3 7f3f 470e 7f3f 5f13 7f3f
00000120: cc4c 803f 6148 7f3f 22e7 7f3f f27b 7f3f
00000130: 12cc 7e3f 4bf6 803f df64 803f 12e3 7f3f
00000140: afe9 803f 7e78 803f 0085 803f e4f8 7e3f
00000150: 6ed1 7f3f b738 7f3f 30ef 7f3f 571d 803f
00000160: 9765 803f 7cb0 7f3f 0897 7f3f b79f 7e3f
00000170: 4382 803f 4213 803f 0e16 7f3f edd7 7f3f
00000180: 6400 803f dc1c 803f b15c 803f 5af9 7f3f

model.all_layers.1.bias f4 [100]
-9.2768465e-10 1.0040822e-09 -3.020978e-09 -7.770723e-10 -3.0559014e-10 -5.2386895e-10 -3.4597178e-10 -1.2048986e-09
1.0368236e-11 -8.622011e-10 -6.4173944e-10 -8.993084e-10 1.3489627e-09 -3.0340747e-10 -1.0652003e-09 5.8607846e-10
-2.1304005e-09 -3.7107376e-10 1.6545528e-09 6.611117e-10 1.2223609e-09 -6.1554606e-10 1.47993e-09 1.7025742e-10
-1.3795216e-09 1.8717405e-10 -2.0954757e-10 -2.1828164e-12 -2.8812794e-10 2.532033e-10 8.9930846e-10 -1.0302758e-09
4.2782633e-10 -6.340997e-10 1.2660165e-09 1.868466e-09 -5.2168625e-10 3.2654501e-09 -3.5142872e-10 1.2136296e-09
2.6848287e-10 3.7543943e-10 -1.9033906e-09 -1.9153956e-10 2.5756894e-10 -2.6848282e-10 8.272764e-10 1.3096723e-11
4.2782636e-10 4.1036405e-10 -4.889443e-10 -4.71482e-10 -3.6670827e-10 -3.3778638e-10 -1.5061234e-10 3.4924597e-10
-7.858034e-10 3.9945008e-10 5.456968e-10 3.0122466e-10 -3.3778635e-10 -1.1787052e-09 2.8812794e-10 -1.0739314e-09
8.993084e-10 -9.0803953e-10 -8.687494e-10 4.9658416e-10 6.810296e-10 -8.922143e-10 -5.784386e-10 2.903107e-10
8.8184615e-10 4.2127796e-10 2.112938e-09 3.6670827e-10 2.156594e-09 -1.6501873e-09 -2.8594513e-10 -5.478797e-10
1.3096725e-10 -2.5276676e-09 2.287561e-09 -4.289177e-10 -2.968591e-10 -1.9557775e-09 3.0941014e-10 1.2987584e-09
3.0559025e-10 -5.23869e-10 -3.0559028e-11 4.5511114e-10 -3.0177036e-10 8.8184615e-10 8.731161e-12 2.5538613e-10
1.7025746e-10 1.335866e-09 6.373738e-10 1.2611054e-09
00000000: 0100 7fb0 0000 8a30 9b99 4fb1 9a99 55b0
00000010: fdff a7af 0000 10b0 3333 beaf 9a99 a5b0
00000020: 6266 362d 0200 6db0 6666 30b0 3433 77b0
00000030: 6866 b930 cecc a6af 6766 92b0 9b19 2130
00000040: 6766 12b1 fdff cbaf 6766 e330 9ab9 3530
00000050: 0000 a830 3433 29b0 6866 cb30 3433 3b2f
00000060: 9a99 bdb0 d0cc 4d2f 6666 66af 209a 19ac
00000070: 6766 9eaf 3233 8b2f 3533 7730 9b99 8db0
00000080: 3433 eb2f cd4c 2eb0 ffff ad30 6766 0031
00000090: 6866 0fb0 6866 6031 3233 c1af cccc a630
000000a0: 9b99 932f 6766 ce2f cdcc 02b1 9899 52af
000000b0: 9b99 8d2f 9999 93af 6766 6330 6666 662d
000000c0: 3533 eb2f 9b99 e12f 6566 06b0 9999 01b0
000000d0: 9a99 c9af 35b3 b9af 9b99 25af 0000 c02f
000000e0: 0000 58b0 9a99 db2f 0000 1630 9a99 a52f
000000f0: 34b3 b9af 0100 a2b0 6766 9e2f 9a99 93b0
00000100: 3433 7730 9a99 79b0 cecc 6eb0 0180 0830
00000110: 3333 3b30 0040 75b0 ffff 1eb0 9999 9f2f
00000120: 6866 7230 9a99 e72f 3333 1131 9a99 c92f
00000130: 3433 1431 cecc e2b0 3333 9daf 9b99 16b0
00000140: 0100 102f 33b3 2db1 3333 1d31 cdcc ebaf
00000150: 3433 a3af 6766 06b1 9b19 aa2f 0080 b230
00000160: 0100 a82f 0100 10b0 6866 06ae 3333 fa2f
00000170: 67e6 a5af 6866 7230 a799 192d 6766 8c2f
00000180: 3733 3b2f 9b99 b730 3233 2f30 3453 ad30

model.all_layers.1.running_mean f4 [100]
-0.27074707 0.18244459 -0.3470578 -0.15415338 0.013569216 -0.26663315 -0.20224346 -0.44141468
0.1319136 -0.31538492 -0.19789723 -0.13139823 0.18508652 -0.08105064 -0.2778508 0.12076487
-0.13436344 0.1850294 0.17271866 0.16975926 -0.11005319 0.05775575 -0.15598209 0.1491063
-0.029672258 0.114139915 0.080633655 -0.013412531 -0.22034512 0.0884565 0.15082967 -0.4588718
0.2044344 0.30403236 0.069714636 0.15507238 -0.2321649 0.5332732 0.0049898433 0.33623922
-0.42226812 -0.054186724 -0.2940694 0.03622394 -0.07716821 0.13522558 0.15299474 0.22590859
0.2913828 -0.4026972 0.08564097 -0.1756421 0.19684535 0.20379783 0.015140307 -0.10043542
0.30806762 0.05646356 -0.053730935 0.5064648 0.041932113 -0.5259102 -0.086951986 0.1810297
-0.20490062 0.20833555 0.1541313 -0.2121476 -0.07540121 0.0756482 -0.052365303 -0.13397232
-0.18858783 0.09662454 -0.13863388 0.010700642 0.1257233 -0.07912035 0.025657814 -0.20692343
-0.10848067 0.18230286 -0.17900133 0.18967463 -0.2573631 -0.103912674 0.10059015 -0.03728338
0.22018039 0.01335037 0.1736715 -0.076572865 0.44667423 -0.06778315 -0.32115278 -0.08727689
-0.012756062 0.17431293 -0.098504595 0.052842725
00000000: 5c9f 8abe c1d2 3a3e 8fb1 b1be 62da 1dbe
00000010: 6b51 5e3c 2484 88be e918 4fbe 1b01 e2be
00000020: 5c14 073e 227a a1be 92a5 4abe 428d 06be
00000030: 5287 3d3e e1fd a5bd 7642 8ebe 9253 f73d
00000040: 9296 09be 5978 3d3e 29dd 303e 5fd5 2d3e
00000050: 9163 e1bd 4b91 6c3d c5b9 1fbe 52af 183e
00000060: 3c13 f3bc 30c2 e93d 4223 a53d 3cc0 5bbc
00000070: 27a2 61be ae28 b53d 1873 1a3e 3ff1 eabe
00000080: 4057 513e 21aa 9b3e 8cc6 8e3d 4bcb 1e3e
00000090: a3bc 6dbe 9884 083f d781 a33b 8c27 ac3e
000000a0: 8733 d8be e6f2 5dbd 4490 96be 8e5f 143d
000000b0: 5e0a 9ebd 9378 0a3e a7aa 1c3e 9554 673e
000000c0: 2030 953e 542e cebe 8864 af3d 86db 33be
000000d0: d491 493e 61b0 503e 0d0f 783c 16b1 cdbd
000000e0: 0abb 9d3e 5546 673d f814 5cbd ada7 013f
000000f0: 02c1 2b3d 0da2 06bf e213 b2bd da5f 393e
00000100: 78d1 51be ea55 553e 98d4 1d3e 383d 59be
00000110: f36b 9abd 72ed 9a3d 007d 56bd 0a30 09be
00000120: 2b1d 41be 16e3 c53d 0af6 0dbe bf51 2f3c
00000130: 9cbd 003e da09 a2bd 5630 d23c bce3 53be
00000140: 1d2b debd 9aad 3a3e 204c 37be 113a 423e
00000150: 19c5 83be 2bd0 d4bd 3502 ce3d 75b6 18bd
00000160: f876 613e 83bb 5a3c f1d6 313e 3cd2 9cbd
00000170: 7cb2 e43e e4d1 8abd 236e a4be 3abe b2bd
00000180: cdfe 50bc 177f 323e c7bc c9bd 9d71 583d

model.all_layers.1.running_var f4 [100]
2.4984465 1.4929549 1.5363356 2.9312813 1.890846 1.7570629 1.6873561 1.5656798
2.1952555 3.2568107 1.4749734 3.9683065 1.171292 2.4362621 4.3243957 1.5237544
6.003414 3.650881 2.425308 1.1717625 2.1282887 0.90248656 2.2712295 1.6092377
1.0848706 1.4202409 1.7891095 3.644722 3.4224854 2.67826 4.5283446 1.6838428
2.000494 3.0580258 1.7414577 2.087967 1.6380231 4.499398 3.2682035 1.7035674
2.6193361 1.2436316 1.0021136 3.7095098 2.36281 1.1876723 2.666506 2.0447304
2.780113 3.235684 3.4543843 1.4035811 2.7593613 2.7058723 1.715751 2.2329292
2.754692 0.8784729 3.505357 3.6116695 3.6562402 4.760831 3.7716556 2.3027465
1.7656009 1.7217801 2.2564714 1.5074271 2.5654223 2.5019073 1.1934146 1.5988767
1.4402485 1.4683663 2.6973104 3.7803228 2.5942473 2.9325416 1.7850704 3.3132606
2.6105227 3.073628 3.7624586 2.7306905 1.1749 1.9457667 2.562647 3.6472664
3.8002234 2.0506957 3.8991349 2.1795392 3.4953883 1.5946008 1.7109212 1.8896161
3.1395473 1.231417 1.6578084 2.2343009
00000000: 8ce6 1f40 2519 bf3f a5a6 c43f 1d9a 3b40
00000010: 3e07 f23f 70e7 e03f 49fb d73f 3268 c83f
00000020: 117f 0c40 966f 5040 eecb bc3f bcf8 7d40
00000030: e5ec 953f b8eb 1b40 7361 8a40 620a c33f
00000040: f81b c040 09a8 6940 3f38 1b40 50fc 953f
00000050: e235 0840 5c09 673f d35b 1140 80fb cd3f
00000060: 0add 8a3f 74ca b53f 8a01 e53f 2043 6940
00000070: 000a 5b40 9d68 2b40 33e8 9040 2988 d73f
00000080: 1808 0040 b2b6 4340 16e8 de3f 40a1 0540
00000090: beaa d13f 12fb 8f40 3f2a 5140 7f0e da3f
000000a0: 34a3 2740 522f 9f3f 4245 803f 9c68 6d40
000000b0: 4738 1740 a505 983f 09a8 2a40 dddc 0240
000000c0: 5fed 3140 7215 4f40 a214 5d40 8ca8 b33f
000000d0: 6099 3040 032d 2d40 bb9d db3f 50e8 0e40
000000e0: e04c 3040 9ae3 603f c557 6040 9825 6740
000000f0: d7ff 6940 ba58 9840 ce62 7140 3360 1340
00000100: 36ff e13f 4a63 dc3f 076a 1040 5ff3 c03f
00000110: e12f 2440 401f 2040 cfc1 983f fea7 cc3f
00000120: 105a b83f 6df3 bb3f bca0 2c40 cff0 7140
00000130: 2608 2640 c3ae 3b40 307d e43f 760c 5440
00000140: ce12 2740 52b6 4440 1fcc 7040 a2c3 2e40
00000150: 2063 963f e20e f93f 6902 2440 d06c 6940
00000160: dc36 7340 993e 0340 6d8b 7940 927d 0b40
00000170: 71b4 5f40 e11b cc3f 77ff da3f f1de f13f
00000180: 58ee 4840 129f 9d3f 1133 d43f c9fe 0e40

model.all_layers.2.weight f4 [50, 100]
-0.06485987 0.07272784 -0.1361773 0.07590144 -0.05477825 0.07247127 0.034177482 -0.055538967
-0.016105438 -0.045787092 -0.006115067 -0.02062137 0.09958652 -0.010158028 -0.13401362 -0.021708753
-0.086593226 0.02960614 0.07511082 -0.028380906 0.09989492 0.009341794 -0.06503634 -0.03652126
-0.13654913 -0.012217853 0.058085278 -0.077143215 -0.0765945 0.065316364 0.12156895 -0.052998375
-0.043955904 -0.023208017 -0.022952044 0.12977795 -0.022287391 0.0717936 -0.04445395 0.10174698
0.003134061 0.10051316 -0.10643524 -0.0027642332 -0.01105247 0.04701267 -0.031345032 -0.020222874
0.031663977 0.13602033 -0.12454649 -0.08568039 -0.13874774 -0.0021977944 0.05594343 -0.10965137
-0.12277976 -0.02712459 -0.037724677 -0.02015575 -0.02060496 -0.056135178 -0.07370774 -0.10524111
0.054905105 0.026976325 -0.07784155 0.03808598 0.07895119 -0.015368464 0.011054222 -0.024436831
-0.109218255 0.03340342 0.06704367 -0.06375929 0.09019365 0.09913883 -0.00078448135 -0.056358512
-0.070348814 -0.11216575 0.12548509 -0.01445355 -0.040466584 -0.049328707 -0.008300256 0.104766145
-0.062410135 -0.06250059 -0.029474894 0.012769256 -0.02577898 0.07766745 0.06054525 0.045671083
0.07376845 0.10941057 0.11495862 0.008981663 -0.007989472 0.005009287 0.10849533 -0.061378602
-0.0659159 -0.025275415 -0.022391424 0.085496254 0.11549117 -0.06693696 0.067163795 -0.05711146
-0.032287456 0.0075000017 -0.019967632 -0.042014968 -0.010412209 -0.038548313 0.028442137 -0.02672728
-0.049841788 -0.043196924 0.08353042 -0.09682575 0.11799282 0.06503029 -0.09511441 -0.035392884
0.03680785 -0.06273191 -0.039159793 0.045321044 0.083035044 0.039309945 0.092480786 -0.04642863
-0.025935013 -0.022919152 -0.034625947 -0.06640542 0.06989306 -0.075327784 0.075256236 -0.004377197
0.049151998 -0.14117825 0.10585698 -0.011874737 -0.0030215357 0.05126421 -0.01632314 0.08525643
0.055766974 -0.012934304 -0.027426893 0.08715826 -0.023646161 0.03116046 0.11556259 0.064979084
0.048663445 -0.07244483 -0.021705085 0.03375237 0.048019018 -0.11847504 -0.04906032 0.045929354
-0.038675323 -0.09242286 -0.06056888 -0.002833966 0.06763588 0.018970704 -0.084948204 0.04314751
0.055640973 -0.10583765 0.006277871 -0.045696884 0.08165977 0.056486093 -0.11307921 -0.069204986
0.10981294 0.019267716 0.04369279 0.046937343 0.08736447 -0.01721437 0.073583566 0.09769126
-0.11918737 -0.06698853 0.012105496 -0.016564002 -0.03191558 -0.029311707 -0.08801466 0.06784599
-0.080231756 -0.02126286 0.058062468 0.00843847 0.07146671 0.06905523 -0.053647093 -0.03341129
-0.095604755 -0.008839609 -0.07482503 -0.043317746 0.09190399 -0.024061436 -0.019138427 -0.031052493
-0.025830595 0.060227364 -0.09185569 0.05511255 0.00059973856 -0.05978035 0.015800146 0.053154007
0.041370887 -0.04293139 -0.049211584 -0.047180913 -0.011747415 -0.07904233 0.0010119666 0.019771958
-0.014209327 0.013312009 -0.050511267 -0.003528905 0.094156586 0.043612245 0.0401808 0.0049576843
0.039135844 -0.060664274 -0.09080614 -0.025916323 0.10258073 -0.062578686 -0.07891392 0.04638682
-0.012354555 -0.055315085 -0.005400223 0.03166404 -0.045578692 -0.029672682 -0.081953265 0.07771893
00000000: 40d5 84bd 55f2 943d 1072 0bbe 3772 9b3d
00000010: 295f 60bd d16b 943d b0fd 0b3d d47c 63bd
00000020: 8def 83bc 3f8b 3bbd e660 c8bb 26ee a8bc
00000030: 04f4 cb3d dc6d 26bc de3a 09be 8ed6 b1bc
00000040: ca57 b1bd 9388 f23c b4d3 993d 137f e8bc
00000050: b595 cc3d 530e 193c c631 85bd 5197 15bd
00000060: 89d3 0bbe 642d 48bc d4ea 6d3d 43fd 9dbd
00000070: 94dd 9cbd 96c4 853d 24f9 f83d d314 59bd
00000080: 1b0b 34bd bd1e bebc ed05 bcbc 83e4 043e
00000090: 0c94 b6bc 8608 933d 5815 36bd b860 d03d
000000a0: d164 4d3b d8d9 cd3d b8fa d9bd 2328 35bb
000000b0: 6b15 35bc 5c90 403d a663 00bd 71aa a5bc
000000c0: 16b2 013d ea48 0b3e 3b12 ffbd 3379 afbd
000000d0: e313 0ebe df08 10bb f024 653d e690 e0bd
000000e0: f473 fbbd 6334 debc 3185 1abd ac1d a5bc
000000f0: bccb a8bc 00ee 65bd 15f4 96bd a788 d7bd
00000100: 2de4 603d 74fd dc3c 646b 9fbd 0b00 1c3d
00000110: 29b1 a13d 03cc 7bbc c41c 353c c02f c8bc
00000120: d2ad dfbd 06d2 083d 314e 893d 3b94 82bd
00000130: 73b7 b83d 4d09 cb3d a7a5 4dba 2fd8 66bd
00000140: 0a13 90bd 28b7 e5bd 2a7f 003e 95ce 6cbc
00000150: 4ac0 25bd e60c 4abd ccfd 07bc a28f d63d
00000160: c5a1 7fbd 4f00 80bd 5575 f1bc 2436 513c
00000170: 712e d3bc 1d10 9f3d 4cfe 773d 9a11 3b3d
00000180: ea13 973d a612 e03d 6d6f eb3d d327 133c
00000190: 46e6 02bc f224 a43b cd32 de3d 2168 7bbd
000001a0: eafe 86bd 630e cfbc 386e b7bc a918 af3d
000001b0: a286 ec3d 3f16 89bd 2c8d 893d b5ed 69bd
000001c0: da3f 04bd 93c2 f53b 2993 a3bc e317 2cbd
000001d0: f897 2abc d6e4 1dbd 7cff e83c 2bf3 dabc
000001e0: e726 4cbd 42ef 30bd ff11 ab3d 944c c6bd
000001f0: 38a6 f13d 9a2e 853d 58cb c2bd 21f8 10bd
00000200: d4c3 163d 9679 80bd 0566 20bd 8fa2 393d
00000210: 470e aa3d 7703 213d 9166 bd3d f22b 3ebd
00000220: aa75 d4bc f2c0 bbbc f0d3 0dbd 91ff 87bd
00000230: 1824 8f3d 7445 9abd f11f 9a3d 976e 8fbb
00000240: 9b53 493d 0891 10be 8bcb d83d 428e 42bc
00000250: f504 46bb 6cfa 513d 1bb8 85bc ec9a ae3d
00000260: e96b 643d 67ea 53bc 5dae e0bc 0880 b23d
00000270: 98b5 c1bc 3944 ff3c 14ac ec3d c113 853d
00000280: 5253 473d f45d 94bd ddce b1bc ed3f 0a3d
00000290: 97af 443d 0ba3 f2bd 79f3 48bd 6b20 3c3d
000002a0: 046a 1ebd 3248 bdbd 1317 78bd 0fba 39bb
000002b0: ae84 8a3d 7368 9b3c 53f9 adbd 72bb 303d
000002c0: cae7 633d 69c1 d8bd 99b6 cd3b a82c 3bbd
000002d0: 3d3d a73d f65d 673d 1396 e7bd 58bb 8dbd
000002e0: 9be5 e03d 54d7 9d3c 36f7 323d 5f41 403d
000002f0: 25ec b23d 2705 8dbc fbb2 963d 5b12 c83d
00000300: 8218 f4bd 4831 89bd 2156 463c 3bb1 87bc
00000310: e9b9 02bd 1b1f f0bc 0841 b4bd d7f2 8a3d
00000320: 8c50 a4bd 732f aebc e9d2 6d3d 8241 0a3c
00000330: 235d 923d d46c 8d3d 0ebd 5bbd 47da 08bd
00000340: 6dcc c3bd 02d4 10bc de3d 99bd f36d 31bd
00000350: 2938 bc3d 7d1c c5bc 31c8 9cbc cc61 febc
00000360: af9a d3bc f8b0 763d d61e bcbd b2bd 613d
00000370: c637 1d3a 3edc 74bd 4f6f 813c 04b8 593d
00000380: 8574 293d d3d8 2fbd 1692 49bd c640 41bd
00000390: 3b78 40bc f2e0 a1bd f7a3 843a cdf8 a13c
000003a0: 3dce 68bc 9d1a 5a3c e7e4 4ebd 3445 67bb
000003b0: 2bd5 c03d c1a2 323d 9f94 243d 1274 a23b
000003c0: e84c 203d 1a7b 78bd 92f8 b9bd 784e d4bc
000003d0: d915 d23d 4129 80bd 9f9d a1bd 1b00 3e3d
000003e0: c26a 4abc 1292 62bd 5bf4 b0bb 27b2 013d
000003f0: b9b0 3abd 2014 f3bc 1dd7 a7bd 1a2b 9f3d

model.all_layers.2.bias f4 [50]
-0.0864576 -0.0008560621 0.017236851 0.03047987 0.0056844354 -0.043928504 0.01726403 0.062280662
-0.04695461 -0.060365845 -0.08993707 0.040228866 -0.013220587 0.07103733 -0.020354211 0.0055683996
-0.08674189 0.037303798 -0.0029202104 0.0892682 0.045742773 0.016121015 0.031673647 0.050400518
-0.008639753 0.012040019 0.0031919698 -0.059396338 -0.05946969 0.021779701 0.07997335 0.06460703
0.056317486 0.035469733 0.05586832 -0.03273829 -0.03180995 0.016840063 -0.017645799 -0.093616724
0.049768798 0.043953188 -0.09180405 0.0778374 -0.0009940633 -0.079422876 -0.05343486 0.012391247
-0.07151739 0.06615914
00000000: af10 b1bd 5b69 60ba 4c34 8d3c ecb0 f93c
00000010: 8044 ba3b 60ee 33bd 4c6d 8d3c 021a 7f3d
00000020: 7a53 40bd 2d42 77bd ed30 b8bd 06c7 243d
00000030: 299b 58bc 057c 913d e0bd a6bc 1f77 b63b
00000040: bba5 b1bd decb 183d 0061 3fbb 3fd2 b63d
00000050: c65c 3b3d 3810 843c 3abc 013d c670 4e3d
00000060: c08d 0dbc 8043 453c 5e30 513b 9349 73bd
00000070: 7d96 73bd 586b b23c 11c9 a33d b150 843d
00000080: 2aad 663d b648 113d 2ed6 643d 9618 06bd
00000090: 264b 02bd 2cf4 893c ec8d 90bc 20ba bfbd
000000a0: 5eda 4b3d 4208 343d c303 bcbd 3769 9f3d
000000b0: 3b4b 82ba 76a8 a2bd 83de 5abd a804 4b3c
000000c0: b677 92bd 717e 873d

model.all_layers.3.weight f4 [50]
1.3742689 1.29446 0.9828243 0.9851831 0.98428893 0.983339 0.983556 0.9825865
0.9801842 0.9831231 0.9798717 0.9855374 0.986721 0.98184776 0.984239 0.983746
0.97901654 0.98585224 0.984998 0.98028904 0.98795235 0.9821977 0.9845125 0.98565334
0.98431855 0.96390367 0.98505616 0.9874561 0.98307216 0.97279644 0.98617977 0.984504
0.9834637 0.98910373 0.9861506 0.98567355 0.98641974 0.98351914 0.98791444 0.9855893
0.98333764 0.9869611 0.9857997 0.98465997 0.98550975 0.9868974 0.9850683 0.97502416
0.97359926 0.98339844
00000000: 0be8 af3f deb0 a53f 609a 7b3f f634 7c3f
00000010: 5cfa 7b3f 1bbc 7b3f 53ca 7b3f ca8a 7b3f
00000020: 5aed 7a3f f5ad 7b3f dfd8 7a3f 2e4c 7c3f
00000030: bf99 7c3f 605a 7b3f 16f7 7b3f c7d6 7b3f
00000040: d4a0 7a3f d060 7c3f d428 7c3f 39f4 7a3f
00000050: 72ea 7c3f 4f71 7b3f 0309 7c3f c753 7c3f
00000060: 4dfc 7b3f 64c2 763f a42c 7c3f ecc9 7c3f
00000070: 9eaa 7b3f 3009 793f 4776 7c3f 7408 7c3f
00000080: 47c4 7b3f e735 7d3f 5e74 7c3f 1a55 7c3f
00000090: 0186 7c3f e9c7 7b3f f6e7 7c3f 954f 7c3f
000000a0: 04bc 7b3f 7ca9 7c3f 5e5d 7c3f ad12 7c3f
000000b0: 5e4a 7c3f 4fa5 7c3f 702d 7c3f 2f9b 793f
000000c0: cd3d 793f 00c0 7b3f

model.all_layers.3.bias f4 [50]
0.79098517 0.5755724 -0.028917747 -0.026454967 -0.027898291 -0.027699737 -0.028413923 -0.02883303
-0.031925865 -0.028569518 -0.028996257 -0.027121007 -0.026418667 -0.02950297 -0.026870834 -0.02815224
-0.032723427 -0.027740305 -0.028249457 -0.030186854 -0.025309894 -0.028776536 -0.02817263 -0.026090093
-0.026838485 -0.039796267 -0.027478687 -0.02548426 -0.03037152 -0.033891663 -0.026988104 -0.028643675
-0.026716419 -0.025406888 -0.027152454 -0.02704278 -0.026747417 -0.027872596 -0.025547039 -0.027652875
-0.02738622 -0.02648026 -0.027091103 -0.026468113 -0.027392356 -0.026792498 -0.028268578 -0.03446281
-0.03618431 -0.029376045
00000000: 017e 4a3f b658 133f e9e4 ecbc 16b8 d8bc
00000010: f58a e4bc 8fea e2bc 51c4 e8bc 3f33 ecbc
00000020: b2c4 02bd 9f0a eabc 8f89 edbc e02c debc
00000030: f66b d8bc 36b0 f1bc 3920 dcbc 879f e6bc
00000040: 0009 06bd a33f e3bc 686b e7bc 6c4a f7bc
00000050: b256 cfbc c5bc ebbc 4aca e6bc e4ba d5bc
00000060: 62dc dbbc 6901 23bd fc1a e1bc 5ec4 d0bc
00000070: b2cd f8bc fcd1 0abd 2816 ddbc 24a6 eabc
00000080: 64dc dabc 1b22 d0bc d36e debc d288 ddbc
00000090: 661d dbbc 1255 e4bc 0648 d1bc 4888 e2bc
000000a0: 1159 e0bc 21ed d8bc 29ee ddbc a8d3 d8bc
000000b0: ef65 e0bc f17b dbbc 8193 e7bc e028 0dbd
000000c0: 0036 14bd 08a6 f0bc

model.all_layers.3.running_mean f4 [50]
-0.056311704 -0.0005575724 0.011226728 0.019852197 0.003702397 -0.02861159 0.011244438 0.040564746
-0.03058255 -0.039317578 -0.058577966 0.026201922 -0.008610851 0.046268143 -0.013257137 0.00362682
-0.05649685 0.024296766 -0.0019019953 0.058142297 0.029793248 0.010499968 0.020629723 0.032826945
-0.0056272517 0.007841919 0.0020790002 -0.03868611 -0.038733885 0.014185586 0.05208836 0.04207995
0.03668079 0.023102203 0.036388244 -0.02132314 -0.020718494 0.010968294 -0.011493091 -0.060974594
0.032415498 0.02862765 -0.059793957 0.050697174 -0.00064746133 -0.051729843 -0.034803275 0.00807068
-0.046580818 0.043090876
00000000: 1aa7 66bd 0d2a 12ba 4ff0 373c 13a1 a23c
00000010: eaa3 723b da62 eabc 973a 383c 3827 263d
00000020: 4288 fabc 780b 21bd 73ef 6fbd 6aa5 d63c
00000030: 8714 0dbc aa83 3d3d 7634 59bc f1af 6d3b
00000040: 3e69 67bd 030a c73c 5f4c f9ba 9e26 6e3d
00000050: f810 f43c 0f08 2c3c aaff a83c 8c75 063d
00000060: cf64 b8bb 647b 003c d63f 083b 5475 1ebd
00000070: 6ca7 1ebd a96a 683c 9b5a 553d 075c 2c3d
00000080: 993e 163d d540 bd3c d70b 153d dead aebc
00000090: d5b9 a9bc 5cb4 333c 844d 3cbc 7fc0 79bd
000000a0: 1dc6 043d 8984 ea3c 82ea 74bd d7a7 4f3d
000000b0: 65ba 29ba ace2 53bd e18d 0ebd e33a 043c
000000c0: 87cb 3ebd 0f80 303d

model.all_layers.3.running_var f4 [50]
0.9813459 3.397231 0.4818526 0.56579316 0.5389672 0.46434903 0.5559702 0.63791484
0.6802822 0.45235777 0.6628554 0.8655848 0.44475678 0.508454 0.6185163 0.579232
0.6634749 0.6462911 0.57953435 0.7919984 0.9492701 0.586546 0.4935586 0.50154597
0.80573714 0.55355287 0.5655854 0.9734478 0.47740564 0.60326076 0.5295432 0.5376862
0.6814155 0.65743995 0.6583333 0.6910403 0.6825401 0.6007373 0.6031293 0.42423743
0.52333677 0.5010492 0.6529018 0.59026486 0.5998826 0.622868 0.56356317 0.74544394
0.6529137 0.53942525
00000000: 7c39 7b3f 3c6c 5940 62b5 f63e d2d7 103f
00000010: c1f9 093f 28bf ed3e 1054 0e3f 634e 233f
00000020: f926 2e3f 709b e73e e4b0 293f f796 5d3f
00000030: 29b7 e33e 0b2a 023f 1657 1e3f 8c48 143f
00000040: 7ed9 293f 5573 253f 5d5c 143f 68c0 4a3f
00000050: 5e03 733f e127 163f b6b3 fc3e 5165 003f
00000060: ca44 4e3f a4b5 0d3f 34ca 103f e033 793f
00000070: 836e f43e 4c6f 1a3f 2590 073f cea5 093f
00000080: 3f71 2e3f fc4d 283f 8888 283f 04e8 303f
00000090: f3ba 2e3f ebc9 193f af66 1a3f a635 d93e
000000a0: 66f9 053f c344 003f 9324 273f 991b 173f
000000b0: e891 193f 4774 1f3f ad45 103f 6ad5 3e3f
000000c0: 5a25 273f c617 0a3f
