unit06-dl-tips/6.8-debugging/logs/my-model/version_0/checkpoints/epoch=6-step=3150.ckpt (torch, 71730 bytes, 14 tensors)

model.all_layers.0.weight f4 [100, 100]
000000 1f 49 1a bd 98 73 e3 bc 5f 37 26 be 65 6c a4 3b
       -0.03766739 -0.02776508 -0.1623206 0.0050178044
000010 a2 c5 ec bd 68 e1 3a 3d 10 af 01 bd a3 8a 0d bb
       -0.11561133 0.04562512 -0.031661093 -0.0021597527
000020 a9 4a cb bd 37 09 1a 3d 2a ed b0 bd 8c eb 09 3e
       -0.0992635 0.037606444 -0.086389855 0.1346876
000030 fe 11 24 bd b3 62 9c bc d4 cb 8c bd 94 75 05 bc
       -0.04005622 -0.019090032 -0.06874815 -0.008145709
000040 97 98 b5 bd df 23 ba 3d 87 f8 51 bd 01 73 8e 3d
       -0.08866995 0.09088873 -0.051262405 0.06955529
000050 85 28 53 3c e7 e1 07 3c 71 ab 79 bd 47 c6 72 3d
       0.012888079 0.008293605 -0.060954515 0.059271123
000060 16 e0 e0 bd 41 85 f8 3c 31 3d 17 bd d5 2c d8 bc
       -0.10980241 0.030336978 -0.03692359 -0.026388565
000070 e1 8a e5 3d 9d 9c 42 be 95 60 00 3e 08 c6 b4 3d
       0.1120813 -0.19005056 0.12536843 0.08826834
000080 f7 c2 54 bc a9 df 0e 3b 1d d3 25 3d 64 21 6a bd
       -0.012985936 0.0021800792 0.040484536 -0.05716075
000090 4e ba c8 bd 73 f3 c9 bd d2 34 fa bd bf 5a 47 3c
       -0.0980116 -0.098608874 -0.12217106 0.012167632
0000a0 ed 2f d6 3c 69 b1 4e bc 06 bf d0 3d cf 7e f6 3d
       0.0261459 -0.01261554 0.10192685 0.120359056
0000b0 33 81 23 bd df 0c 62 3d 9d a6 f8 3b d6 e0 85 3c
       -0.039918136 0.055188056 0.007588221 0.016342562
0000c0 3c ac 55 3e 85 f9 b0 3d 83 62 ac 3c 2f 85 80 3d
       0.20866483 0.08641342 0.021043068 0.06275403
0000d0 da c9 1c bd 7f be cf 3d c7 a3 73 bc 93 ef 6d bd
       -0.03827844 0.10143756 -0.0148705905 -0.058089804
0000e0 4e 1a 95 bc cf 0f 11 3d 33 96 e1 3d 5c ba 63 bd
       -0.01820102 0.035415467 0.11014976 -0.055597648
0000f0 23 69 48 bd 87 50 32 3d 53 60 c0 bd 50 94 88 bd
       -0.04892839 0.043533828 -0.093933724 -0.06668913
000100 b8 52 cd bd 5d 78 38 3d 83 0c 96 bd ad e1 6d 3d
       -0.10025543 0.045036662 -0.07326605 0.05807655
000110 a9 a6 e8 bd 92 91 56 3d 5a 7b 3d 3e f5 7a a2 3d
       -0.11359913 0.05238492 0.18504086 0.079336084
000120 53 d8 39 be 2d bf 36 be 17 98 e8 3c 09 31 33 3a
       -0.18148927 -0.17846365 0.028392835 0.0006835615
000130 27 cc 05 bd 37 1d c5 bd 08 65 9b bd 10 70 c7 3d
       -0.032665398 -0.09624713 -0.075876296 0.09738171
000140 d2 51 f1 3d 53 69 6e bd 97 1d fa 3c 34 0b 3b bc
       0.11783184 -0.058205914 0.030531688 -0.011416245
000150 51 1d f5 bd 58 5d b7 bd 2a 5c 11 bd 88 a8 ab bb
       -0.11968482 -0.08953351 -0.035488285 -0.0052385963
000160 73 79 1e bc 69 75 1e bd 46 06 52 bd 00 37 1e 3e
       -0.00967251 -0.03868619 -0.051275514 0.15450668
000170 51 74 62 3d 9a 10 1c 3d dd c9 ce bd ec af 96 bc
       0.05528671 0.03810177 -0.10097096 -0.018394433
000180 51 ac 9f 3d 41 85 28 3d 14 ae a6 3d 94 e7 69 bd
       0.077965386 0.041142706 0.081386715 -0.057105616
000190 8b 78 1a 3d f5 ac fe bd 45 72 93 3a 37 a2 59 bd
       0.037712615 -0.12435333 0.0011249265 -0.053133216
0001a0 a9 85 a6 bc 72 b5 03 3d 2d b3 9a 3d a8 79 ab 3d
       -0.020327406 0.03215546 0.07553706 0.083728135
0001b0 27 ce 34 bd 18 7f 2f bd d0 cb 70 3d a3 6f b3 bd
       -0.044141915 -0.042845815 0.05878812 -0.087615274
0001c0 a0 13 99 3d 69 af 97 3a 97 48 48 3d dc 14 82 3d
       0.07474446 0.0011572662 0.048897352 0.06351635
0001d0 78 80 62 bd 19 c5 45 bc 1d 2a bb 3d 0c a7 04 3e
       -0.0552983 -0.0120709175 0.09138892 0.12954348
0001e0 de 3f 88 bd 93 0f d9 3d 88 7a 1b 3e b5 0c 10 bd
       -0.06652807 0.10598674 0.1518346 -0.03516837
0001f0 8d 0e e3 3d 54 1f 21 be 5f 0c 0d 3b 24 52 10 3d
       0.1108676 -0.15734607 0.0021522266 0.035234585
000200 28 1c 9e bc e7 e2 99 3d d4 a2 17 bd 9b 43 b5 3d
       -0.019300535 0.07513981 -0.03702052 0.08850785
000210 b9 3c a8 3d 4d 44 46 bd e0 18 5a bd 79 eb db bd
       0.08214707 -0.04840498 -0.05324638 -0.10738272
000220 dc 54 34 3d 70 1b 58 3d 0b f8 35 3d 0f 23 1b bc
       0.04402624 0.05276054 0.044426005 -0.009468808
000230 c3 0d c2 3c b0 59 17 3d 83 62 25 bb c0 44 11 3e
       0.023688203 0.036950767 -0.002523572 0.14186382
000240 d9 cc a6 3d 09 5d 93 bd 2b 96 b9 bd 06 89 25 bb
       0.0814454 -0.071954794 -0.090618454 -0.0025258674
000250 b9 80 de bd 72 c9 9d bd ac 16 ab bd 9c a2 0b 3d
       -0.10864396 -0.07704438 -0.08353934 0.034090623
000260 88 ee 84 3d 65 9c 50 3d d3 f8 fb bd d7 55 e3 3c
       0.06490809 0.0509304 -0.12303319 0.027750893
000270 4f 98 a8 bd 92 12 82 3d ae f4 10 be 01 32 0a 3d
       -0.082321756 0.06351198 -0.14155838 0.033739094
000280 92 1d 16 3d d3 2b 05 3e d5 fe 6f bd c4 ba 06 3e
       0.036649294 0.13004999 -0.058592636 0.13157183
000290 06 56 1d 3e 12 7b 18 3e 78 03 8e 3d d5 7b f2 3d
       0.15364847 0.14890698 0.06934255 0.11840025
0002a0 5e 63 b3 3d ec 88 c3 3d fe 93 2f bd 2b 5d 9f bc
       0.08759187 0.095476 -0.042865746 -0.019453606
0002b0 88 c1 b9 3c 0d b4 72 3c 62 86 7a bd c5 64 75 3d
       0.02267529 0.014813435 -0.061163314 0.059910554
0002c0 8b 78 20 be 28 aa a7 bc d2 04 06 3e c0 19 bc bc
       -0.15670983 -0.020466879 0.13087776 -0.022961497
0002d0 28 c6 a3 bc b1 fe 7b 3d 3b dc 28 3d a7 09 80 be
       -0.01999195 0.06152219 0.041225653 -0.25007364
0002e0 cd 4a 7b bd d9 36 b5 3a f2 40 a6 bd a8 e3 d3 3d
       -0.061350632 0.001382555 -0.08117856 0.10346156
0002f0 71 15 b1 3d 73 a5 21 be 7a 32 de bd fb 5b d6 bd
       0.08646668 -0.1578577 -0.108494714 -0.10466763
000300 94 9c 04 3e 35 21 0d 3d 06 42 b8 bd 6d 4b 8e 3c
       0.12950355 0.034455497 -0.08996968 0.01736995
000310 a7 38 ff 3b 1c 2c a0 bd 92 fa d5 3d 0b 63 69 3c
       0.007788736 -0.07820913 0.10448183 0.014244805
000320 35 7a a1 bd ee 30 00 ba 1f 90 0b 3e e9 df ad bb
       -0.07884637 -0.00048901036 0.13629197 -0.005306233
000330 d8 71 2a bd 25 0f 15 3d a4 b1 d5 bd 21 91 8b bc
       -0.041612476 0.036391396 -0.10434273 -0.017036976
000340 4f f7 da bd 7a 4f 8a 3d 7d 58 fe 3c 7c a4 c3 bd
       -0.106917016 0.0675344 0.031048054 -0.09552857
000350 b9 e9 d1 3d 98 3d c5 bd 53 45 49 3d fe 31 1a bd
       0.10249657 -0.09630889 0.04913838 -0.037645333
000360 ca f0 6f 3d fa ea 11 bd b5 71 21 3d 76 26 87 3c
       0.058579244 -0.03562448 0.03941508 0.016497832
000370 5d 1e 70 bd 52 51 8b bd d5 e3 5d 3e fe 0e 3d 3c
       -0.058622707 -0.0680262 0.21668942 0.011539219
000380 09 4d a7 3d 47 f3 2b be 0e a5 99 bd 39 39 b8 bc
       0.0816899 -0.16792022 -0.07502185 -0.022488223
000390 0b 54 d4 bc c8 62 69 3d 60 54 9c bd 59 e7 5d bd
       -0.025918981 0.05697897 -0.07633281 -0.05417571
0003a0 28 16 32 bd 94 8f 9b 3c f4 f5 fa bc c1 6f 09 be
       -0.04347816 0.018989362 -0.030634858 -0.13421537
0003b0 79 39 c0 3d c7 69 88 3d af 18 90 bd 72 87 c2 3d
       0.09385962 0.066608004 -0.07035958 0.094984904
0003c0 2d 3f eb 3d 63 01 00 be 63 b9 58 be df bc dd bc
       0.11486659 -0.12500529 -0.2116447 -0.0270676
0003d0 2d 56 c8 3d 70 88 c1 3c 77 e5 d9 bd c0 55 1d 3c
       0.09782062 0.023624629 -0.1063947 0.009602964
0003e0 0f 5f ce bc e1 5f a4 3d c3 aa 48 3d 41 ae 1f be
       -0.025191812 0.080261 0.048990976 -0.15593816
0003f0 8c 78 3d 3e 7d a3 b5 bd ed 65 7e bc f1 93 f0 3b
       0.18503016 -0.088690735 -0.015527231 0.0073418547

model.all_layers.0.bias f4 [100]
000000 50 10 73 3c 4f eb 8b 3d 0c 7d ee 3c e6 a8 13 bd
       0.014835432 0.06831991 0.029112361 -0.036049746
000010 00 a0 3d bc 22 04 6e 3d 52 25 0b 3d be 1a 7d 3b
       -0.0115737915 0.05810941 0.03397114 0.0038620676
000020 87 56 49 bd 3b 5f a0 3d 7a b7 b0 bd 7d da b9 bd
       -0.049154785 0.07830664 -0.086287454 -0.090748765
000030 18 51 b5 3c b7 ee 85 3d 3a 3b c1 bd 52 8d 10 3d
       0.022133395 0.06539672 -0.09435125 0.035291024
000040 37 17 4a bd 65 78 8f 3d e0 9b d0 bc 83 ea bf 3d
       -0.049338546 0.07005385 -0.025464952 0.093709014
000050 6d 84 27 bd b0 f5 9f bb c1 f1 86 3d a0 ed db bc
       -0.040897775 -0.004881583 0.0658908 -0.026846707
000060 80 65 af 3b 01 ab 9c 3d 1c a0 10 bd 25 1b a1 bd
       0.005352676 0.07649804 -0.035308942 -0.078665055
000070 68 1a 0f 3c 9f ff b5 bd 19 9e 92 3d 70 9e 1d 3c
       0.008734323 -0.088866465 0.07159061 0.009620294
000080 14 47 de bc d8 59 75 bc 5f 40 aa 3d 98 f1 f2 bc
       -0.027133502 -0.014975034 0.08313059 -0.029656217
000090 88 3a 81 ba 50 bf 69 3c c0 7b 18 3c 8a cd 54 bd
       -0.0009859363 0.014266804 0.009306848 -0.05195383
0000a0 a0 d5 d0 bb c3 54 26 bd 58 2d 0c bc 9b eb 91 bd
       -0.0063731223 -0.04060818 -0.008555733 -0.07125016
0000b0 7a d2 14 3d bd 18 25 bd 70 06 63 3c 2f d3 c7 3d
       0.03633354 -0.040306795 0.013856515 0.09757077
0000c0 54 72 e7 3c f4 a3 80 bd 5d 74 9f bd 60 fc 7f bd
       0.028252758 -0.062812716 -0.077858664 -0.062496543
0000d0 25 d9 8b 3d 67 a8 a0 3d 7a fd 0a 3d d2 37 9f bd
       0.068285264 0.0784462 0.03393314 -0.07774319
0000e0 cc a7 dc 3c 92 a7 08 3d 08 83 9a bc bc 15 f5 3c
       0.02693548 0.033362933 -0.018861309 0.02991759
0000f0 c9 56 b1 3d b8 03 c6 bc 7d 5d 81 3d ac fe bf 3c
       0.08659131 -0.024171695 0.063166596 0.023436867
000100 65 d0 b5 bd f0 df 00 bc e8 bc d1 bc 68 69 1b bc
       -0.08877639 -0.007865891 -0.025602773 -0.00948558
000110 a1 2f 97 bb c5 37 99 bd 9e c6 48 3d b5 47 88 bd
       -0.004613832 -0.0748134 0.04901754 -0.06654302
000120 30 7f 49 bd 71 87 c5 3d b8 49 ae 3c 58 36 0e bc
       -0.04919356 0.09644974 0.021275386 -0.008679949
000130 de 4c 4d 3d 3d 5f c7 3d 27 46 4e bd 52 9d bd bd
       0.050122134 0.09734962 -0.05035987 -0.09258522
000140 58 7c 71 bc 72 35 80 bd f0 5c c0 bd 8a 0c 0a bd
       -0.0147391185 -0.06260194 -0.093927264 -0.033703364
000150 00 7c c0 bc 7d ba 85 ba f2 aa 37 3d e1 15 8a 3d
       -0.023496628 -0.0010202673 0.04484076 0.06742454
000160 14 c2 c5 bc 94 66 f8 bc d3 19 7a bd ff 41 92 3d
       -0.024140395 -0.03032235 -0.061059784 0.07141494
000170 56 17 1c 3d 10 f9 63 bc d6 1a 73 3d 41 f5 a5 3d
       0.038108192 -0.013914362 0.059351765 0.08103419
000180 04 a0 05 bd 77 c3 96 3d a6 ec 10 bd 2c 16 a0 bc
       -0.032623306 0.07361501 -0.035381936 -0.019541822

model.all_layers.1.weight f4 [100]
000000 68 89 66 3f 15 0f 71 3f 86 55 7d 3f 8c 2b 71 3f
       0.90053415 0.9416364 0.98958623 0.9420707
000010 7b 45 70 3f a2 c7 82 3f 83 5b 9c 3f 80 1c 85 3f
       0.9385602 1.0217173 1.2215427 1.0399323
000020 11 d1 74 3f dd e8 65 3f dd b1 86 3f 95 a0 84 3f
       0.9563151 0.89808446 1.052303 1.0361506
000030 50 f4 83 3f 66 07 74 3f 85 2e 73 3f b5 2d 8b 3f
       1.0308933 0.9532379 0.9499286 1.0873324
000040 df 95 7f 3f a1 3f 89 3f 07 d2 83 3f b5 3c 91 3f
       0.9983806 1.0722543 1.029847 1.1346651
000050 eb a1 6e 3f d0 ed 78 3f 79 54 74 3f 8f 76 76 3f
       0.9321582 0.97237873 0.95441395 0.96274656
000060 6c 68 72 3f 78 3a 86 3f 5a 54 88 3f 4a 41 85 3f
       0.94690585 1.0486593 1.0650742 1.041055
000070 53 9d 81 3f 57 d4 6b 3f f0 10 8a 3f 3b 42 85 3f
       1.0126137 0.9212088 1.0786419 1.0410837
000080 3a 7d 79 3f c8 3d 6e 3f d3 49 75 3f f1 68 83 3f
       0.97456706 0.9306302 0.9581577 1.02664
000090 03 dd 7c 3f 40 1d 7b 3f 7d ab 7f 3f a4 0a 94 3f
       0.9877474 0.98091507 0.99871045 1.1565747
0000a0 ed 37 6a 3f 87 9e 82 3f 27 70 8e 3f d2 f1 77 3f
       0.91491586 1.0204629 1.1127976 0.96853364
0000b0 ed c2 7a 3f 21 e7 7a 3f 78 36 7d 3f 16 7c 7f 3f
       0.97953683 0.98008925 0.9891124 0.99798715
0000c0 00 74 69 3f 47 f0 82 3f 25 87 67 3f 9e 25 81 3f
       0.91192627 1.0229577 0.9044059 1.0089605
0000d0 8e 9c 7d 3f cf 27 76 3f 09 34 7b 3f bf 11 7c 3f
       0.9906701 0.96154493 0.98126274 0.9846458
0000e0 d4 03 77 3f 58 09 88 3f 1a 00 70 3f 66 13 6b 3f
       0.96490216 1.0627851 0.93750155 0.91826475
0000f0 bb 8e 71 3f 76 6c 68 3f 05 a5 86 3f d4 49 80 3f
       0.94358414 0.907905 1.051911 1.002253
000100 5e 92 85 3f 92 6d 8f 3f 96 b8 6c 3f 11 e9 87 3f
       1.0435293 1.1205313 0.92469156 1.0618001
000110 e3 84 85 3f 15 fb 90 3f c1 33 7e 3f 25 25 75 3f
       1.0431179 1.1326624 0.9929772 0.95759803
000120 2d fb 76 3f 8c 1b 80 3f a0 d4 72 3f 8b 2c 7f 3f
       0.96477014 1.0008407 0.9485569 0.9967734
000130 80 a4 6e 3f 4e 2e 71 3f 01 87 85 3f 35 6c 8d 3f
       0.9321976 0.9421128 1.0431825 1.1048647
000140 cc 30 81 3f 11 bd 75 3f cd 5b 80 3f 8c a2 8b 3f
       1.0093017 0.9599162 1.0028015 1.090898
000150 7a 9d 74 3f f3 d5 6f 3f 40 b4 81 3f 16 2d 72 3f
       0.9555279 0.93685836 1.0133133 0.94600046
000160 1c b8 7c 3f b5 56 80 3f ab 40 87 3f ae a1 6e 3f
       0.9871843 1.0026461 1.056661 0.93215454
000170 0b 27 6c 3f 00 0f 74 3f fd e0 83 3f 75 9e 88 3f
       0.92247075 0.9533539 1.0303036 1.0673357
000180 32 33 74 3f 33 3b 8a 3f 65 a1 82 3f 92 38 83 3f
       0.9539062 1.0799316 1.0205504 1.0251639

model.all_layers.1.bias f4 [100]
000000 bb fa 19 be cc 4d 6a be 6d e3 28 3d 86 2a 28 bd
       -0.15037052 -0.2288124 0.041232515 -0.04105618
000010 28 2b c4 bd db 2e ae 3c f2 f2 28 be e3 d7 67 be
       -0.09578544 0.021262577 -0.16498926 -0.22640948
000020 8e d7 c7 bd f1 c9 03 be e0 e3 c2 bd 3c 30 4c 3d
       -0.09757911 -0.12870003 -0.0951612 0.049850687
000030 24 a6 1b bd 38 2d 66 bd e7 2f 03 bd 4b 6f 45 bd
       -0.03800024 -0.056195468 -0.032028105 -0.04820184
000040 51 95 c7 bd 0e a9 b5 bd 89 26 24 bd 1b 0b a8 bd
       -0.09745277 -0.08870135 -0.040075812 -0.08205243
000050 43 c0 fc bd ff ae 55 bd 20 9a 6c 3c 8f e7 88 bd
       -0.123413585 -0.052168842 0.014441043 -0.06684791
000060 ae 2c fa bd 3a 57 74 bd 0c b7 02 be fe 18 5d bd
       -0.12215553 -0.0596535 -0.1276514 -0.053978913
000070 bb 33 52 be c4 68 0a bd be 92 36 be 7c f3 12 3e
       -0.20527546 -0.03379132 -0.17829415 0.14350694
000080 b8 06 a3 bc 35 d8 01 3c 40 66 02 3d 00 db a3 bd
       -0.019900665 0.007925083 0.031835794 -0.08000755
000090 00 37 19 bd 74 c9 5d bd 28 8b 49 be 08 29 6c 3d
       -0.037405968 -0.0541472 -0.1968199 0.057656318
0000a0 4c 46 08 be 5b 1e 7a 3d 27 5e 23 bd 75 cd 39 be
       -0.13308066 0.061064105 -0.039884713 -0.18144782
0000b0 49 53 7c bb f4 94 75 b9 d7 18 fa 3c dd 7b 48 3d
       -0.003850179 -0.0002342051 0.030529423 0.04894625
0000c0 a8 07 a0 bd 07 89 30 be a7 3d 11 bb 46 59 7a 3d
       -0.0781396 -0.17239772 -0.0022161992 0.061120294
0000d0 d4 ee 0f be 34 54 de bd 61 6b a4 bd 21 d6 bc bd
       -0.1405595 -0.10855904 -0.080282934 -0.09220529
0000e0 e4 7f 48 be 01 63 ff bd d9 39 07 be 48 1f bf bd
       -0.19580036 -0.12470055 -0.13205661 -0.09332138
0000f0 93 96 0a be 17 c3 0e be ff c9 31 3d 63 d0 cc bc
       -0.13534002 -0.13941608 0.04340553 -0.02500171
000100 76 63 40 be 69 54 62 bc 8c ed f2 bd 48 b9 3f 3d
       -0.18787941 -0.01381407 -0.11861715 0.046807557
000110 5f 8c 77 3d ab 27 06 3e 04 ca d9 bd 74 e9 75 be
       0.060436603 0.1310107 -0.106342345 -0.24014837
000120 82 7e 7c bd 79 11 56 be a6 b7 2e bd 44 ab 16 bd
       -0.061644085 -0.20905103 -0.04265561 -0.036784425
000130 e8 5d 81 bd d1 6d ac bd 64 8e 4d bd 08 0e d0 bd
       -0.06316739 -0.08419383 -0.050184622 -0.10158926
000140 35 00 14 be 1f 8a a8 bd fd 70 84 bc 89 f0 17 3e
       -0.14453204 -0.082294695 -0.016167158 0.1483785
000150 f0 cb 02 be 5c 44 f2 bc cf 32 4d be e5 3c 6d 3d
       -0.12773108 -0.029573612 -0.20038913 0.0579194
000160 c8 a6 0d be 9e 8f 6c bd 27 d5 12 be 38 0b 9f bd
       -0.13833153 -0.05775415 -0.14339124 -0.07765812
000170 ff 9b a6 bd e2 06 84 3d f2 5d e8 bd 01 11 95 bd
       -0.08135223 0.06446625 -0.11346044 -0.07278634
000180 01 cf 42 be e8 cb 2d be 56 a3 fc 3c 1d b4 07 be
       -0.19024278 -0.16972315 0.030839603 -0.13252302

model.all_layers.1.running_mean f4 [100]
000000 bc a1 48 3e f8 d3 f4 bd 3b 86 d0 be 2e fb 70 bf
       0.19592947 -0.11954492 -0.4072741 -0.9413327
000010 ea 4f 09 bf 1d e0 e2 3e 99 38 0d bf 02 11 39 bd
       -0.53637564 0.4431161 -0.55164486 -0.045182236
000020 ae 6e b2 be 22 b1 14 bf 70 a4 0e 3f cb eb 4b 3f
       -0.34850067 -0.58082783 0.5571966 0.79656667
000030 e9 04 9c 3c 04 e6 70 bf 60 49 b5 bf 4b 8f 01 bf
       0.01904531 -0.94100976 -1.4163017 -0.5060927
000040 be d9 57 be 88 a2 09 3f 83 8a cc bc 9a 54 b4 b9
       -0.21079156 0.5376363 -0.024968391 -0.00034395308
000050 8c 84 66 3f 3a 28 2f 3e 2a 18 82 3e 0b 57 4f 3f
       0.90046 0.17105189 0.2540906 0.8099219
000060 7f 13 19 bf 9a 22 78 bf 0a 6d 34 3f 31 27 90 bd
       -0.59795374 -0.969278 0.7047888 -0.07038725
000070 4a f5 00 bd 00 5a c1 3d 10 a2 c6 be e2 2c 39 bf
       -0.031483926 0.09440994 -0.3879552 -0.7233411
000080 3d ca 53 3c 77 f5 03 bf b7 24 6f be 93 90 ea be
       0.012926635 -0.51546425 -0.2335385 -0.45813426
000090 ac 4a 9e 3e 36 52 20 3e a7 c8 4e 3f ad c7 5a 3f
       0.30916345 0.15656361 0.8077492 0.8546093
0000a0 b7 3b 2b bf 69 5a 9a bd a8 ee aa be 72 50 d6 bf
       -0.6688799 -0.075367756 -0.33385205 -1.67433
0000b0 0e 69 0e 3f a1 10 c3 3f bf 3d e5 be 6a a9 b9 3f
       0.5562905 1.523945 -0.4477367 1.4504826
0000c0 5c 87 45 be 47 a5 0b bf aa 0d 28 3f 97 b5 20 3f
       -0.19289917 -0.5454907 0.6564585 0.62777084
0000d0 5e dc 82 3e ed fc 27 3f b6 4c 62 3f 57 47 aa bf
       0.25558752 0.6562031 0.883983 -1.3303021
0000e0 4e e7 a8 3e d3 9b 90 3e da 7b 5b 3e e8 f8 9e 3e
       0.3298897 0.28243884 0.21433964 0.31049275
0000f0 08 28 1b 3e 2d 7d 10 bf b6 bd 70 bf 05 2f 38 3f
       0.1515199 -0.56441003 -0.94039476 0.71946746
000100 c6 3f 25 bf 79 ed 5a bf b5 97 60 be ba 96 97 3f
       -0.64550436 -0.85518605 -0.21932872 1.1842873
000110 98 90 3e bf c2 07 a9 3d 3e 28 4f 3e 19 0b 91 3f
       -0.7443938 0.08253433 0.20230195 1.1331512
000120 9e 71 9a 3e 7f 99 b8 3d 13 0b 0e 3c 29 ee cb 3e
       0.30164808 0.09013652 0.0086696325 0.3983014
000130 bf 90 a9 be 32 4b ae 3e 4d 44 c5 3e b7 fc bd bf
       -0.33118245 0.34041744 0.38528672 -1.4842747
000140 95 6c 28 bf df c3 20 bf a1 90 3c bf 22 30 1b 3e
       -0.65790683 -0.62798876 -0.73658186 0.1515508
000150 c8 02 40 bc e9 7e 12 bf fc e8 bc 3d ae c3 0c bd
       -0.011719413 -0.572249 0.09224126 -0.034366302
000160 c5 98 13 3e 2a 02 19 3f 61 81 82 3f 4b 47 f8 3e
       0.14413746 0.5976893 1.0195733 0.48491892
000170 13 45 84 3c 6e bd d0 be 17 a4 3c bf 06 2d 5d 3f
       0.016146218 -0.40769523 -0.7368788 0.86396825
000180 10 b7 60 3e 73 90 fd bd 38 7d 3f 3f 1e cd 92 bf
       0.21944833 -0.12381067 0.74800444 -1.1468847

model.all_layers.1.running_var f4 [100]
000000 8e ac c1 41 f0 0e a4 41 59 28 c9 41 4d f3 e7 41
       24.209255 20.507294 25.144701 28.9938
000010 44 8c 9c 41 07 c5 03 42 a5 3e 43 42 4c 73 2b 42
       19.56849 32.94241 48.811176 42.862595
000020 57 07 d2 41 28 3e a7 41 21 42 49 42 50 7e 11 42
       26.253584 20.90535 50.31458 36.373352
000030 d5 c2 0b 42 75 cd e4 41 5e eb fe 41 29 52 d2 41
       34.940266 28.60032 31.864925 26.290117
000040 19 d2 c5 41 4c 3b 31 42 5e 0a 0a 42 30 7c 41 42
       24.727587 44.307907 34.510124 48.371277
000050 75 d7 c6 41 9c 19 a8 41 9b 44 da 41 81 ae 94 41
       24.855204 21.012505 27.283499 18.585207
000060 69 ac a6 41 dc fe 4f 42 5e 37 f4 41 b3 7c e6 41
       20.834185 51.998886 30.527035 28.810888
000070 7f d8 f5 41 2e b3 f8 41 ad b1 06 42 b8 89 57 42
       30.730711 31.08749 33.67351 53.88449
000080 5e fe fb 41 94 6c 0d 42 be 26 1c 42 ec 6c d5 41
       31.499203 35.356033 39.037834 26.678185
000090 78 cf c5 41 db 43 d7 41 df 7c c4 41 2d aa 5f 42
       24.726303 26.908133 24.560972 55.916187
0000a0 23 4a 06 42 ef a1 01 42 6f a7 0c 42 ec 5c 18 42
       33.5724 32.40814 35.16351 38.090744
0000b0 ad 3a 76 42 74 35 0c 42 be 97 e2 41 70 c2 01 42
       61.5573 35.0522 28.324093 32.43988
0000c0 e6 8d c5 41 21 c7 24 42 56 1f a2 41 bb 8d 3c 42
       24.694286 41.19446 20.2653 47.13841
0000d0 7d 08 cb 41 9a 44 a0 41 83 c2 58 42 92 18 04 42
       25.379145 20.033497 54.189953 33.023994
0000e0 16 38 20 42 27 4c 30 42 fe 91 9f 41 0f 2e b5 41
       40.05477 44.074368 19.946285 22.64749
0000f0 68 c7 06 42 18 d6 ba 41 5a a1 5a 42 ba fb f6 41
       33.694733 23.354538 54.65757 30.872913
000100 cc 69 dc 41 d8 ab 2c 42 76 dd 07 42 dd 97 50 42
       27.551659 43.167816 33.96627 52.148304
000110 d0 27 ca 41 d6 21 4c 42 1f c0 ca 41 ea 1b f4 41
       25.26944 51.033043 25.34381 30.51363
000120 98 48 f5 41 79 d1 cb 41 bf 80 b5 41 a8 76 b2 41
       30.660446 25.477282 22.687864 22.307938
000130 e5 53 eb 41 e3 fe 02 42 41 bd e4 41 ab e1 12 42
       29.415964 32.748913 28.59241 36.72038
000140 1c cf 57 42 c9 c3 b9 41 16 26 af 41 cc 91 77 42
       53.952255 23.220598 21.893597 61.89238
000150 f5 8d ca 41 55 7a f9 41 82 a9 5a 42 32 48 ad 41
       25.319315 31.184732 54.665535 21.660252
000160 05 64 60 42 86 76 15 42 d0 5b 01 42 c4 35 ac 41
       56.097675 37.365746 32.33966 21.526253
000170 e2 d6 bc 41 e2 0d d4 41 da 3e 1a 42 73 7f 4d 42
       23.604923 26.506779 38.56138 51.374462
000180 5f 2c 12 42 33 8b 99 42 4f 27 f9 41 3a 97 d8 41
       36.54333 76.77187 31.144194 27.073841

model.all_layers.3.weight f4 [50, 100]
000000 67 7d 4b be da b0 43 3e 02 c4 33 be 8f 18 b9 3c
       -0.19872056 0.19110432 -0.1755524 0.022594718
000010 10 fc 22 bd 19 fe 81 bd ee 71 15 3e 4d 29 22 3c
       -0.039791167 -0.063472934 0.14594242 0.009897542
000020 ab ac 25 bd 60 8f d5 bd c3 c3 61 3c a4 1e fa bd
       -0.040447872 -0.10427737 0.013779583 -0.122128755
000030 16 97 08 3e d4 b1 f6 3b 5d 63 f9 bd 00 7d 8a 3c
       0.13338885 0.007528523 -0.12177155 0.016905308
000040 1e f9 1e be 5e 86 b5 3c ad 7c 8f 3d 71 f9 4a 3d
       -0.15524718 0.022158798 0.07006202 0.049554292
000050 b6 dc 90 3d a0 6d f3 bd ec d2 40 be ea 9e 5b bd
       0.07073347 -0.11886144 -0.1883046 -0.05361835
000060 96 97 49 be 1d fc 0d bd 0b 9a 16 3e d6 5c 53 be
       -0.19686732 -0.034664262 0.147072 -0.20640883
000070 dd 36 e5 bd ff 71 a3 bc b9 0a 49 3e 09 01 88 be
       -0.11192105 -0.019951819 0.19632997 -0.2656329
000080 b5 57 80 3d f8 28 49 3d fa 86 52 bd 1d f0 7e 3d
       0.06266729 0.049111336 -0.051398255 0.06224071
000090 fc 58 f0 bd 75 79 0c 3e 7b eb b8 bd d3 bc 20 3e
       -0.117357224 0.13718207 -0.09029289 0.1569703
0000a0 e1 05 a9 bc 26 cd 06 3e 60 9c 50 3c aa 27 25 3b
       -0.020632686 0.13164195 0.012732595 0.0025200644
0000b0 c1 2f e0 3c 3a df 03 be 83 2d 6f bd 2d 2c 8b bd
       0.02736652 -0.12878123 -0.058393013 -0.06795535
0000c0 d9 a8 8c 3c 2a a6 e8 3d 33 66 03 be ed c0 ee bd
       0.017170357 0.11359818 -0.12831955 -0.116578914
0000d0 b2 92 0f be d8 ad 3b bd 7d 34 c7 3b 5c 4b 18 bd
       -0.14020804 -0.045820087 0.006079255 -0.037181243
0000e0 b7 bc ba bd 0c cc 37 bd f5 28 52 bc 05 3f 03 3c
       -0.09118026 -0.04487233 -0.012827148 0.0080106305
0000f0 af e5 41 3c c1 7d 01 be fc 00 d2 ba aa fe 5a be
       0.011834546 -0.12645628 -0.0016022022 -0.21386209
000100 e8 de 80 3e a8 95 c4 3d b5 5c 3f be 0a bc aa 3d
       0.25170064 0.09598857 -0.18687709 0.08336647
000110 b1 6a 6b 3e e9 bf 91 bc b2 a3 5e bc d4 0b c8 bd
       0.22989918 -0.017791705 -0.013588833 -0.09767881
000120 28 57 72 bd f5 a7 24 3e 52 1c 11 3d 2e a6 7d bc
       -0.05916515 0.16079696 0.0354274 -0.015481515
000130 55 d2 75 bb 61 4f 93 3d 7d 57 cf 3d 38 4b 24 3b
       -0.00375094 0.07192875 0.10124109 0.0025069248
000140 59 ca 13 3a 24 17 04 be db 77 18 3e ae 1e 91 bd
       0.0005637757 -0.12899452 0.14889471 -0.0708593
000150 f2 c6 56 bc 2d a2 06 be ca 12 9a 3c 26 f5 8f 3d
       -0.013108956 -0.13147803 0.018807787 0.0702918
000160 76 c4 a5 3c 58 89 88 bd f3 30 d8 3d 71 67 e6 bb
       0.020235281 -0.06666821 0.10556211 -0.007031374
000170 3a 82 38 bc e0 83 c5 3d d5 f6 dd 3d ea 5f 1c bd
       -0.011261517 0.09644294 0.10838095 -0.03817741
000180 50 73 f0 3d 23 26 f6 3d e1 fa bf 3d 4f 38 9a bd
       0.11740744 0.12018993 0.09374023 -0.07530271
000190 32 6e 3c bd 5b 8f 35 3d 35 d1 9d 3d b3 1c ca bd
       -0.046003528 0.044326168 0.07705919 -0.09868755
0001a0 5a 88 55 bd ae 80 e2 bd 65 52 64 be 51 8b d5 bb
       -0.052131988 -0.110597 -0.22297056 -0.006516852
0001b0 ea 6a b9 3d ed 7f 19 be 4b 16 9c 3d 96 c9 44 be
       0.09053595 -0.14990206 0.076214395 -0.19217524
0001c0 ab d2 87 3d 87 5d b2 bc 3c 9f 88 bd fe 4d 65 be
       0.066319786 -0.021773113 -0.066709965 -0.22393033
0001d0 3c b8 3c bd 05 e4 ba bd c6 db e6 3c 2c bf 91 bc
       -0.046074137 -0.091255225 0.028180968 -0.017791353
0001e0 c1 7a 0f be 00 2f 41 3d 18 cf b1 3d aa 99 00 be
       -0.1401167 0.047163963 0.08682078 -0.12558618
0001f0 ae 55 a1 3d 02 b7 17 bd 76 e4 5c be c2 0b 32 bd
       0.0787767 -0.037039764 -0.21571526 -0.043468244
000200 27 8e 38 3d 52 e3 bd 3a a9 62 cc bc 0c 0c 3d 3d
       0.045057442 0.0014487302 -0.024949389 0.046154067
000210 2d e5 9a 3c 16 b3 ad 3d f5 a6 e8 3d c9 01 8a 3c
       0.018908108 0.084814236 0.113599695 0.016846554
000220 24 72 26 be 0e b3 e8 bd 07 52 a4 3a 5e c3 17 3d
       -0.16254479 -0.11362277 0.0012536653 0.03705155
000230 d7 5e 14 3a 34 2f 51 3c ea 6c fb 3c d0 1b bd 3d
       0.0005659884 0.012767602 0.030691583 0.092338204
000240 c3 8a bd 3d 7e d1 29 be 99 ea e2 3d cf ec 98 bd
       0.09254982 -0.16583821 0.11079902 -0.07467043
000250 05 f5 97 bd 5e 23 76 3d 0d 9b 8a bd 69 00 e0 3d
       -0.07419781 0.060092323 -0.06767855 0.10937578
000260 de b0 1a 3d 5a 7f ff 37 c2 df c1 3b 16 13 61 3c
       0.03776633 3.0457672e-05 0.0059165666 0.013737461
000270 d2 21 d0 bc 6a ae cd 3d 85 18 cf 3d 7c 36 96 3d
       -0.025406752 0.100430325 0.101120986 0.07334611
000280 ba 58 81 3d 3a 0b 4f be 82 b3 8e bd 15 3d 30 bd
       0.063157514 -0.20219126 -0.06967832 -0.043027002
000290 8b c6 7a 3d fc a7 85 bd 2c 29 9f bd 94 80 bd 3d
       0.0612245 -0.06526181 -0.07771525 0.0925304
0002a0 b0 4b 1d 3b 71 8b 0f 3c d3 65 b8 3d 5a 7e f4 3c
       0.0024001412 0.008761273 0.090037964 0.029845405
0002b0 47 c8 ba 3d 95 5d b5 bc 48 8d 83 bd 83 b3 f7 3d
       0.09120231 -0.02213935 -0.06423432 0.12094786
0002c0 f1 97 16 3e db 8f 8e bb cf cf 65 bc 7d d6 e8 bc
       0.14706399 -0.004350645 -0.014026596 -0.028422588
0002d0 60 4b 95 3c 5e 2f 20 3d 40 99 a9 bd 0e 90 20 bd
       0.018224418 0.039107673 -0.08281183 -0.03919988
0002e0 40 3c a0 3d d2 67 17 bd 7c 4c 84 3d 7c 95 96 3d
       0.07823992 -0.036964245 0.06459901 0.07352731
0002f0 9d e5 2c 3e 03 19 79 bc 97 d0 00 3d 32 90 94 3d
       0.16884466 -0.015203717 0.031448927 0.072540656
000300 b2 dc e5 bd 7e 6b ee 3c 11 19 d5 3d 8a 21 b2 bc
       -0.11223735 0.02910399 0.10405172 -0.021744508
000310 86 b3 5c bd a1 07 f3 3c b1 82 9f bd fc fb a9 3d
       -0.053882144 0.029666724 -0.07788599 0.08300015
000320 79 c9 cc bd 9c 40 6e bd 21 53 09 3e 12 45 31 bd
       -0.09999365 -0.058167085 0.13410617 -0.04327876
000330 cd b5 1d 3b b0 8a 02 3e 08 32 25 bd 44 5d 02 be
       0.002406466 0.12748218 -0.040330917 -0.1273089
000340 87 34 55 bd f7 7e 1d bd d0 ab 48 be 30 a5 99 bc
       -0.052052047 -0.03845116 -0.19596791 -0.018755525
000350 88 4b 7e 3d c5 c6 03 bd 25 11 17 bb aa f0 8c bd
       0.06208375 -0.032171983 -0.002305099 -0.068818405
000360 d6 8f ce 3b 6e 4e 36 3e ef 9c 74 be 06 f6 82 3d
       0.0063037677 0.17803356 -0.2388799 0.063945815
000370 51 af 8e 3c c0 cf 8f bd d2 97 3d bd f7 86 fa 3d
       0.017417582 -0.07022047 -0.046287365 0.12232774
000380 ec 4c 7a bd f3 58 82 bc a3 f9 28 be 69 66 fd bd
       -0.061108515 -0.015911555 -0.16501479 -0.12373049
000390 b9 b7 32 3c ad f4 a4 bd 78 fd 9f bd 1b f0 ae 3d
       0.010908061 -0.08054481 -0.07812017 0.0854189
0003a0 de 8a d9 bc 23 fb 07 bd 67 1a 37 be 07 88 64 bd
       -0.026555475 -0.033198487 -0.17881165 -0.05579379
0003b0 a0 e5 02 3e d9 73 bd bd b4 4d 8a 3d 49 7b 9b 3d
       0.12782907 -0.09250612 0.06753102 0.07591874
0003c0 8b 81 10 3d 6a d6 88 bd fa 8b e7 bd aa 87 bd bd
       0.03527979 -0.06681521 -0.11305995 -0.092543915
0003d0 05 8b 38 3d 5b 6f cb ba d9 37 48 be 61 25 7b 3d
       0.045054454 -0.0015520857 -0.19552554 0.061314944
0003e0 9b b5 ff bc 16 ec 4b bd b4 58 63 3c fd 46 0f 3e
       -0.031214526 -0.049785696 0.013876129 0.13991924
0003f0 7b 8b bb bb a2 ef ef 3c d0 48 1b be 6c f6 8b 3d
       -0.0057234145 0.02928907 -0.15164495 0.068341106

model.all_layers.3.bias f4 [50]
000000 b0 10 b1 bd 54 69 60 ba 49 34 8d 3c e9 b0 f9 3c
       -0.08645761 -0.0008560617 0.017236846 0.030479865
000010 8b 44 ba 3b 5f ee 33 bd 4b 6d 8d 3c 02 1a 7f 3d
       0.0056844405 -0.0439285 0.017264029 0.062280662
000020 7a 53 40 bd 2c 42 77 bd ed 30 b8 bd 06 c7 24 3d
       -0.04695461 -0.06036584 -0.08993707 0.040228866
000030 29 9b 58 bc 05 7c 91 3d e2 bd a6 bc 3c 77 b6 3b
       -0.013220587 0.07103733 -0.020354215 0.005568413
000040 bb a5 b1 bd de cb 18 3d 18 61 3f bb 3f d2 b6 3d
       -0.08674189 0.037303798 -0.002920216 0.0892682
000050 c4 5c 3b 3d 56 10 84 3c 3a bc 01 3d c7 70 4e 3d
       0.045742765 0.01612107 0.031673647 0.05040052
000060 c3 8d 0d bc b9 43 45 3c fd 2f 51 3b 93 49 73 bd
       -0.008639756 0.012040072 0.0031919472 -0.059396338
000070 7d 96 73 bd 58 6b b2 3c 11 c9 a3 3d b1 50 84 3d
       -0.05946969 0.021779701 0.07997335 0.06460703
000080 2a ad 66 3d b6 48 11 3d 2d d6 64 3d 97 18 06 bd
       0.056317486 0.035469733 0.055868316 -0.032738294
000090 26 4b 02 bd 25 f4 89 3c ec 8d 90 bc 20 ba bf bd
       -0.03180995 0.01684005 -0.017645799 -0.093616724
0000a0 5e da 4b 3d 41 08 34 3d c3 03 bc bd 37 69 9f 3d
       0.049768798 0.043953184 -0.09180405 0.0778374
0000b0 0b 4c 82 ba 76 a8 a2 bd 83 de 5a bd c3 04 4b 3c
       -0.0009940875 -0.079422876 -0.05343486 0.012391272
0000c0 b6 77 92 bd 71 7e 87 3d
       -0.07151739 0.06615914

model.all_layers.4.weight f4 [50]
000000 51 72 6f 3f de 73 60 3f fd 58 6a 3f 8b c5 5d 3f
       0.9353381 0.876768 0.91542035 0.8662955
000010 7a f2 5e 3f cb 99 89 3f 75 1b 6c 3f 14 c6 7c 3f
       0.8708874 1.0750059 0.92229396 0.98739743
000020 ab d2 74 3f c3 9e 6f 3f f4 0a 90 3f 10 12 5d 3f
       0.95633954 0.93601626 1.1253343 0.86355686
000030 dc 21 69 3f d9 91 77 3f 6a ce 6d 3f 56 57 83 3f
       0.9106729 0.9670692 0.9289309 1.0261028
000040 36 4a 78 3f dd 8e 6f 3f 51 b8 76 3f 6d 33 84 3f
       0.96988237 0.9357737 0.96374995 1.0328194
000050 22 5f 8d 3f 36 2e 91 3f 1a db 5e 3f b3 5a 5d 3f
       1.1044657 1.1342227 0.8705307 0.8646652
000060 56 20 6e 3f a0 b3 80 3f 3a 9e 5e 3f ed 5c 66 3f
       0.9301809 1.0054817 0.86960185 0.89985543
000070 55 c2 69 3f ee 45 5c 3f 25 dd 66 3f 4a 50 5f 3f
       0.9131215 0.86044204 0.9018119 0.87231886
000080 23 ab 60 3f 74 50 6d 3f b0 0a 6d 3f 48 c1 6a 3f
       0.87761134 0.92700887 0.9259443 0.91701174
000090 04 fb 6c 3f 39 44 74 3f d5 de 5b 3f 5a 5e 6a 3f
       0.9257052 0.954166 0.8588689 0.9155022
0000a0 38 b5 59 3f 17 e9 83 3f c9 86 88 3f c5 a1 5b 3f
       0.8504214 1.0305508 1.0666133 0.85793716
0000b0 85 78 6d 3f ab 41 82 3f a3 fb 68 3f da 32 6c 3f
       0.92762023 1.017629 0.9100897 0.92265093
0000c0 ed 70 76 3f cb 3a 82 3f
       0.9626606 1.0174192

model.all_layers.4.bias f4 [50]
000000 32 c7 19 be c4 73 08 be e9 1b 46 be 44 74 0d be
       -0.15017393 -0.13325411 -0.19346584 -0.13813883
000010 26 95 d8 bd d8 6f 7d bb 96 83 47 be b0 0e db bd
       -0.10575323 -0.00386714 -0.1948379 -0.10696161
000020 f4 04 d7 bd c9 e3 e6 bd 52 ae b8 be a5 a1 49 be
       -0.104989916 -0.11273915 -0.36070496 -0.19690569
000030 75 87 a7 3d 85 d7 1e be 9a 89 02 be b7 4a 4d be
       0.08180133 -0.15511902 -0.12747803 -0.20048033
000040 67 ce 5e be ab 86 e0 bd 3c 36 1f be 70 5b a9 be
       -0.21758424 -0.10963186 -0.15548033 -0.33077574
000050 f1 03 80 be 21 fd f7 bc b8 73 2d be 23 43 83 be
       -0.25003007 -0.030272068 -0.16938674 -0.2563716
000060 c5 10 5b be 7d b4 70 be 07 7a 72 be d3 40 bb be
       -0.21393116 -0.23506351 -0.23679362 -0.36572894
000070 f0 d8 8b be d1 6d 1b be 72 c0 90 be c4 8a 1e be
       -0.27313948 -0.1517861 -0.28271824 -0.15482622
000080 75 4e 66 be 6b ac ad bd cf e8 3c be 4e c5 b6 be
       -0.22490866 -0.08480152 -0.18448184 -0.35697407
000090 0a 4b 5f be c1 ad c9 be 80 1a 13 be 54 04 74 be
       -0.21805969 -0.39390376 -0.14365578 -0.23829776
0000a0 17 bc 37 be 7a 36 82 be 74 7e f3 bd 61 17 28 be
       -0.17942844 -0.25432187 -0.118893534 -0.16415168
0000b0 9a f8 72 be 34 39 ab bd a1 f8 d3 bd 42 46 80 be
       -0.23727646 -0.0836052 -0.103501566 -0.25053602
0000c0 8c b2 83 be 74 9f fc bd
       -0.25722158 -0.12335101

model.all_layers.4.running_mean f4 [50]
000000 b5 cd ab be 1f 16 13 be db 37 6b bf 92 3f 45 3e
       -0.3355538 -0.14363907 -0.91882104 0.19262531
000010 7a 32 58 bd 0e c0 8d 3e 4f 48 7d 3b 46 4b 5f 3f
       -0.052782513 0.2768559 0.0038647836 0.87224233
000020 c3 60 40 bf b3 7f ba be ee 13 19 bf 14 b1 74 3d
       -0.75147647 -0.36425552 -0.59796035 0.059739187
000030 7d bf ed 3e 02 11 08 bf cc cd 2e bf e7 9a fd 3e
       0.46435156 -0.5315095 -0.6828277 0.49532244
000040 66 cf 21 bf 4e 33 8e be ae a7 c3 3e b9 f7 e3 3e
       -0.6320709 -0.27773517 0.38213867 0.44524935
000050 2e 0e 81 bd 7c 8b 6a bf 87 2c 93 be 20 83 22 3f
       -0.06301533 -0.91619086 -0.2874491 0.6348133
000060 7c 81 1a 3e f3 12 71 be c6 dd 40 bd ef 76 51 bf
       0.15088457 -0.23542385 -0.0470865 -0.81822103
000070 f1 30 60 bf cf 5c d3 3e d3 4c 0c bf 0f 45 27 be
       -0.8757468 0.41281745 -0.54804724 -0.16334938
000080 21 95 72 be e4 c1 f6 be 2b d5 93 be 36 b9 03 bf
       -0.236897 -0.48194802 -0.28873572 -0.51454484
000090 b7 d0 8d be 50 0d a0 bf 48 e0 1b be a6 1a 4f bf
       -0.276983 -1.2504063 -0.15222275 -0.8090004
0000a0 7f 39 36 be 49 b9 21 be d1 fe c7 be 7c d2 ce be
       -0.1779537 -0.15793337 -0.39061597 -0.40394962
0000b0 45 b6 9e be 60 8f 40 bf 9e 5a 77 3c ec 1c 11 bd
       -0.30998436 -0.7521877 0.015097288 -0.035427973
0000c0 81 1a cb be 7a 7d 9a 3e
       -0.39668658 0.30173856

model.all_layers.4.running_var f4 [50]
000000 eb df 77 3f 4b ff 02 3f 0f 83 0d 3f 37 90 0e 3f
       0.96826047 0.51170796 0.55278105 0.55688804
000010 e0 8e 9d 3e cd 50 e3 3f c8 a7 66 3f d3 0e b2 3f
       0.30773067 1.7759033 0.90099764 1.3910774
000020 ed 53 8e 3f 07 f0 a0 3f 5d c0 cd 3f 0e 3f e0 3e
       1.1119362 1.257325 1.607433 0.43798107
000030 65 53 83 3f 72 7d 93 3f ed bf 84 3f 21 61 d2 3f
       1.0259825 1.1522658 1.0371071 1.6435891
000040 f4 e4 ab 3f 29 b6 47 3f 2d af 81 3f 48 11 ae 3f
       1.3429246 0.7801233 1.0131584 1.3599024
000050 e8 ef cc 3f ce dc 5e 40 b4 d2 0d 3f 30 6f ef 3e
       1.6010714 3.4822268 0.5539963 0.46764517
000060 c9 4c 35 3f 9a a4 d9 3f b5 44 fa 3e 4e d5 4a 3f
       0.7082029 1.7003357 0.48880544 0.7923173
000070 8d 51 26 3f 6c 73 ea 3e de a9 56 3f f3 e1 e4 3e
       0.64968187 0.45791185 0.83852947 0.44703636
000080 b0 03 24 3f e9 cc 8e 3f 59 18 40 3f bc 1d 99 3f
       0.64068127 1.1156284 0.7503715 1.1962199
000090 65 ed c6 3e a0 8c 9e 3f 25 08 01 3e b3 f2 38 3f
       0.38852993 1.2386665 0.12600763 0.7224533
0000a0 65 1e 55 3e 4e 77 9c 3f 9c da f0 3f e5 ee f1 3e
       0.20812376 1.2223909 1.8816714 0.47252575
0000b0 73 1a 54 3f 90 a5 f7 3f c1 39 69 3f 92 7d 20 3f
       0.8285286 1.9347401 0.9110375 0.62691605
0000c0 7b 59 0f 3f 07 45 6b 3f
       0.5599591 0.919022

model.all_layers.6.weight f4 [2, 50]
000000 d3 2a 74 3e df 62 48 3d 67 22 40 be e7 dd f8 bd
       0.23844461 0.048922416 -0.18763123 -0.121516995
000010 76 9c 1e 3e 1e cc b3 be 18 00 93 be 00 cf b9 3e
       0.15489373 -0.35116667 -0.2871101 0.3629074
000020 b2 50 99 be 49 5a 7e be 88 8e f5 be f9 4f a2 3d
       -0.29944378 -0.24839129 -0.47960305 0.0792541
000030 e2 b5 65 3e b4 80 ca 3e 96 da 94 3e 9a e3 c1 3e
       0.22432664 0.39551318 0.29073018 0.3786896
000040 69 cf 97 be 14 3b 8a 3e 1d 7d 8b be 01 bf e9 3e
       -0.2965043 0.26998198 -0.2724389 0.45653537
000050 63 3c f0 be f0 e2 e9 3e c1 59 25 be 56 82 0f 3e
       -0.4692107 0.45680952 -0.1614752 0.14014563
000060 9e 1d 65 be be 8a ad 3e e5 f6 4c be 40 34 9a be
       -0.2237458 0.33894914 -0.20016058 -0.3011799
000070 a5 c7 af be 5e ab 57 bd 5f 6c ed bd 4a 14 98 3d
       -0.34332004 -0.052653663 -0.11592936 0.07425745
000080 14 68 4d be 35 f4 53 3e af 78 85 3e 1d a0 90 be
       -0.20059234 0.20698626 0.26068637 -0.28247157
000090 f9 e2 38 3e 74 2d 85 be 07 63 bf 3d 79 29 ae be
       0.18055333 -0.2601124 0.0934506 -0.34016016
0000a0 22 1f dd bd e9 10 e6 be 30 37 d3 be 68 76 2b be
       -0.10796954 -0.44934776 -0.41253042 -0.16744387
0000b0 2b e1 2b 3e c7 e0 b4 3e f3 19 6b be 6a 46 9a be
       0.16785114 0.35327742 -0.22959118 -0.30131847
0000c0 6d 47 97 3e d3 f7 96 3e 98 40 7a be 8c cb 8e be
       0.2954668 0.2948595 -0.24438703 -0.2788967
0000d0 eb 0d 84 3e 57 f8 0f 3e eb 39 67 bd f7 07 fa 3e
       0.2579187 0.14059578 -0.05645172 0.48834202
0000e0 09 c6 71 3e 53 b8 95 be 56 30 82 3e 02 f0 82 3e
       0.236107 -0.2924219 0.25427502 0.25573736
0000f0 73 1e 0b 3f e1 b0 3a be 36 ce 9a be 63 4e 18 be
       0.54343337 -0.18231536 -0.3023545 -0.14873652
000100 a5 b7 31 be c2 61 af be ab 74 9a 3e 9d 6f 41 be
       -0.17355211 -0.3425427 0.30167136 -0.18890233
000110 e2 32 b0 3e f9 eb ba be 41 83 ee 3e 40 12 f0 be
       0.3441382 -0.36508158 0.46584514 -0.46888924
000120 34 0b e4 3d b2 b2 77 be 6b 65 87 3e 42 2a d7 be
       0.11134949 -0.2418926 0.26444563 -0.42024428
000130 93 aa 1f 3e 3d 96 33 3e 0d 91 05 3e 37 3e 38 3e
       0.15592413 0.1753778 0.13043614 0.17992483
000140 15 6e a4 3e 8c 10 5c be 01 f5 41 3e 8b 39 61 be
       0.32115236 -0.21490687 0.18941118 -0.21994607
000150 83 5a 57 be 0c 2a 97 3e d6 41 a8 be c5 f8 c1 3e
       -0.21030621 0.29524267 -0.3286273 0.3788511
000160 cc c7 60 3b 4a 35 01 3e 86 5d 67 3d 7c af 9f 3e
       0.0034298776 0.12617984 0.056485675 0.3118857
000170 08 d8 ce 3e 26 e0 e3 3c 46 90 b1 be ae 03 ae be
       0.40399194 0.027816843 -0.34680384 -0.33987182
000180 93 13 6d 3e 4b 3a 49 3e 7a 8b a7 be cf bd cf be
       0.23151998 0.19651143 -0.327236 -0.405745

model.all_layers.6.bias f4 [2]
000000 e2 34 38 3e b8 24 b7 be
       0.17988923 -0.35770202
