unit06-dl-tips/6.8-debugging/lightning_logs/version_7/checkpoints/epoch=9-step=10.ckpt (torch, 66387 bytes, 6 tensors)

model.all_layers.0.weight f4 [100, 100]
00000000: 8d09 10bd 6140 8e39 43ad 75bd 0ec1 253d
00000010: d649 b4bd 607e 973d 9516 8bbd 398d 95bd
00000020: 6ea5 94bd 3912 3b3d a2bd 23bd 5808 1e3d
00000030: 234c a0bd 5d05 6bbd fb5d 1abd 2cce 6bbc
00000040: 1e1d 8bbd 73af 903d 4fba bbbc 8098 2c3d
00000050: b574 893d c62f 933c a035 e83c d8bf c03d
00000060: 21dc 48bd a85a e13c aa40 3ebd 8867 8d3d
00000070: 2883 a13d 98c6 c1bd afbd ad3d 3239 5e3d
00000080: 36ce 2b3d fc7a 243d 3d29 a63d e092 6bbb
00000090: 067b b9bd 2fe6 06bd 112b 91bd 9a7e c33b
000000a0: f8b8 45bc 7a2a 48bd 15bb b7bb 0b67 db3d
000000b0: de1d 11bc a65e c83b a11c 8dbc eade 8c3c
000000c0: aa75 c53d ab4a 833d 2a8e ff3c 7518 d93c
000000d0: 8844 bc3c e126 243d 720e 8abc d824 b7bd
000000e0: 8eaa 75bd 8992 b13d a91e 4a3c a051 9bbd
000000f0: 38ea 413c db6c aa3d 0599 c2bd 2b04 8abd
00000100: 8a91 24bd 2be9 0f3c 8807 b4bc 2836 93bb
00000110: 54b2 cdbd ab2a 3d3d a523 b63d b38c 8a3d
00000120: 3bfc 99bd b90b aabd 747c 3c3d d6a1 c43b
00000130: 2e68 173d 1198 c9bd 5925 27bc e08b 8f3d
00000140: 31e2 413d 842b 483b 7028 ad3c 5384 5bbc
00000150: 9856 71bd 33a7 1cbd 0c45 64bd 9028 ac3d
00000160: 6045 513d bf7d fd3c 9a77 92bd 144d ab3d
00000170: 66e7 0e3d 8a73 873d 4f3e 10bd 5902 a63c
00000180: 8c85 c23d 22b7 7b3d 1fd9 a13d 3b2a 9abc
00000190: 4c2f 983d 7776 9bbd c43c 5a3c 707b 69bd
000001a0: b83b b3bc fa4b d1bc 1b25 9f3b 006a b13d
000001b0: eb6c 603d 5e20 3238 25fe 933d 2413 57bd
000001c0: b99e 433d ec3d 33bc acd4 88bc 48c6 143c
000001d0: c5f9 a2bd 1046 103c e6f8 093d c11f a83d
000001e0: ab83 e9bc 2503 143d 26eb cb3d 8a40 2bbd
000001f0: 051d c73d 21bd 40bd c516 383d 31f5 273d
00000200: 296c e83c 78b4 a53d 928d 23bd 1518 bf3c
00000210: bbea b83a 4302 98bd f081 c1bc 72a4 8ebd
00000220: e19b 3d3d 1034 353c de8b 263c bfc3 fabc
00000230: e71a 58bb f327 0abd d58b db3c 777b be3d
00000240: b8cd 813c de46 3ebd 8688 75bd 68d6 c23b
00000250: a27f a1bd cf94 9bbd fc61 82bd 0ddf 15bd
00000260: 1222 043c 4799 893d 723d 263d b527 983d
00000270: 8f12 83bd 7432 f53b 0222 bfbd c7b4 5f3d
00000280: 2175 bc3c 6f64 c53d 7e65 90bd 7c4a a33d
00000290: 5c97 ad3d 3f35 a03d da20 5a3c fd47 b23d
000002a0: 9c97 8a3d 783c 983d 543f febb f944 a2bd
000002b0: e565 df3a 10a0 a83c fb8a 8ebd 2d0f 72bd
000002c0: cb37 bfbd 32fd 0dbd 71a2 b63d 9c15 8f3c
000002d0: 5429 d1bb c550 993b 42b6 7d3d fa0e b1bd
000002e0: eb96 99bd 6aab 06bd fefe 76bd d9b3 513d
000002f0: ed23 953d a591 c1bd 0971 b3bd a36b d0bd
00000300: 0307 153d 05c7 a93d a440 a1bd f268 3abd
00000310: 7a2c 083d 8d2d 82bd 345c ae3d 984a ba3c
00000320: 4442 9cbc 6666 233c 713f bc3c 5378 f8bc
00000330: d9f4 a1bd dec6 1e3c 30ad 13bb 019e f8bb
00000340: 1bf6 aabc 88ed 943d 9f01 02bd fd0d 3ebc
00000350: 0d8d 223d 0bbd 80bd 975c c53c 76d2 b0bc
00000360: 60a3 7c3d d272 48bd 0d51 503c 901d d23c
00000370: 7865 95bd 4b3a 94bd 19be 393d 7018 fdbc
00000380: 821b 773d 8103 cdbd f0f5 58bd e926 a7bd
00000390: 9f9f 203d 21e9 0cbb 8023 99bc 11b6 bdbb
000003a0: da0d a4bd 5f6c 053d 5711 2fba 3810 51bd
000003b0: c688 ec3c 6fb6 0abb 5081 c1bd a4ed 603d
000003c0: e137 553d 11ba bbbc 4c64 8cbd f687 c13c
000003d0: 990a 953d ffee b43d 2f3d 96bd 87e3 4fbd
000003e0: 7b26 8f3d e9b5 663d 6d73 5d3d 0790 5cbd
000003f0: 4780 bc3d 7c8d bbbd 8857 02bc 6440 c83a
-0.03516536 0.00027132317 -0.05997969 0.040467314 -0.088031456 0.07397151 -0.067914166 -0.07302327
-0.07258116 0.045671675 -0.03997577 0.038582176 -0.07827022 -0.05737816 -0.037687283 -0.014392417
-0.06792663 0.07064714 -0.022915987 0.042137623 0.06711713 0.017967116 0.028345883 0.09411591
-0.049038056 0.027509049 -0.046448387 0.06904513 0.07886344 -0.09461707 0.08483445 0.054253764
0.041944705 0.04015635 0.08113334 -0.0035945699 -0.09056668 -0.032934364 -0.070882924 0.00596602
-0.012068026 -0.048868634 -0.0056070187 0.10713013 -0.008857219 0.0061147986 -0.017225565 0.017196137
0.09641583 0.06410726 0.031195719 0.02650092 0.022981897 0.04007614 -0.016852591 -0.08942574
-0.059977107 0.086705275 0.0123364115 -0.07583928 0.011835627 0.08321544 -0.095018424 -0.06739076
-0.04017786 0.008783619 -0.021976247 -0.00449254 -0.10043779 0.04618327 0.088935174 0.067651175
-0.07518812 -0.08303017 0.046017125 0.0060007377 0.036964588 -0.098434575 -0.0102017755 0.07009101
0.047334854 0.0030543515 0.021137446 -0.013398248 -0.058920473 -0.03824539 -0.05572991 0.08406174
0.05109155 0.03094375 -0.071517184 0.08364311 0.034888647 0.06613834 -0.035215672 0.020264791
0.09498128 0.061453946 0.07902741 -0.018818965 0.07430896 -0.07590955 0.013320152 -0.057002485
-0.021879062 -0.025548924 0.0048567182 0.08662796 0.054791372 4.246865e-05 0.072262086 -0.05250849
0.04775879 -0.010940056 -0.016702972 0.009080477 -0.07957796 0.008805767 0.033684634 0.082091816
-0.028505167 0.03613581 0.099569604 -0.041809596 0.09722332 -0.047055367 0.04494359 0.041005317
0.028371887 0.08091062 -0.039929934 0.023326913 0.0014108041 -0.074223064 -0.02362153 -0.06964959
0.046291236 0.011059776 0.010165183 -0.030610917 -0.003297502 -0.033729505 0.026800076 0.09300893
0.015845165 -0.046454303 -0.059944652 0.0059459694 -0.07885672 -0.07596742 -0.06366345 -0.03658967
0.008064764 0.067186885 0.040585943 0.074294485 -0.06400024 0.007482821 -0.09332658 0.054615762
0.02300507 0.09638297 -0.07050608 0.07973191 0.08476135 0.07822656 0.0133134965 0.08705137
0.067671984 0.074334085 -0.007759014 -0.07923312 0.0017043917 0.020584136 -0.06960102 -0.059096504
-0.093368135 -0.034665294 0.08917702 0.017466359 -0.0063831005 0.004678818 0.061941393 -0.08645435
-0.074994884 -0.032878317 -0.060301773 0.051196907 0.07282243 -0.094516076 -0.08761794 -0.1017678
0.03638364 0.08289913 -0.07873657 -0.04551024 0.03324554 -0.06356344 0.0851368 0.022740647
-0.019074567 0.009973144 0.02297947 -0.030330813 -0.07908029 0.009690968 -0.0022533648 -0.007587195
-0.020869305 0.07271868 -0.031739827 -0.011600015 0.039685298 -0.06286057 0.024092002 -0.02158473
0.061679244 -0.048937626 0.0127146365 0.025648862 -0.07294744 -0.07237681 0.045347307 -0.030895442
0.060328968 -0.10010434 -0.05296892 -0.081617184 0.039214727 -0.002150126 -0.018693686 -0.0057895263
-0.080104545 0.032574054 -0.0006678304 -0.051040858 0.028873812 -0.0021165868 -0.094484925 0.05491413
0.052055243 -0.022915872 -0.068550676 0.023624402 0.07277412 0.088346474 -0.073358886 -0.050754096
0.069897614 0.056325827 0.054065157 -0.053848293 0.092041545 -0.091578454 -0.007955439 0.0015277979

model.all_layers.0.bias f4 [100]
00000000: a82a 793c dd38 8c3d 4cd1 f43c 3a84 14bd
00000010: e771 49bc e9fb 6d3d dab6 0a3d 143d 9d3b
00000020: 534b 4bbd ce40 a03d 2828 b0bd 6fff b8bd
00000030: 12c0 aa3c a2b2 863d ccb6 bfbd 78d1 113d
00000040: 9a4a 4cbd 67c8 8d3d c785 d7bc 5e59 bf3d
00000050: 995a 2abd e65d b0bb cec0 853d 1535 e8bc
00000060: 1d54 ae3b daaa 9c3d 711c 12bd 0a8f a0bd
00000070: 338f 203c 04f8 b5bd 5bed 903d cca2 283c
00000080: 7c38 dabc 4ccd 73bc da82 ab3d 2a12 f6bc
00000090: 4b45 2fba 8723 643c 3d34 163c 5fb2 56bd
000000a0: 5ea6 c0bb fd11 27bd ae6e 06bc a770 90bd
000000b0: b779 173d caf3 2abd 65cc 633c e9a9 c73d
000000c0: aede e33c 0c0d 7dbd ef9b 9ebd 9905 80bd
000000d0: c9c5 8c3d ef2c a03d c3c1 093d 87f2 9fbd
000000e0: a6b2 dd3c a3ae 0b3d 8216 9cbc 5bb8 ed3c
000000f0: 071f b33d cdd9 bfbc b3ca 813d 6a63 c43c
00000100: 641c b6bd 51ed febb cab6 d6bc fee0 14bc
00000110: 39f2 98bb 07a1 98bd 7102 483d 089a 87bd
00000120: 5647 48bd 9c25 c53d 93b1 ae3c cd03 0cbc
00000130: d5b6 4c3d 4262 c63d 4f88 4dbd e58e bdbd
00000140: 4306 5abc 20fd 80bd b57b c1bd 040f 09bd
00000150: 5a36 bebc d32f 2aba 417d 363d 5af0 893d
00000160: d99b bbbc 5b93 f6bc e1c6 7abd f9bf 923d
00000170: c3d0 153d aae4 63bc 0613 743d 6d70 a73d
00000180: 452d 07bd d327 963d b659 14bd 21fe 9ebc
0.015207924 0.06846783 0.029884957 -0.036258914 -0.012295223 0.05810157 0.033865787 0.004798541
-0.04963238 0.078248605 -0.08601409 -0.09033095 0.02084354 0.0657704 -0.093610376 0.035600156
-0.049875833 0.06922989 -0.026308907 0.09343217 -0.041590307 -0.0053822873 0.06530915 -0.028345624
0.0053200857 0.07649775 -0.035671655 -0.078397825 0.009799766 -0.08885196 0.07076522 0.01029272
-0.026638262 -0.01488049 0.08374567 -0.030037958 -0.00066860457 0.013924486 0.009167728 -0.0524162
-0.0058792075 -0.04078864 -0.008205099 -0.07052737 0.03698131 -0.0417364 0.013903712 0.09749205
0.027816143 -0.06178002 -0.07744586 -0.06251068 0.06873662 0.078210704 0.03363205 -0.0780993
0.027062725 0.034102093 -0.019053701 0.029018572 0.08746152 -0.023419285 0.0633749 0.023973186
-0.08892134 -0.007779755 -0.026210207 -0.009086845 -0.004667547 -0.074525885 0.048830453 -0.06621176
-0.048896156 0.09626314 0.021324908 -0.008545828 0.04997905 0.0968671 -0.050178822 -0.092557706
-0.013307157 -0.0629828 -0.09447423 -0.033461586 -0.023219276 -0.0006492112 0.044553045 0.067352965
-0.022901462 -0.030099561 -0.061224822 0.07165522 0.036576044 -0.013909498 0.059588455 0.081757404
-0.033002157 0.073318146 -0.036218368 -0.019408287

model.all_layers.1.weight f4 [50, 100]
00000000: f01a 80bd 25a3 893d 6ccf d3bd b031 733d
00000010: 15ad a8bd b21d 243d 2c5f fc3c 9338 ddbc
00000020: c80d 3e3d fdbc 9dbd ad01 e0bb c383 5fbc
00000030: 215d b43d b59a febc 556d eebd 06bb 103c
00000040: 1e9f 9fbd d391 443d 337a 563d fc11 483c
00000050: eebf c23d 98a2 24bd 8ad0 8fbd cf3a 82bc
00000060: ea98 a9bd 8c8b f13c 758d f73c 7ce7 5cbd
00000070: fdd7 64bd 8e7a 273d 6c2a b53d 940e 90bd
00000080: 4c4b 52bc f8e4 12bc c155 d1bc a2f0 c53d
00000090: 4393 54bd 1fae c23d d2e0 26bd 3ac4 bd3d
000000a0: e5e4 5e3c ef81 b23d cfb2 c6bd bfae 3cbd
000000b0: 0f58 a7bc 85db b2bc e67a 1a3c 1dc0 a1bc
000000c0: c77a 8f3d 0eaa b53d 3cee b5bd 255d 4dbd
000000d0: 2aed bbbd c848 b0bc ea7b 0b3c f9a8 bbbd
000000e0: 36b1 c4bd 4021 f33c 80ce 80b9 0441 803c
000000f0: 76c9 203c a3da b8bd 4c0d c0bd a845 a8bd
00000100: 6ee2 8c3d 6907 5f3c 811e 73bd e039 653d
00000110: 79dd b13d 822f 3ebd 6be5 dbbc 1ab8 80bd
00000120: 765a b7bd 93bb 663d e436 593d 1070 03bd
00000130: 421d ab3d 074b a13d 47bc 373b 4e5b a6bd
00000140: 5b58 5abd f71e abbd d3e5 b73d e926 d4bc
00000150: 1e27 08bd 9f72 81bd 1940 903c dd5c d13d
00000160: d2a3 e2bc 74d6 d6bc e22a cb3a 9a92 813d
00000170: 4769 97bc 62dc 5b3d d210 703c 0c1a f53c
00000180: 97e5 823d 3e84 c03d 32b3 ca3d c8cf 023c
00000190: b32c f4bc 713c d03c af3a 1f3d dcc9 adbd
000001a0: ff6b 52bd 780c 65bd 2777 14bd 1ac3 793d
000001b0: 9188 c03d ada5 c4bd dead a53d d08e b5bd
000001c0: 7a01 c73c 7a5e a93b 58fc 9cbd 89c0 c1bd
000001d0: a467 95bc bf99 fcbc b467 8f3d 589e e9bc
000001e0: 3114 79bd 7f7b e03c c8de a23d 505a bdbd
000001f0: 9ebd 633d 1d76 5e3c 2c08 cdbd b44e 2cbd
00000200: ff7c debb a8fa 51bd 9388 903c bc93 b33c
00000210: b5ae ba3d f7d3 8e3d da94 c83d ddec 3bbc
00000220: 72b0 68bc 369d c2bc 4ec7 06bd 3a26 f93a
00000230: f6a4 0d3c d366 1abd a402 ab3c 4ee8 c53c
00000240: 49bd 1a3d a6e6 88bd fed9 c03d 3602 8e3b
00000250: 48da 42bd b64d 823d bd74 52bd f830 3b3d
00000260: 33c0 323d efa9 7f3b f833 873c eaa1 953d
00000270: 75d3 f6bc 9829 503c f8f6 8a3d 9d97 8a3d
00000280: c1b1 2bbc 54eb 85bd 6f6b c7bc 745e 543c
00000290: 3872 413d 18a6 9dbd be7d 82bd bbd7 483d
000002a0: c3a2 3fbd 5692 9cbd a5a1 a3bc df21 ad3c
000002b0: c0fd 703d 0392 703c 265e 8cbd 4a31 3c3c
000002c0: 51a8 a93d 74c0 b4bd ec0d 003d 534c 77bc
000002d0: 31df cd3c fca8 023d a701 adbd 7bc3 adbd
000002e0: bb52 973d c17e 7a3b 4338 413d eb4e 613d
000002f0: ad65 883d aefd e6bc fe0c aa3d c0ad c33d
00000300: 58a6 cdbd aa4b 6ebd 319b 283d 571c 853b
00000310: 06d0 cdbc 23a5 0a3c 7834 aabd 2341 963d
00000320: 15a7 adbd 2fff bbbc 1351 7b3d ccd3 583c
00000330: 632b 873d 23ff 7c3d 2920 66bd df6d 01bd
00000340: 85f1 b2bd b709 59bc b024 a1bd 7ff0 23bd
00000350: 74e4 be3d 54d3 e5bc dd90 85bc e64a 00bd
00000360: dc98 9cbc de9b 873d af57 a8bd 2dee 743d
00000370: 75d6 14bc db10 75bd cd74 963c 3c1f 7e3d
00000380: 9050 4e3d 71c0 0ebd e907 49bd 18d4 29bd
00000390: e836 96bb 44cb b0bd ccf5 eeba 18cc 713c
000003a0: 4782 26bc 33ac 413c 481f 63bd 359a 4fbc
000003b0: b55d a63d 17ce 5d3d 7972 213d 0b34 793c
000003c0: bdac 223d ca3b 90bd 89bc cabd beb4 1abd
000003d0: 0313 ca3d 368d 81bd a20e 92bd ddfa 4c3d
000003e0: 6c6f cebb fd1e 87bd 4161 513b f80b 343d
000003f0: e928 1cbd 5148 e7bc 86a9 b1bd 9393 a63d
-0.06255138 0.067205705 -0.10342297 0.059373558 -0.08236138 0.040067382 0.0308071 -0.027004516
0.04639986 -0.07702062 -0.0068361373 -0.013642254 0.088068254 -0.03107963 -0.11641947 0.008833652
-0.07794021 0.04799063 0.052362632 0.012211319 0.09509264 -0.040194124 -0.070221975 -0.015897183
-0.08281119 0.029485486 0.03021882 -0.0539317 -0.055870045 0.04088836 0.08845982 -0.070340306
-0.012835335 -0.008965723 -0.025553586 0.09665038 -0.051898252 0.09505867 -0.04074175 0.09265943
0.013604377 0.08716189 -0.09702074 -0.04606509 -0.020427732 -0.02183319 0.009428715 -0.019744927
0.0700584 0.08870326 -0.0888333 -0.050137658 -0.09176095 -0.02151908 0.00851343 -0.09163088
-0.09604113 0.02967894 -0.00024567917 0.015656002 0.009813657 -0.09026077 -0.09377536 -0.08216411
0.068791255 0.013612607 -0.059355263 0.055963397 0.08684821 -0.046432026 -0.026842793 -0.062851146
-0.08952801 0.05633123 0.053030863 -0.032089293 0.0835519 0.078756385 0.0028035806 -0.08122884
-0.05330692 -0.083555155 0.08979382 -0.02589746 -0.03324043 -0.0632069 0.01760869 0.102227904
-0.027666006 -0.026225306 0.0015500451 0.0632679 -0.018482817 0.05367697 0.014652448 0.029919647
0.06391447 0.09400223 0.0989746 0.007984109 -0.02980647 0.025419446 0.038874324 -0.08485767
-0.051372524 -0.055920094 -0.036246445 0.06097708 0.09401048 -0.09601913 0.08089803 -0.0886513
0.024292696 0.005168733 -0.07665318 -0.09460551 -0.018237896 -0.03083503 0.07002202 -0.028517887
-0.06081027 0.027402638 0.079526484 -0.09245741 0.055600755 0.013577965 -0.10011324 -0.042067245
-0.006789803 -0.051264435 0.017643249 0.021921031 0.09115354 0.06974023 0.09794016 -0.011470047
-0.014202224 -0.023756605 -0.032904916 0.0019008585 0.008645287 -0.037695717 0.020875283 0.024158623
0.037778173 -0.06684618 0.09416579 0.0043337597 -0.04757145 0.063624784 -0.05138086 0.045700997
0.043640327 0.00390112 0.016504273 0.07306273 -0.030130127 0.012705229 0.06785387 0.06767199
-0.010479392 -0.06539026 -0.02434322 0.0129619725 0.047228068 -0.076976955 -0.0637164 0.04903386
-0.04678608 -0.07645099 -0.019974539 0.021134315 0.058835745 0.014683249 -0.06853895 0.011486361
0.08284057 -0.0882577 0.031263277 -0.015093881 0.02513084 0.031899437 -0.08447581 -0.084845506
0.073888265 0.0038222524 0.047172796 0.055006903 0.06660018 -0.028197136 0.08303259 0.095546246
-0.10041493 -0.058177628 0.041163627 0.0040622163 -0.025123607 0.008462223 -0.08310789 0.073366426
-0.08479134 -0.02294883 0.061356615 0.01323409 0.06600072 0.061766755 -0.056183014 -0.031598922
-0.087374724 -0.013246945 -0.07868326 -0.040024277 0.09320918 -0.02805487 -0.016304428 -0.03132143
-0.019115858 0.06621526 -0.08219849 0.059797455 -0.009084334 -0.059830528 0.018366242 0.062041506
0.0503698 -0.034851495 -0.04907981 -0.041462034 -0.004584182 -0.0863252 -0.0018231212 0.014758132
-0.0101628965 0.011820841 -0.055449754 -0.012671043 0.08123342 0.05415162 0.03941581 0.015210162
0.039715517 -0.07042654 -0.098992415 -0.037770025 0.098669074 -0.06325762 -0.07131697 0.05004393
-0.0062999036 -0.065977074 0.0031948837 0.043956727 -0.038124952 -0.028232725 -0.08674912 0.08133616

model.all_layers.1.bias f4 [50]
00000000: b1df b3bd 2982 32b8 b855 863c 7d51 f53c
00000010: 2277 c83b 781b 33bd 30b5 8f3c 797f 803d
00000020: 9fbe 3dbd dc82 74bd 4515 b8bd fc52 203d
00000030: e87a 5bbc b78e 913d 29c9 a9bc dc8e a33b
00000040: 2a29 b0bd 2eba 183d 4c1f 5dbb c3bf b63d
00000050: 4954 383d fa7a 8f3c bdaa 013d 16ae 4c3d
00000060: e959 20bc a0be 463c d812 433b b7e6 71bd
00000070: e7b4 70bd 513d b03c a5da a33d c13c 823d
00000080: 2697 683d 1e58 0d3d 3506 663d 601c 07bd
00000090: b2e2 04bd 432a 833c 08a7 9bbc 3636 c0bd
000000a0: 3af8 4c3d 0c1d 353d e3be bbbd ce8a 9e3d
000000b0: d21d c2ba cf4e a3bd 795c 60bd 526a 523c
000000c0: b333 90bd 76cd 853d
-0.087829 -4.2559728e-05 0.016398296 0.029946083 0.0061177174 -0.043727368 0.017542452 0.062743135
-0.04632437 -0.05969511 -0.08988432 0.03914164 -0.013396002 0.07107299 -0.020725803 0.0049913954
-0.086016014 0.03728693 -0.0033740578 0.089232944 0.045002256 0.017514694 0.03165697 0.04997071
-0.009787061 0.0121304095 0.002976587 -0.059057917 -0.058766272 0.021513613 0.080006875 0.06359244
0.05678477 0.034507863 0.056158263 -0.032986045 -0.032442756 0.016011363 -0.019000545 -0.0938534
0.050041415 0.044217154 -0.09167268 0.07741319 -0.0014809913 -0.07974016 -0.05477569 0.012842732
-0.07041111 0.06533329

model.all_layers.2.weight f4 [2, 50]
00000000: 370b 063e f9cd 1dbe b2e4 583d 44ff 83bd
00000010: aaf6 3c3d 367d bb3d 348f 81bd a944 cb3d
00000020: 16f7 b0bd fb67 21bc 8409 0fbd 3178 29bd
00000030: a905 bfbc e133 053e 31f0 0d3e 527e a53d
00000040: 6d56 50bc 99e0 ec3d eb08 623c 21c9 343d
00000050: be1e 44bd 8533 fb3c 4ca7 27bd 0ee1 893c
00000060: 952f 50bc 27b0 48bd 13e0 273d 604c 8dbd
00000070: c4c0 21be 07fd c73d 63e2 a73d 99b6 2fbd
00000080: 18d5 d2bd 1594 0d3d 97ad b53d 14cc 35bd
00000090: aea3 e3bc a895 763d 0ca9 af3d c331 ebbd
000000a0: 53a8 a5bc 4858 d2bd c616 ccbd 7174 cabd
000000b0: d5c2 6dbd f1a1 f13d 1814 67bd 913d 1bbe
000000c0: 6b54 15bd 3898 463d f120 0cbe a660 9bbd
000000d0: 7701 8e3c ff11 ab3d 5b41 563d 7ee3 3a3d
000000e0: ebd4 483c 1ca9 ebbc 1fea 283d b5e1 8c3c
000000f0: 723e ca3d 36ab 7cbd 0a18 60bd a5fe ee3d
00000100: ac93 afbc 25ee 36bd 567f 923c eea6 0dbd
00000110: 242c 6d3d 05cf 413d 4e55 363d 5214 2fbd
00000120: dba4 16bc d3d8 f2bd 0fc1 5a3d c64c 04bd
00000130: 9488 aebd 40b0 68bd caf5 60bd cda7 f23c
00000140: a969 fc3d 9731 c8bd c8ee bb3d 6aa9 42bd
00000150: 5aff 1cbd be1b 6a3d 5558 f6bd f5c4 6f3d
00000160: 2d02 363c 1909 cbbd 850c 00bd fa5a 0ebd
00000170: 289a ba3d a500 27bd 549d f7bd a62d d6bd
00000180: 60fa 6e3d 91ac 3f3d a99c 993b 1232 23be
0.13090216 -0.15410604 0.052952476 -0.064451724 0.046133675 0.091547415 -0.06326142 0.09925205
-0.08640878 -0.009851451 -0.034921184 -0.04137439 -0.023318129 0.13008071 0.13861157 0.08080734
-0.012715918 0.11566276 0.0137960715 0.044137124 -0.04788088 0.030664215 -0.04093103 0.016830947
-0.012706657 -0.048996117 0.04098518 -0.06899333 -0.1579619 0.09765058 0.08197477 -0.042898748
-0.10294551 0.03456505 0.08871 -0.044384077 -0.02778801 0.060201317 0.08577165 -0.11484101
-0.020221865 -0.102707446 -0.09965281 -0.09885491 -0.058047134 0.11798466 -0.056415647 -0.15160204
-0.03645746 0.04848501 -0.13684441 -0.075867936 0.017334683 0.08353042 0.05230842 0.04562711
0.012257795 -0.028767161 0.0412389 0.01719747 0.09875192 -0.061686717 -0.054710425 0.11669663
-0.02143272 -0.044660706 0.017882984 -0.034583025 0.057903424 0.04731657 0.044514947 -0.04274399
-0.009194578 -0.11857762 0.05340677 -0.03229978 -0.08522144 -0.05680871 -0.054921903 0.02962103
0.123248406 -0.097750835 0.09176403 -0.047524847 -0.03832946 0.057155363 -0.12028567 0.058537442
0.011108917 -0.099138446 -0.03126194 -0.03475473 0.09111434 -0.0407721 -0.12090555 -0.104579255
0.058344245 0.04679543 0.004687865 -0.15937069

model.all_layers.2.bias f4 [2]
00000000: faba 3fbd bd25 06be
-0.046809174 -0.13100334
