unit06-dl-tips/6.8-debugging/lightning_logs/version_5/checkpoints/epoch=4-step=5.ckpt (torch, 71794 bytes, 14 tensors)

model.all_layers.0.weight f4 [100, 100]
0	0xbd4d4180	-0.050111294
1	0x3c5cffc7	0.013488716
2	0xbdcdca19	-0.10048313
3	0x3d2bdaa5	0.041956563
4	0xbdca74f8	-0.09885591
5	0x3dbf2ff0	0.09335315
6	0xbd2819df	-0.041040298
7	0xbd59e81c	-0.053199872
8	0xbdd90233	-0.105961226
9	0x3d899c5b	0.067192756
10	0xbd482450	-0.048862755
11	0x3d05d6c6	0.032675527
12	0xbd5cfe83	-0.05395366
13	0xbd31cc16	-0.043407522
14	0xbd22329d	-0.03959905
15	0x3c6ee0ae	0.014579935
16	0xbda0e083	-0.07855322
17	0x3d9af362	0.07565953
18	0xbb67a11c	-0.0035343831
19	0x3d1634a3	0.036671292
20	0x3d871273	0.06595316
21	0x3be49e65	0.00697689
22	0x3d2148e0	0.03937614
23	0x3db8a5d4	0.09016004
24	0xbd73cd50	-0.059521973
25	0x3c1e606c	0.009666543
26	0xbd4f016d	-0.05053847
27	0x3da5250e	0.08063708
28	0x3db1c087	0.086793
29	0xbdaa0912	-0.08302511
30	0x3da23729	0.07920677
31	0x3dba48bc	0.09095904
32	0x3d19f000	0.037582397
33	0x3d57cccc	0.052685544
34	0x3daab837	0.083359174
35	0xbca29a4f	-0.01984897
36	0xbdac78c4	-0.08421472
37	0xbd35cfe5	-0.044387717
38	0xbd669aae	-0.056299858
39	0xbc0258f6	-0.00795578
40	0x3c48adc2	0.012248458
41	0xbcb42e42	-0.021994714
42	0xbc68db09	-0.014212378
43	0x3dbff488	0.093728125
44	0xbc307033	-0.010768938
45	0x3c1f592a	0.009725848
46	0xbcb87d71	-0.022520753
47	0x3c12cbe8	0.008959748
48	0x3de31aa0	0.11089063
49	0x3d7b5591	0.0613609
50	0x3d0c5057	0.034256306
51	0x3d5a9f83	0.05337478
52	0x3ced386c	0.028957568
53	0x3d21ca4a	0.03949956
54	0xbd08f46a	-0.033436216
55	0xbdbad0fa	-0.0912189
56	0xbd7430a3	-0.059616696
57	0x3dc9bda5	0.09850625
58	0x3c97c9e4	0.018528886
59	0xbd910db1	-0.070826896
60	0x3ab12d32	0.0013517498
61	0x3da0081f	0.07814049
62	0xbdbfc8af	-0.09364449
63	0xbd9076af	-0.07053887
64	0xbd4796dc	-0.048727855
65	0x3d120d9a	0.035657503
66	0xbc26b64a	-0.010175297
67	0xba10570c	-0.0005506135
68	0xbdaef685	-0.085431136
69	0x3d0424a9	0.032261524
70	0x3daa0ae7	0.08302861
71	0x3d799984	0.06093742
72	0xbd9aaa09	-0.07551963
73	0xbd924e33	-0.071438216
74	0x3d1e650c	0.038670585
75	0x3d16b6fe	0.03679561
76	0x3d1b456d	0.037908006
77	0xbdc549f6	-0.096332476
78	0xbcb16604	-0.02165509
79	0x3d82f191	0.063937314
80	0x3d679d23	0.05654634
81	0x3c13f2f1	0.00903009
82	0x3ca4a2ff	0.020097254
83	0xbcf59c8d	-0.029981876
84	0xbd8e23e0	-0.06940436
85	0xbcc1d79a	-0.023662377
86	0xbd4fbd02	-0.05071736
87	0x3dc2bf96	0.09509198
88	0x3d265435	0.04060765
89	0x3d029c0e	0.031887107
90	0xbd883399	-0.066504665
91	0x3dd3e639	0.10346646
92	0x3d67f02f	0.05662554
93	0x3da28559	0.0793559
94	0xbd11ef98	-0.035628885
95	0x3c4b7000	0.01241684
96	0x3da0a346	0.07843642
97	0x3d8a5fde	0.067565665
98	0x3dae8b25	0.085226335
99	0xbcc0b038	-0.023521528
100	0x3db85c9b	0.09002038
101	0xbd8f60c4	-0.070008785
102	0x3e11d39d	0.1424088
103	0xbd7825b7	-0.060582843
104	0xbc8be760	-0.017078102
105	0xbd628fc3	-0.055312883
106	0xbcb884bc	-0.02252423
107	0x3da57063	0.08078077
108	0x3deac06e	0.11462484
109	0xbd2dbd2c	-0.042416736
110	0x3dd66b73	0.10469713
111	0xbdac7b6d	-0.08421979
112	0x3ccb0ae1	0.02478546
113	0xbd1d7d89	-0.038449798
114	0xbc28005e	-0.010253994
115	0xbd8d9a3b	-0.06914183
116	0xbda48723	-0.08033588
117	0xbcc6cf46	-0.024268758
118	0x3b8078a0	0.0039206296
119	0x3da72aeb	0.08162483
120	0xbd00f142	-0.03148008
121	0x3d429c37	0.04751226
122	0x3dab213f	0.083559506
123	0xbc93dc77	-0.018049462
124	0x3e1a8942	0.15091422
125	0xbd7484c6	-0.059696935
126	0x3dadf715	0.08494393
127	0x3d1ef4b5	0.03880759
128	0x3ce24d63	0.027624791
129	0x3da13427	0.078712754
130	0xbc8beedd	-0.017081672
131	0xbd2cc78c	-0.04218249
132	0x3d2a1223	0.041521203
133	0xbdb50c96	-0.08840291
134	0xbc62508d	-0.01381315
135	0xbd26fdc5	-0.040769357
136	0x3cdabc51	0.026701124
137	0x3c462d7e	0.012095807
138	0xbc7648c0	-0.015031993
139	0xbd03037d	-0.03198575
140	0xbcd735f6	-0.026270848
141	0xbd7a4ef7	-0.061110463
142	0xbbb7cb60	-0.005608961
143	0x3db67f8c	0.089110464
144	0x3cb6a237	0.022294147
145	0xbd6586ac	-0.056036636
146	0xbd744100	-0.0596323
147	0xbc0c0c39	-0.008547836
148	0xbdd214d1	-0.10257877
149	0xbd8b3e42	-0.06798984
150	0xbda4bbeb	-0.08043655
151	0xbd830307	-0.06397062
152	0x3c8e89d4	0.017399706
153	0x3da93d06	0.082635924
154	0x3d9239cf	0.07139932
155	0x3d1e5841	0.038658384
156	0xbdce0c3d	-0.10060928
157	0xbca9cfeb	-0.020729026
158	0xbde1b08c	-0.11020002
159	0x3cb0773b	0.021541229
160	0x3d9d12ae	0.076695785
161	0x3df84a65	0.12123565
162	0xbda93325	-0.08261708
163	0x3dcae2f2	0.09906568
164	0x3d96c963	0.0736263
165	0x3d504396	0.050845705
166	0xbc741828	-0.014898337
167	0x3d06c71c	0.03290473
168	0x3d525fe1	0.05136097
169	0x3d956bbd	0.0729594
170	0xbd21abe0	-0.039470553
171	0xbd856b56	-0.06514613
172	0x3af44b66	0.0018638193
173	0x3c969f06	0.018386375
174	0xbda62f60	-0.08114505
175	0xbde6c4db	-0.11268016
176	0xbd4d4dec	-0.05012314
177	0xbd059015	-0.03260811
178	0x3db8c19d	0.09021304
179	0x3cfffa89	0.031247394
180	0xbcbcbf2d	-0.023040378
181	0x3c6599ee	0.0140137505
182	0x3da42acd	0.08015976
183	0xbd63e7c6	-0.05564096
184	0xbcae860a	-0.02130415
185	0xbd6de090	-0.058075488
186	0xbdbf3bfa	-0.093376115
187	0x3d102053	0.035187077
188	0x3e018ca9	0.12651314
189	0xbd5201a6	-0.051271103
190	0xbdf72d78	-0.12069219
191	0xbddc6542	-0.10761501
192	0x3c0d62fa	0.008629555
193	0x3db5dcb8	0.088799894
194	0xbdcb8fc8	-0.099395335
195	0xbd814ae2	-0.06313111
196	0x3d897383	0.06711485
197	0xbd463e4f	-0.048399266
198	0x3db89d85	0.090144195
199	0x3d26c9d9	0.04071984
200	0xbd2e7226	-0.04258933
201	0xbb83be32	-0.004020476
202	0xbd150d75	-0.036389787
203	0xbd058dfb	-0.032606106
204	0xbda420ca	-0.080140665
205	0x3cdb1494	0.02674321
206	0x3c1116a0	0.008855492
207	0x3c5964ef	0.013268693
208	0xbda06e94	-0.07833591
209	0x3de21217	0.110386066
210	0xbd54bc47	-0.051937368
211	0x3ca2d861	0.019878568
212	0x3d94edbe	0.07271908
213	0xbd2f6989	-0.042825256
214	0x3b0c7088	0.0021429379
215	0xbb762510	-0.0037558712
216	0x3d5e4d49	0.054272924
217	0xbcc09a2f	-0.02351102
218	0x3cf3d9b0	0.029766887
219	0x3c1afc21	0.009459526
220	0xbdc3d4df	-0.09562086
221	0xbdad29a2	-0.084552065
222	0x3d195b9e	0.03744089
223	0xbce15446	-0.027506005
224	0x3c9fc318	0.019502208
225	0xbdce1ecb	-0.10064467
226	0xbd740784	-0.05957748
227	0xbdb064fb	-0.086130105
228	0x3d3f7dbf	0.04675078
229	0xbbda56f7	-0.006663199
230	0xbd19a726	-0.03751292
231	0x3d1e3a93	0.03863008
232	0xbdd61a02	-0.10454179
233	0x3cec9352	0.028878842
234	0xbc871b50	-0.016492516
235	0xbdc497b8	-0.095992506
236	0x3d7b1a98	0.06130466
237	0xbcadf923	-0.021236962
238	0xbdc18bfd	-0.09450529
239	0x3d830c02	0.06398775
240	0x3dae4323	0.08508899
241	0xbc417233	-0.011807012
242	0xbd5622f9	-0.052279446
243	0x3b8091df	0.003923639
244	0x3d502de9	0.050825033
245	0x3ddd994d	0.108202554
246	0xbd9f705f	-0.07785105
247	0xbd325c1a	-0.043544866
248	0x3dc3f318	0.09567851
249	0x3d42227f	0.04739618
250	0x3da616be	0.081098065
251	0xbd2f0f92	-0.04273946
252	0x3db23feb	0.08703598
253	0xbd984669	-0.07435305
254	0xbc8b47f4	-0.017002083
255	0x3cf54709	0.029941099

model.all_layers.0.bias f4 [100]
0	0x3c731050	0.014835432
1	0x3d8beb4f	0.06831991
2	0x3cee7d0c	0.029112361
3	0xbd13a8e6	-0.036049746
4	0xbc3da000	-0.0115737915
5	0x3d6e0422	0.05810941
6	0x3d0b2552	0.03397114
7	0x3b7d1ac1	0.0038620683
8	0xbd495687	-0.049154785
9	0x3da05f3b	0.07830664
10	0xbdb0b77a	-0.086287454
11	0xbdb9da7d	-0.090748765
12	0x3cb55118	0.022133395
13	0x3d85eeb7	0.06539672
14	0xbdc13b3a	-0.09435125
15	0x3d108d52	0.035291024
16	0xbd4a1737	-0.049338546
17	0x3d8f7865	0.07005385
18	0xbcd09be0	-0.025464952
19	0x3dbfea83	0.093709014
20	0xbd27846d	-0.040897775
21	0xbb9ff5b0	-0.004881583
22	0x3d86f1c1	0.0658908
23	0xbcdbeda0	-0.026846707
24	0x3baf6580	0.005352676
25	0x3d9cab01	0.07649804
26	0xbd10a01c	-0.035308942
27	0xbda11b25	-0.078665055
28	0x3c0f1a68	0.008734323
29	0xbdb5ff9f	-0.088866465
30	0x3d929e19	0.07159061
31	0x3c1d9e70	0.009620294
32	0xbcde4714	-0.027133502
33	0xbc7559d8	-0.014975034
34	0x3daa405f	0.08313059
35	0xbcf2f198	-0.029656217
36	0xba813ab7	-0.0009859417
37	0x3c69bf50	0.014266804
38	0x3c187bc0	0.009306848
39	0xbd54cd8a	-0.05195383
40	0xbbd0d5a0	-0.0063731223
41	0xbd2654c3	-0.04060818
42	0xbc0c2d58	-0.008555733
43	0xbd91eb9b	-0.07125016
44	0x3d14d27a	0.03633354
45	0xbd2518bd	-0.040306795
46	0x3c630670	0.013856515
47	0x3dc7d32f	0.09757077
48	0x3ce77254	0.028252758
49	0xbd80a3f4	-0.062812716
50	0xbd9f745d	-0.077858664
51	0xbd7ffc60	-0.062496543
52	0x3d8bd925	0.068285264
53	0x3da0a867	0.0784462
54	0x3d0afd7a	0.03393314
55	0xbd9f37d2	-0.07774319
56	0x3cdca7cc	0.02693548
57	0x3d08a792	0.033362933
58	0xbc9a8308	-0.018861309
59	0x3cf515bc	0.02991759
60	0x3db156c9	0.08659131
61	0xbcc603b8	-0.024171695
62	0x3d815d7d	0.063166596
63	0x3cbffeac	0.023436867
64	0xbdb5d065	-0.08877639
65	0xbc00dff0	-0.007865891
66	0xbcd1bce8	-0.025602773
67	0xbc1b6968	-0.00948558
68	0xbb972fa0	-0.0046138316
69	0xbd9937c5	-0.0748134
70	0x3d48c69e	0.04901754
71	0xbd8847b5	-0.06654302
72	0xbd497f30	-0.04919356
73	0x3dc58771	0.09644974
74	0x3cae49b8	0.021275386
75	0xbc0e3658	-0.008679949
76	0x3d4d4cde	0.050122134
77	0x3dc75f3d	0.09734962
78	0xbd4e4627	-0.05035987
79	0xbdbd9d52	-0.09258522
80	0xbc717c58	-0.0147391185
81	0xbd803572	-0.06260194
82	0xbdc05cf0	-0.093927264
83	0xbd0a0c8a	-0.033703364
84	0xbcc07c00	-0.023496628
85	0xba85ba7e	-0.0010202674
86	0x3d37aaf2	0.04484076
87	0x3d8a15e1	0.06742454
88	0xbcc5c214	-0.024140395
89	0xbcf86694	-0.03032235
90	0xbd7a19d3	-0.061059784
91	0x3d9241ff	0.07141494
92	0x3d1c1756	0.038108192
93	0xbc63f910	-0.013914362
94	0x3d731ad6	0.059351765
95	0x3da5f541	0.08103419
96	0xbd05a004	-0.032623306
97	0x3d96c377	0.07361501
98	0xbd10eca6	-0.035381936
99	0xbca0162c	-0.019541822

model.all_layers.1.weight f4 [100]
0	0x3f7fa2c5	0.9985774
1	0x3f81082c	1.0080619
2	0x3f832924	1.024693
3	0x3f7d2d44	0.98897195
4	0x3f7b38d1	0.9813357
5	0x3f808b5a	1.0042527
6	0x3f8035dd	1.0016438
7	0x3f7e43da	0.99322283
8	0x3f7e42b0	0.9932051
9	0x3f7e22c9	0.9927183
10	0x3f80acc0	1.0052719
11	0x3f7ed495	0.99543124
12	0x3f80f8e0	1.0075951
13	0x3f7fa3ff	0.99859613
14	0x3f820107	1.0156564
15	0x3f80a812	1.0051291
16	0x3f7e8170	0.99416256
17	0x3f7c6600	0.9859314
18	0x3f8145a1	1.0099374
19	0x3f7fed73	0.99971694
20	0x3f7d8dca	0.9904448
21	0x3f7d8934	0.9903748
22	0x3f7b8ffe	0.9826659
23	0x3f81a6a6	1.0128982
24	0x3f805d71	1.0028516
25	0x3f7f97e7	0.9984116
26	0x3f7ebc8b	0.99506444
27	0x3f7f7161	0.9978238
28	0x3f814641	1.0099565
29	0x3f81185e	1.0085561
30	0x3f80134f	1.0005893
31	0x3f7f5fa3	0.99755305
32	0x3f7e6539	0.99373204
33	0x3f80fab6	1.0076511
34	0x3f7db7d3	0.9910862
35	0x3f8081ed	1.003965
36	0x3f8157d5	1.0104929
37	0x3f7d6a4c	0.9899032
38	0x3f7cdf9a	0.9877869
39	0x3f823ab5	1.0174166
40	0x3f7ee64f	0.99570173
41	0x3f803698	1.0016661
42	0x3f7ec3d6	0.9951757
43	0x3f81ab70	1.0130444
44	0x3f7f61bf	0.99758524
45	0x3f8052f2	1.0025313
46	0x3f8161b1	1.0107938
47	0x3f80f5cf	1.0075015
48	0x3f7c3d08	0.98530626
49	0x3f809225	1.00446
50	0x3f813cd7	1.0096692
51	0x3f815a88	1.0105753
52	0x3f806316	1.0030239
53	0x3f7f8341	0.9980965
54	0x3f801304	1.0005803
55	0x3f80a346	1.0049827
56	0x3f7d7021	0.9899922
57	0x3f80f6d5	1.0075327
58	0x3f82481f	1.017826
59	0x3f7efd4e	0.9960526
60	0x3f80695f	1.0032157
61	0x3f7d7c3c	0.9901769
62	0x3f7f4fdd	0.99731237
63	0x3f7e9c56	0.994573
64	0x3f7c79eb	0.9862353
65	0x3f7f55e4	0.99740434
66	0x3f809afc	1.0047297
67	0x3f80613f	1.0029677
68	0x3f7f5f3c	0.9975469
69	0x3f7e6d2f	0.9938535
70	0x3f80ccb0	1.0062466
71	0x3f8043d7	1.0020703
72	0x3f7fd425	0.9993308
73	0x3f7e9995	0.994531
74	0x3f7ea911	0.99476725
75	0x3f7d1b7f	0.9887008
76	0x3f7fab74	0.9987099
77	0x3f803b80	1.0018158
78	0x3f7f8fa3	0.9982855
79	0x3f7ca9dd	0.9869669
80	0x3f7cbc1a	0.9872452
81	0x3f808ca2	1.0042918
82	0x3f7ceb03	0.987961
83	0x3f81f2a2	1.0152171
84	0x3f7e9252	0.9944202
85	0x3f7d4784	0.9893725
86	0x3f827a05	1.0193487
87	0x3f80134c	1.0005889
88	0x3f7f7c57	0.997991
89	0x3f7fec5b	0.99970025
90	0x3f7d30b4	0.9890244
91	0x3f814289	1.009843
92	0x3f810cfa	1.0082085
93	0x3f81e3aa	1.0147603
94	0x3f7df13d	0.99196225
95	0x3f80f23c	1.0073924
96	0x3f7fbb2f	0.99894994
97	0x3f80fac5	1.0076529
98	0x3f7fdb32	0.9994384
99	0x3f7ec789	0.99523216

model.all_layers.1.bias f4 [100]
0	0xb01fd0cb	-5.8140576e-10
1	0x31345065	2.6239146e-09
2	0x31152d66	2.170816e-09
3	0x30d57fcf	1.5534115e-09
4	0x30ae7edc	1.2696222e-09
5	0xb001121f	-4.695568e-10
6	0x30c5f498	1.4403154e-09
7	0xb08f7dc9	-1.044037e-09
8	0x2f5aae67	1.9888945e-10
9	0x314f85d2	3.0198533e-09
10	0x310541bd	1.9391415e-09
11	0x2f3e3cb1	1.7301961e-10
12	0x311c558b	2.2749613e-09
13	0xb09ef116	-1.1564534e-09
14	0xb0b0785f	-1.2839897e-09
15	0xaf14aaff	-1.3521272e-10
16	0xb0ee9beb	-1.7361094e-09
17	0xb10162b9	-1.8828088e-09
18	0x30b66f6a	1.3273909e-09
19	0xb12d15af	-2.518714e-09
20	0x305533a1	7.756232e-10
21	0x30143a1b	5.392466e-10
22	0xae38b958	-4.2001375e-11
23	0x30eacfa7	1.7084759e-09
24	0xb047286c	-7.245322e-10
25	0xb0a05640	-1.1666046e-09
26	0xb0cb9799	-1.4813281e-09
27	0x30b3c03c	1.30786e-09
28	0x311bc6ff	2.2668585e-09
29	0xb0903c04	-1.0494436e-09
30	0x30ab9dd6	1.2486747e-09
31	0x30ce5ea8	1.5015376e-09
32	0xb12ca61a	-2.5123712e-09
33	0xadd30ea1	-2.399442e-11
34	0x30d49144	1.5466317e-09
35	0xb03df9b2	-6.911264e-10
36	0x30e3d9eb	1.657836e-09
37	0xafa02ac3	-2.9134214e-10
38	0xb0edbb33	-1.7297225e-09
39	0x30785e3c	9.035579e-10
40	0xb08d1596	-1.0265235e-09
41	0xafc9d2ea	-3.671155e-10
42	0x30b02d71	1.2818601e-09
43	0xb01f0019	-5.7844e-10
44	0x2fba9388	3.393803e-10
45	0x30a765c5	1.2179774e-09
46	0x30f0f73c	1.7532567e-09
47	0xaf4f2645	-1.8840136e-10
48	0xaf9c83f4	-2.8469993e-10
49	0x3131dbea	2.5881897e-09
50	0x30f3f140	1.7749144e-09
51	0x2d199a44	8.731297e-12
52	0xb1393499	-2.6950941e-09
53	0xb13e350f	-2.76788e-09
54	0xb081620d	-9.413853e-10
55	0xb08699fa	-9.793546e-10
56	0xb0b107d1	-1.2880667e-09
57	0xb1195b82	-2.2316446e-09
58	0xb0ffbd9f	-1.8607585e-09
59	0xb050719e	-7.583142e-10
60	0x31175730	2.2022952e-09
61	0xb0e881cf	-1.6917115e-09
62	0xb062e5f6	-8.2545115e-10
63	0xb122421a	-2.3611677e-09
64	0xb0eb749c	-1.7131643e-09
65	0x310412a3	1.9219122e-09
66	0x30479346	7.2605066e-10
67	0x30815e3f	9.412772e-10
68	0x30827d9d	9.494446e-10
69	0xb00d8665	-5.148649e-10
70	0x2f1f268f	1.4474665e-10
71	0x30d381d6	1.5389172e-09
72	0xb07be92f	-9.164464e-10
73	0xb095a956	-1.0889305e-09
74	0x2eb8b997	8.4003186e-11
75	0xb14e8c2f	-3.005663e-09
76	0xb0708c61	-8.751098e-10
77	0xb0c97033	-1.4656564e-09
78	0xb0a24591	-1.1806823e-09
79	0x31013fc1	1.880821e-09
80	0xb0c2a03d	-1.41609e-09
81	0xae85e97b	-6.089614e-11
82	0xb122db98	-2.3698927e-09
83	0xb0afb36e	-1.2783923e-09
84	0xb1e9e119	-6.806783e-09
85	0xb0c34a77	-1.4209282e-09
86	0xaeceec7f	-9.4098056e-11
87	0x30de5dea	1.6179318e-09
88	0xb1292566	-2.4613995e-09
89	0x313b1f41	2.7229847e-09
90	0xb0b152c1	-1.2901965e-09
91	0x31246706	2.3923703e-09
92	0xafe42671	-4.1500273e-10
93	0xb040c8d9	-7.0134615e-10
94	0x30872c59	9.835147e-10
95	0xb1417f3d	-2.8157523e-09
96	0x312eb2e0	2.5422011e-09
97	0x310ccfb8	2.0490756e-09
98	0x2f9f7335	2.900379e-10
99	0xb079b2b0	-9.08396e-10

model.all_layers.1.running_mean f4 [100]
0	0xbeae2456	-0.34012097
1	0x3f078535	0.5293763
2	0xbf26339a	-0.6492249
3	0xbde17916	-0.110094234
4	0x3e97e1c9	0.29664448
5	0xbf0f7b49	-0.56047493
6	0xbe7393b5	-0.23786815
7	0xbf2e5e3d	-0.68112546
8	0x3d6f5e16	0.058439337
9	0xbede8e6b	-0.4346803
10	0xbd82ef6e	-0.06393324
11	0xbe831618	-0.25602794
12	0xbd360219	-0.044435594
13	0xbe2f91e2	-0.17145494
14	0xbeeac745	-0.45855156
15	0x3e64044b	0.22267263
16	0xbe8441c6	-0.2583143
17	0x3e7e9a1b	0.24863474
18	0x3d9f0f7b	0.077666245
19	0x3e34f308	0.17670834
20	0xbe050f8d	-0.12994213
21	0xbe8e5379	-0.2779806
22	0x3bc5bb87	0.006034318
23	0x3c9b35e9	0.018946605
24	0xbe99b22a	-0.3001874
25	0x3e25c88e	0.16189787
26	0x3daf4ca1	0.08559538
27	0x3d00c2a0	0.03143561
28	0xbee1edc8	-0.44126725
29	0xbd77d615	-0.0605069
30	0x3eae96c2	0.34099394
31	0xbef625c6	-0.48075694
32	0x3db44f56	0.08804195
33	0x3efd80da	0.49512368
34	0xbe6c50a5	-0.23077638
35	0x3ef17cf4	0.47165644
36	0xbed686c1	-0.41899684
37	0x3f1cd6e9	0.61265427
38	0xbda4a150	-0.080385804
39	0x3f323d75	0.69625026
40	0xbef565e9	-0.47929314
41	0xbdd93384	-0.10605529
42	0xbf4e5a47	-0.806065
43	0x3e532528	0.20619643
44	0x3e25e87b	0.16201966
45	0x3e95b127	0.2923672
46	0xbdea05f4	-0.11426917
47	0x3d851bdd	0.06499455
48	0x3ea12b89	0.31478527
49	0xbecbb831	-0.39788964
50	0xbe9d1e1f	-0.30687043
51	0xbf1324ad	-0.5747784
52	0x3e783cd0	0.24241948
53	0x3e3bd560	0.18343115
54	0xbd5f83c8	-0.054569036
55	0x3ca92ab3	0.020650243
56	0x3ee5f76f	0.4491534
57	0x3ee07901	0.4384232
58	0xbdd179cd	-0.1022831
59	0x3e912dd7	0.28355286
60	0x3d87e353	0.066351555
61	0xbf004763	-0.5010893
62	0xbd428ee0	-0.047499537
63	0x3ea88af7	0.32918522
64	0xbf032c69	-0.5123964
65	0x3eb66c22	0.35629374
66	0xbe1131e1	-0.14179184
67	0xbeb509c0	-0.35359
68	0xbdf81210	-0.1211282
69	0x3e919fa8	0.2844212
70	0xbee18593	-0.44047222
71	0xbe3a476b	-0.18191306
72	0xbe1490f7	-0.14508425
73	0xbe0e0b4e	-0.138715
74	0x3e374131	0.17895962
75	0x3da834a4	0.082131654
76	0xbd7cbb97	-0.061702337
77	0xbe013ef7	-0.12621675
78	0x3ded9dbf	0.11602353
79	0xbef45c96	-0.47726887
80	0xbe66fb4c	-0.225568
81	0x3ea21901	0.316597
82	0xbe08757b	-0.13326065
83	0x3ed6ffb9	0.41991976
84	0xbf2ea425	-0.68219215
85	0xbe1d3327	-0.15351544
86	0x3e09a4c2	0.13441756
87	0x3da14cc9	0.07875974
88	0x3f1cf2d2	0.61308014
89	0xbe89a8bc	-0.26886547
90	0x3e267b5b	0.16257994
91	0xbe9685fd	-0.293991
92	0x3efd64bb	0.49490914
93	0x3ea2fab6	0.31831902
94	0xbe5e0df2	-0.21685007
95	0xbd4345ba	-0.04767392
96	0xbd907674	-0.07053843
97	0xbe14f722	-0.14547399
98	0xbe9093b5	-0.28237692
99	0x3dbe216d	0.09283719

model.all_layers.1.running_var f4 [100]
0	0x4089710e	4.2950506
1	0x40ca3981	6.3195195
2	0x40f8b778	7.772396
3	0x40b1dff4	5.558588
4	0x40982087	4.7539706
5	0x40c8cacc	6.2747555
6	0x407cd690	3.9505959
7	0x4090f543	4.529939
8	0x40f7ec5e	7.7476034
9	0x4075f879	3.8432906
10	0x40a552aa	5.166341
11	0x40f9129b	7.783521
12	0x40acedad	5.404013
13	0x40f9c2a9	7.805012
14	0x412f7d7f	10.968139
15	0x40c7f4a8	6.2486153
16	0x410abf4b	8.671702
17	0x4104bc63	8.295993
18	0x4084446d	4.1333528
19	0x4062e01e	3.544929
20	0x40a3d5fc	5.119871
21	0x40805100	4.0098877
22	0x403e98e1	2.978081
23	0x4088cf69	4.2753186
24	0x40c0447b	6.0083594
25	0x40a1939e	5.0492697
26	0x40800feb	4.001943
27	0x40e9c65f	7.305465
28	0x40d423df	6.629379
29	0x409ca1e4	4.894762
30	0x4112ba4e	9.170485
31	0x40654dd2	3.5828748
32	0x4084526e	4.135062
33	0x40ff4a7a	7.9778414
34	0x4094bb49	4.647862
35	0x409c9c15	4.894053
36	0x407055de	3.755241
37	0x40ce60ed	6.4493318
38	0x40d3f072	6.623101
39	0x40a37c2a	5.1089067
40	0x40dd8d3c	6.9234905
41	0x403df6fd	2.9682
42	0x4055abeb	3.338618
43	0x412ab9d8	10.670372
44	0x409b6847	4.856479
45	0x404d9e0c	3.2127714
46	0x40b47fa1	5.6405797
47	0x408ae7c6	4.3407927
48	0x406ffb1a	3.749701
49	0x411e8997	9.908591
50	0x41069e77	8.413688
51	0x40c50b8b	6.157659
52	0x408498dd	4.14366
53	0x408284cd	4.078711
54	0x40b3867b	5.610166
55	0x40afc9a1	5.493363
56	0x40d1cfa4	6.5565968
57	0x408660bc	4.1993084
58	0x412044dd	10.016812
59	0x409c1c2e	4.87844
60	0x40ef214b	7.472814
61	0x40c4b042	6.146516
62	0x40b7a111	5.7384114
63	0x40f16316	7.5433455
64	0x40a5d238	5.1819115
65	0x4048a3ea	3.1350045
66	0x4112ac04	9.166996
67	0x40349fe1	2.8222582
68	0x4091d2ed	4.556998
69	0x40c78777	6.235286
70	0x40ae57c6	5.4482145
71	0x406fd93f	3.7476346
72	0x4087744d	4.232947
73	0x409a147c	4.8150005
74	0x40fbeaa2	7.8723917
75	0x411567d6	9.337851
76	0x4084d9b6	4.151576
77	0x40667b9a	3.601294
78	0x40ad60ea	5.4180803
79	0x40b8d1b8	5.7756004
80	0x408240ff	4.070434
81	0x40807ca2	4.015214
82	0x40ff0a7a	7.970029
83	0x40680c4c	3.6257505
84	0x4092aab3	4.5833373
85	0x40a8161b	5.2526984
86	0x40ea9803	7.331056
87	0x40f4486b	7.63384
88	0x4089d7b5	4.3075814
89	0x40a3e528	5.121723
90	0x409bfabe	4.874358
91	0x40ac6103	5.3868423
92	0x409afd5f	4.843429
93	0x40c0ee46	6.029086
94	0x40a3c26a	5.117482
95	0x4082f661	4.0925756
96	0x40e5ccea	7.181264
97	0x40771b81	3.8610537
98	0x40889949	4.2687116
99	0x40bd9e81	5.9255986

model.all_layers.2.weight f4 [50, 100]
0	0xbd343d68	-0.044003874
1	0x3da1fd75	0.07909671
2	0xbe065c1b	-0.13121073
3	0x3d024316	0.03180226
4	0xbdc58927	-0.096453
5	0x3a87ef89	0.001037107
6	0x3c926e6f	0.017874924
7	0xbd1d7a97	-0.03844699
8	0x3d2f3b09	0.04278091
9	0xbdb2af3f	-0.08724832
10	0x3c022294	0.007942814
11	0xbd587e68	-0.052854925
12	0x3db0e22d	0.086368896
13	0xbcd28cb8	-0.025701866
14	0xbe22bfff	-0.15893553
15	0x3c2929db	0.0103249205
16	0xbda726dc	-0.08161709
17	0x3d8329aa	0.06404431
18	0x3c75757a	0.014981622
19	0x3c90d755	0.017680803
20	0x3df5b691	0.119977124
21	0xbd623b2a	-0.055232204
22	0xbd7d8d2e	-0.061902218
23	0xbced484a	-0.028965134
24	0xbded484d	-0.11586056
25	0xba1ce4bf	-0.00059850136
26	0x3b5ecc98	0.003399646
27	0xbd0823b2	-0.033237167
28	0xbdabe950	-0.0839411
29	0x3cd67e1d	0.026183182
30	0x3db3653c	0.08759543
31	0xbdde4ed4	-0.10854879
32	0xbca68a53	-0.02032963
33	0x3c6ce07b	0.014457817
34	0xbd0e377e	-0.03472089
35	0x3db71b43	0.08940747
36	0xbd87106d	-0.0659493
37	0x3db30c9c	0.087426394
38	0xbcaaa505	-0.02083064
39	0x3df154d3	0.11783757
40	0x3c78c109	0.015182742
41	0x3d9e33cd	0.07724724
42	0xbdff850e	-0.1247655
43	0xbc9c8981	-0.019108536
44	0xbcabdabb	-0.020978322
45	0xbc80d7a6	-0.01572783
46	0xbc8b2ebf	-0.016990064
47	0xbd391585	-0.04518654
48	0x3d9edb33	0.07756653
49	0x3dd6fa33	0.104969405
50	0xbe060929	-0.13089432
51	0xbdb1c867	-0.08680802
52	0xbdd0bacb	-0.10191878
53	0xbcaf764b	-0.021418711
54	0x3ca53a4c	0.0201694
55	0xbd6559e7	-0.05599394
56	0xbdbeda3b	-0.09318968
57	0x3d862299	0.06549568
58	0xbd4764fc	-0.04868029
59	0xbc5d4b58	-0.013506733
60	0xbbcc0f6b	-0.006227424
61	0xbd851d7a	-0.06499763
62	0xbdbf72f1	-0.09348095
63	0xbd592043	-0.053009283
64	0x3db620c3	0.088929676
65	0x3b2ae31e	0.0026075314
66	0xbdc694c9	-0.09696347
67	0x3db0d1af	0.08633744
68	0x3d79af66	0.06095829
69	0xbced43c2	-0.028962974
70	0xbd3116ec	-0.04323475
71	0xbda5c14e	-0.080935106
72	0xbdc6b346	-0.097021624
73	0x3ccbe15e	0.024887737
74	0x3daa90b2	0.0832838
75	0xbd67e6a5	-0.056616444
76	0x3da4d864	0.08049086
77	0x3d9fe2d4	0.07806936
78	0xbbc1d1d7	-0.0059149074
79	0xbd7d6460	-0.061863303
80	0xbd886985	-0.06660751
81	0xbdb973d6	-0.09055297
82	0x3df98c47	0.12184959
83	0xbc891922	-0.016735617
84	0xbcdc496b	-0.026890477
85	0xbd94f2aa	-0.07272847
86	0x3d270a13	0.040781092
87	0x3df45336	0.11929934
88	0xbbb2ccea	-0.0054565566
89	0xbd21bb48	-0.039485246
90	0x3c9c0881	0.019047024
91	0x3d1f635e	0.038913123
92	0xbcd94fa9	-0.026527243
93	0x3db67428	0.08908874
94	0x3cb5f7a8	0.022212818
95	0x3c83817e	0.016052958
96	0x3d7a2dfc	0.06107901
97	0x3d856e18	0.06515139
98	0x3d96164c	0.073284715
99	0xbb6e7006	-0.003638269
100	0xbd39d8cc	-0.04537277
101	0x3d3fc160	0.046815276
102	0x3d7695fd	0.060201634
103	0xbd91b355	-0.07114283
104	0xbce0e643	-0.027453547
105	0xbcadbf17	-0.021209283
106	0x3aef3c21	0.0018252173
107	0x3dc8974a	0.09794481
108	0x3dbb0414	0.09131637
109	0xbd96f8c5	-0.07371668
110	0x3de7e9d8	0.11323899
111	0xbd864bb4	-0.06557408
112	0x3bec2e88	0.0072076954
113	0x3c3864b5	0.011254479
114	0xbda06a13	-0.07832732
115	0xbdab6843	-0.08369496
116	0x3c3a0fa9	0.011356273
117	0xbd0d198b	-0.034448188
118	0x3d86c4e9	0.065805264
119	0xbce1d023	-0.027565068
120	0xbdb59acb	-0.08867415
121	0x3d11a1c3	0.03555466
122	0x3d9e297b	0.077227555
123	0xbdfca146	-0.12335448
124	0x3d554a83	0.052073013
125	0x3cbfb867	0.02340336
126	0xbdef2592	-0.11677088
127	0xbd6b201d	-0.057403672
128	0xbc86e75e	-0.016467746
129	0xbd3f3960	-0.046685576
130	0x3d1f0be9	0.038829718
131	0x3d5ab247	0.053392675
132	0x3dba0843	0.09083607
133	0x3d881361	0.06644321
134	0x3dd87239	0.10568661
135	0xbd37ae98	-0.04484424
136	0x3c4919b9	0.012274199
137	0xbd4a22d6	-0.04934963
138	0xbd384468	-0.044987112
139	0xbceb729e	-0.028741177
140	0x3d0bc3d1	0.034122292
141	0xbd251eca	-0.040312566
142	0x3d4457e4	0.04793538
143	0x3ccb1961	0.024792375
144	0x3cb6d96f	0.022320477
145	0xbdb0e3a9	-0.08637173
146	0x3d151d8b	0.036405127
147	0x3c26767d	0.010160086
148	0xbd661697	-0.056173887
149	0x3db4f7f5	0.088363566
150	0xbd1ae87c	-0.03781937
151	0x3d798eaa	0.06092707
152	0x3d6cc7d4	0.05780776
153	0x3ca231b1	0.019799085
154	0x3cd66a88	0.026173845
155	0x3db6cd96	0.08925931
156	0xbd068f1c	-0.032851323
157	0xbce72c59	-0.028219389
158	0x3da9a98a	0.0828429
159	0x3d1f26fc	0.038855538
160	0x3bd56106	0.0065118102
161	0xbc888b30	-0.016667932
162	0xbc9f49aa	-0.019444305
163	0xbd006459	-0.0313457
164	0x3d2def71	0.042464677
165	0xbd810399	-0.06299514
166	0xbd90ce3b	-0.07070585
167	0x3da190c1	0.07888938
168	0xbd0da3cd	-0.03458004
169	0xbdd19d22	-0.10235049
170	0x3ba3b962	0.0049964646
171	0x3c942722	0.018085066
172	0x3d70e602	0.058813103
173	0x3c64673b	0.013940628
174	0xbd7c12e8	-0.061541468
175	0x3c88c40a	0.016695041
176	0x3dd15807	0.10221868
177	0xbdd0578c	-0.10172948
178	0x3d38a5aa	0.045079865
179	0xbc8170e2	-0.015800897
180	0x3d4cb8fb	0.0499811
181	0x3d208731	0.03919143
182	0xbd9978f0	-0.0749377
183	0xbdbcee6c	-0.09225163
184	0x3dbaa97f	0.0911436
185	0x3c014f5f	0.007892459
186	0x3d85ea2c	0.06538805
187	0x3d9577ef	0.07298266
188	0x3d4c0069	0.04980508
189	0xbd083339	-0.033251975
190	0x3d93354e	0.071879014
191	0x3de3d09b	0.11123773
192	0xbe0ac48f	-0.13551544
193	0xbd068511	-0.032841746
194	0x3d8492ca	0.0647331
195	0xbbcbdd66	-0.006221461
196	0x3bf62407	0.007511619
197	0x3b808247	0.0039217803
198	0xbd2fe710	-0.042944968
199	0x3d9a3545	0.075296916
200	0xbdacdeb1	-0.084409125
201	0xbd5c0d6f	-0.05372375
202	0x3dadc2ab	0.084843956
203	0xbb464952	-0.0030256105
204	0x3d8de653	0.069286965
205	0x3db45c8a	0.08806713
206	0xbd2d2d18	-0.042279333
207	0x3b960122	0.0045777718
208	0xbd7e7b5b	-0.06212936
209	0xbbc2e388	-0.005947534
210	0xbdd8dbec	-0.10588822
211	0xbcf3db65	-0.029767701
212	0x3dd6b02c	0.10482821
213	0xbd290888	-0.0412679
214	0x3cd01717	0.025401635
215	0xbd8549ee	-0.065082416
216	0xbcfa983b	-0.030590167
217	0x3d2d3d95	0.042295057
218	0xbd7da522	-0.06192506
219	0x3d5b6464	0.053562537
220	0xbc867e9b	-0.016417792
221	0xbc9a5e4f	-0.018843798
222	0x3d05a8d2	0.032631703
223	0x3d883bcc	0.0665203
224	0x3dc93bd5	0.09825865
225	0xbcc25eee	-0.023726907
226	0xbd3e0eee	-0.046400957
227	0xbd46ebac	-0.048564598
228	0x3c9327f2	0.017963383
229	0xbda9e332	-0.08295287
230	0xbc66c0ae	-0.014084024
231	0x3d1d0367	0.038333323
232	0xbca21cce	-0.019789126
233	0xbb17ac12	-0.0023143333
234	0xbd09e131	-0.033662025
235	0xbc39a9be	-0.011331974
236	0x3e0238a2	0.12716916
237	0x3d564cad	0.052319217
238	0x3cfa24fa	0.03053521
239	0xbc9da335	-0.019242862
240	0x3d3cbe6e	0.046080045
241	0xbd992e37	-0.07479518
242	0xbd7ab8c8	-0.061211377
243	0xbd596c63	-0.05308188
244	0x3dd6ebbf	0.10494184
245	0xbdd2968e	-0.10282622
246	0xbd64bb92	-0.055842943
247	0x3d36439f	0.044498082
248	0xbcec1912	-0.028820548
249	0xbdae7f1c	-0.08520338
250	0x3c9ea2b4	0.019364692
251	0x3db3d9d4	0.08781782
252	0xbd37db28	-0.044886738
253	0xbd1bc4bc	-0.038029417
254	0xbdf1928c	-0.1179553
255	0x3d4415dc	0.04787241

model.all_layers.2.bias f4 [50]
0	0xbdb110b0	-0.08645761
1	0xba606955	-0.00085606176
2	0x3c8d344c	0.017236851
3	0x3cf9b0ec	0.03047987
4	0x3bba4480	0.0056844354
5	0xbd33ee60	-0.043928504
6	0x3c8d6d4c	0.01726403
7	0x3d7f1a02	0.062280662
8	0xbd40537a	-0.04695461
9	0xbd77422d	-0.060365845
10	0xbdb830ed	-0.08993707
11	0x3d24c706	0.040228866
12	0xbc589b28	-0.013220586
13	0x3d917c05	0.07103733
14	0xbca6bde0	-0.020354211
15	0x3bb6771c	0.005568398
16	0xbdb1a5bb	-0.08674189
17	0x3d18cbde	0.037303798
18	0xbb3f611e	-0.0029202173
19	0x3db6d23f	0.0892682
20	0x3d3b5cc6	0.045742773
21	0x3c841038	0.016121015
22	0x3d01bc3a	0.031673647
23	0x3d4e70c6	0.050400518
24	0xbc0d8dc0	-0.008639753
25	0x3c454380	0.012040019
26	0x3b51306e	0.0031919735
27	0xbd734993	-0.059396338
28	0xbd73967d	-0.05946969
29	0x3cb26b58	0.021779701
30	0x3da3c911	0.07997335
31	0x3d8450b1	0.06460703
32	0x3d66ad2a	0.056317486
33	0x3d1148b6	0.035469733
34	0x3d64d62e	0.05586832
35	0xbd061896	-0.03273829
36	0xbd024b26	-0.03180995
37	0x3c89f42c	0.016840063
38	0xbc908dec	-0.017645799
39	0xbdbfba20	-0.093616724
40	0x3d4bda5e	0.049768798
41	0x3d340842	0.043953188
42	0xbdbc03c3	-0.09180405
43	0x3d9f6937	0.0778374
44	0xba824b26	-0.0009940609
45	0xbda2a876	-0.079422876
46	0xbd5ade83	-0.05343486
47	0x3c4b04a8	0.012391247
48	0xbd9277b6	-0.07151739
49	0x3d877e71	0.06615914

model.all_layers.3.weight f4 [50]
0	0x3f26be67	0.6513428
1	0x3f2aabac	0.666682
2	0x3f267dc1	0.65035635
3	0x3f27c178	0.65529585
4	0x3f2a28b2	0.66468346
5	0x3f290f51	0.66038996
6	0x3f269495	0.6507047
7	0x3f24b518	0.6433883
8	0x3f25b812	0.64733994
9	0x3f2b8fa1	0.67016035
10	0x3f275a46	0.6537212
11	0x3f2bc379	0.6709514
12	0x3f2b6b41	0.6696053
13	0x3f28f8f7	0.6600489
14	0x3f2a1135	0.66432506
15	0x3f275f06	0.6537937
16	0x3f2c0bf0	0.67205715
17	0x3f28be7e	0.6591567
18	0x3f2871bf	0.6579856
19	0x3f28197d	0.6566389
20	0x3f2553ce	0.64581
21	0x3f25e4cb	0.64802235
22	0x3f28e8dd	0.6598032
23	0x3f298c37	0.66229576
24	0x3f24d083	0.64380664
25	0x3f2abdeb	0.6669604
26	0x3f28065a	0.6563469
27	0x3f25ac22	0.6471578
28	0x3f2652ba	0.6496998
29	0x3f28e855	0.6597951
30	0x3f2aa9be	0.66665256
31	0x3f277627	0.6541466
32	0x3f2b607e	0.6694411
33	0x3f28f9e3	0.66006297
34	0x3f259cb2	0.64692223
35	0x3f2a0fae	0.66430175
36	0x3f28f09e	0.6599215
37	0x3f2b611d	0.6694506
38	0x3f29c65a	0.66318285
39	0x3f27c369	0.6553255
40	0x3f289938	0.65858793
41	0x3f272391	0.65288645
42	0x3f2747dc	0.65344024
43	0x3f276033	0.65381163
44	0x3f292004	0.66064477
45	0x3f29c04b	0.6630904
46	0x3f2723f4	0.65289235
47	0x3f296101	0.6616364
48	0x3f2862fa	0.65776026
49	0x3f2546a1	0.64560896

model.all_layers.3.bias f4 [50]
0	0x3c91ccca	0.017797846
1	0x3bf1f63d	0.00738409
2	0xbce37d2f	-0.027769653
3	0xbc3683df	-0.011139839
4	0xbc5c437c	-0.013443824
5	0x3c1fecbc	0.009761032
6	0xbc81ddeb	-0.015852889
7	0x393ef638	0.00018211536
8	0xba257793	-0.00063120684
9	0xbcc1cb67	-0.02365656
10	0x3ae0c840	0.0017149523
11	0x3c8f2a90	0.01747635
12	0x3baf5fb2	0.005351984
13	0xbc64ece5	-0.013972496
14	0x3c31abda	0.010844195
15	0x3c152ad1	0.0091044465
16	0x3d0cb0d0	0.03434831
17	0xbba85518	-0.005137097
18	0xbc318098	-0.010833882
19	0x3cd3695f	0.02580708
20	0x3beb88f8	0.007187959
21	0x3c067aaf	0.008207961
22	0x3c087efa	0.008331055
23	0x392ee364	0.00016678643
24	0x3c0ef0b4	0.00872438
25	0xbb01101e	-0.0019693444
26	0x3cac8647	0.021060122
27	0x3c66c6d7	0.014085493
28	0xbc555094	-0.0130197
29	0x3c8e409d	0.017364794
30	0xbc731cf7	-0.014838449
31	0xbc9072a6	-0.017632794
32	0xbc31e5ea	-0.010858038
33	0x3d298931	0.0413906
34	0xbc3fa521	-0.011697085
35	0xbbf8b215	-0.0075895884
36	0x3b11c952	0.002224524
37	0x3cba12d9	0.022714065
38	0xbbd3d80f	-0.006464965
39	0x3a526b8d	0.00080268906
40	0xbbd48acc	-0.0064862724
41	0x3c25dca0	0.010123402
42	0xbb55899d	-0.0032583245
43	0xbc69deb6	-0.01427429
44	0xbac3dfd3	-0.0014944024
45	0x3c8d36c3	0.017238026
46	0xbca12152	-0.019669209
47	0xbcb40fc1	-0.021980168
48	0xbbe21aee	-0.006900183
49	0x3b3e33e3	0.0029022626

model.all_layers.3.running_mean f4 [50]
0	0xbdb110af	-0.0864576
1	0xba606939	-0.0008560601
2	0x3c8d344e	0.017236855
3	0x3cf9b0f6	0.03047989
4	0x3bba4489	0.0056844396
5	0xbd33ee60	-0.043928504
6	0x3c8d6d4f	0.017264036
7	0x3d7f1a00	0.062280655
8	0xbd405378	-0.046954602
9	0xbd774232	-0.060365863
10	0xbdb830ed	-0.08993707
11	0x3d24c707	0.04022887
12	0xbc589b27	-0.013220585
13	0x3d917c04	0.07103732
14	0xbca6bddc	-0.020354204
15	0x3bb6771c	0.005568398
16	0xbdb1a5bc	-0.086741894
17	0x3d18cbe1	0.03730381
18	0xbb3f6112	-0.0029202146
19	0x3db6d241	0.089268215
20	0x3d3b5cc6	0.045742773
21	0x3c84103b	0.01612102
22	0x3d01bc37	0.031673636
23	0x3d4e70c5	0.050400514
24	0xbc0d8db7	-0.0086397445
25	0x3c45437a	0.012040013
26	0x3b513093	0.0031919822
27	0xbd734994	-0.05939634
28	0xbd73967b	-0.05946968
29	0x3cb26b5c	0.021779709
30	0x3da3c910	0.07997334
31	0x3d8450b1	0.06460703
32	0x3d66ad2d	0.056317497
33	0x3d1148ba	0.035469748
34	0x3d64d62b	0.05586831
35	0xbd061899	-0.032738302
36	0xbd024b25	-0.031809945
37	0x3c89f42a	0.01684006
38	0xbc908de8	-0.017645791
39	0xbdbfba20	-0.093616724
40	0x3d4bda5d	0.049768794
41	0x3d340840	0.04395318
42	0xbdbc03c2	-0.09180404
43	0x3d9f6937	0.0778374
44	0xba824b8a	-0.0009940725
45	0xbda2a87a	-0.079422906
46	0xbd5ade7e	-0.05343484
47	0x3c4b04be	0.012391267
48	0xbd9277b6	-0.07151739
49	0x3d877e72	0.066159144

model.all_layers.3.running_var f4 [50]
0	0x40487c51	3.1325877
1	0x3f84ffaa	1.0390522
2	0x4020d67b	2.5130908
3	0x40212bbd	2.5182946
4	0x3fa745a3	1.3068126
5	0x3f58a4f6	0.8462671
6	0x3fe85d10	1.81534
7	0x3fb567a1	1.417225
8	0x3fb3a96e	1.4036081
9	0x3f72c3c8	0.9482999
10	0x3f6c72ca	0.92362654
11	0x3f95ab5e	1.1692922
12	0x3fba22d8	1.4541883
13	0x3f7920c4	0.9731562
14	0x404ef805	3.233888
15	0x3fa62582	1.2980196
16	0x3f68e593	0.909753
17	0x3f711530	0.94172955
18	0x3fa21ec9	1.2665645
19	0x3fff5669	1.9948245
20	0x3f838337	1.0274419
21	0x3febac1a	1.8411896
22	0x3f8653b1	1.049429
23	0x3f9c7299	1.2222472
24	0x3f88815f	1.0664481
25	0x3ff40214	1.9063134
26	0x4000d402	2.01294
27	0x3fce8638	1.613471
28	0x3fdea159	1.7392989
29	0x3fb1c548	1.388833
30	0x3fb16bf6	1.3861072
31	0x3f883cd4	1.0643563
32	0x3f9720c4	1.1806874
33	0x3fc80b2c	1.5628409
34	0x3fa02386	1.2510841
35	0x3f94eba5	1.1634413
36	0x3fb35605	1.4010626
37	0x3fecadf1	1.8490583
38	0x3f803d80	1.0018768
39	0x3f94dcb7	1.1629857
40	0x3fa17deb	1.2616552
41	0x3f93831f	1.152439
42	0x403a29d5	2.9088032
43	0x3fb8a413	1.4425071
44	0x3f6fa9e0	0.93618584
45	0x4097b656	4.741008
46	0x4014b3e3	2.3234794
47	0x402f52ec	2.7394361
48	0x3f84c525	1.0372664
49	0x3f8ef218	1.1167631

model.all_layers.4.weight f4 [2, 50]
0	0x3d92a1f4	0.07159796
1	0xbe013dcc	-0.1262123
2	0xbca44c7a	-0.020055998
3	0xbd061557	-0.032735195
4	0x3a277af7	0.00063888676
5	0x3cc79775	0.024364213
6	0xbdaa86ec	-0.083265156
7	0x3d3ab882	0.045586117
8	0xbd6fde3c	-0.05856155
9	0xbd99eeae	-0.07516228
10	0x3cb02836	0.02150355
11	0xbc20fa6e	-0.009825332
12	0xbd451ce2	-0.048123248
13	0x3e17696e	0.14786312
14	0x3dfba3d8	0.1228711
15	0x3cf173b8	0.029474124
16	0x3d0b064b	0.03394155
17	0xbcb8f54d	-0.022577906
18	0xbb8c0bc9	-0.004273866
19	0x3dc6cf47	0.09707504
20	0xbc8a4e5f	-0.016883073
21	0x3d05399a	0.032525636
22	0xbd8becd9	-0.068322845
23	0xbd6d17a7	-0.057883885
24	0xbc4cd8b3	-0.012502837
25	0xbdb3b3be	-0.087745175
26	0x3c4ee6c0	0.012628257
27	0xbc87d0d3	-0.016579067
28	0xbdd3b4f0	-0.103372455
29	0x3daf812f	0.08569562
30	0x3d1fc40d	0.039005328
31	0xbdac751a	-0.08420773
32	0xbdb3fca7	-0.08788424
33	0x3d99d0bd	0.07510517
34	0xbc10889c	-0.008821633
35	0xbd7184a9	-0.058964405
36	0xbd2a51c7	-0.041581895
37	0x3dde9e60	0.108700514
38	0x3cce9046	0.02521528
39	0xbdea352d	-0.11435924
40	0xbd61faeb	-0.055170935
41	0xbda4c35a	-0.08045073
42	0xbd3812f5	-0.044939954
43	0xbdf692bf	-0.12039708
44	0xbe05938e	-0.13044569
45	0x3dc41052	0.09573425
46	0xbd2fa238	-0.042879313
47	0xbe00c146	-0.12573728
48	0xbd343f84	-0.044005886
49	0xbd3b9d71	-0.045804445
50	0xbd9ecd61	-0.07754017
51	0xbdd4811d	-0.10376189
52	0x3db905cb	0.09034308
53	0x3d543a9b	0.051813703
54	0x3dc84d10	0.097803235
55	0x3de70911	0.11281026
56	0x3d042496	0.032261454
57	0x3ccbf875	0.024898747
58	0x3c5b68df	0.013391702
59	0x3da8fa0e	0.08250819
60	0x3d2d5f5a	0.042327262
61	0xbdbef262	-0.093235746
62	0xbcf4fc12	-0.029905353
63	0x3dca93a9	0.09891445
64	0xbbba8591	-0.005692192
65	0x3bdaa62b	0.006672641
66	0xbcebb8cd	-0.028774643
67	0x3dd44a7d	0.1036577
68	0x3d9b97ca	0.07597311
69	0xbbb834e2	-0.0056215385
70	0x3c5d7693	0.01351704
71	0xbd36b43c	-0.04460548
72	0x3c951212	0.018197093
73	0xbd33a97d	-0.04386281
74	0x3d59eb4d	0.053202916
75	0x3bd353d1	0.0064492007
76	0xbd68eaa9	-0.056864414
77	0xbddfb057	-0.10922306
78	0xbde04798	-0.109511554
79	0x3d2a4bb2	0.041576095
80	0x3e2a3503	0.16621785
81	0xbd672f94	-0.05644186
82	0x3d9d1656	0.07670276
83	0xbdb45b58	-0.08806485
84	0x3d727df9	0.059202168
85	0x3d92ea28	0.07173568
86	0xbdda184c	-0.106491655
87	0x3c2476ec	0.010038119
88	0x3d92c53e	0.07166527
89	0xbdcc05b7	-0.099620275
90	0x3b71a410	0.003687147
91	0xbd69855a	-0.05701194
92	0x3d1519b2	0.036401458
93	0xbc9d87ee	-0.019229855
94	0xbd46af54	-0.04850705
95	0xbda89c1c	-0.082329005
96	0x3d3788a9	0.044808064
97	0x3cab76ae	0.020930614
98	0x3c487a12	0.012236135
99	0xbd854957	-0.06508129

model.all_layers.4.bias f4 [2]
0	0xbb42dd5f	-0.0029733998
1	0xbe3308f8	-0.1748389
