unit06-dl-tips/6.8-debugging/logs/my-model/version_1/checkpoints/epoch=24-step=11250.ckpt (torch, 71730 bytes, 14 tensors)

model.all_layers.0.weight f4 [100, 100]
000000 72 fd 19 bd b2 ce a3 bd 53 ac 53 be 40 c9 c7 bd
       -0.03759522 -0.079984084 -0.20671205 -0.09755182
000010 3b 9a fd bd 2f 27 d7 3d 53 58 85 bd 61 31 2f bd
       -0.12382933 0.105055206 -0.06510987 -0.0427717
000020 ab c7 1d be 69 d3 8e 3d f4 25 ce bd 21 de 6b 3e
       -0.15408199 0.06973917 -0.10065833 0.23033954
000030 11 75 ab bd c7 d6 96 bc 8e c3 fb bd 5f 3e a7 3b
       -0.08371938 -0.01841296 -0.122931585 0.0051038708
000040 69 42 f2 bd 86 9d 07 3e 29 d1 05 3c 9f 83 f9 3d
       -0.11829073 0.13243684 0.008167543 0.12183308
000050 0a f8 41 3d fa ee ff 3c 08 41 f5 bc 93 3e 67 3c
       0.04735569 0.031241883 -0.029938236 0.01411404
000060 b5 5f cc bd 2e ae 93 3c 33 29 a0 bd de 37 a2 bd
       -0.09979192 0.018027391 -0.07820358 -0.07920812
000070 97 ce 89 3d 08 b3 78 be ce da 3b 3e 0d 84 2c 3e
       0.06728857 -0.24287045 0.18345186 0.16847248
000080 e1 76 98 bd 2a 57 97 3c 49 27 12 3d ac d5 be bd
       -0.07444549 0.01847418 0.035681996 -0.093180984
000090 6f 94 df bd ae 46 5d bd 89 e7 db bd 43 94 b9 3d
       -0.10916983 -0.054022484 -0.10737521 0.09061482
0000a0 a9 80 8f bc de ad 3c bd 23 c7 31 3e 21 a2 04 3e
       -0.017517405 -0.04606425 0.17361121 0.12952472
0000b0 59 b8 c0 bd 0c 25 98 3d 05 c7 cb 3c 89 b2 63 3d
       -0.094101615 0.07428941 0.024875173 0.055590186
0000c0 9d 03 57 3e b6 12 40 3e 4d 75 4a bd 47 12 f0 3c
       0.20997472 0.18757138 -0.049428273 0.02930559
0000d0 e0 24 24 bd 9e 21 8f 3d 22 be ab bc 9a c5 25 bc
       -0.04007423 0.06988834 -0.020964686 -0.010117913
0000e0 f2 93 3e bd 78 48 09 3e d5 4f 30 3e 12 30 66 bc
       -0.04652781 0.13406551 0.17217954 -0.014049547
0000f0 49 68 1f bd b4 aa ea bb 60 9f 0a be 5c 95 38 bd
       -0.038917813 -0.0071614627 -0.13537359 -0.045064315
000100 56 6d 1b be 5e dc 3d 3c 42 f2 cf 3c 59 80 0d 3d
       -0.15178427 0.011588184 0.025384072 0.03454623
000110 ab 55 04 be e0 f8 05 3e fc b6 8f 3e 74 b7 af 3d
       -0.12923305 0.1308322 0.28069293 0.08579913
000120 61 76 d8 bd 9e d5 6c be fe d0 8e 3c 2a c6 72 3d
       -0.10569454 -0.23128363 0.01743364 0.059271015
000130 12 7e 2d bd 24 17 05 be ab 29 00 bd 67 f3 01 3e
       -0.04235656 -0.12997109 -0.031289738 0.12690507
000140 d2 00 e6 3d 41 c4 75 bd 06 e5 b8 3d e3 71 8f bc
       0.11230625 -0.060001615 0.09028058 -0.01751036
000150 0e 9d e0 bd 2a 10 99 bd 19 91 c6 3b e6 2b d3 3c
       -0.10967456 -0.07473786 0.0060597775 0.025777768
000160 6e 36 b1 39 54 27 46 bd d1 5f 1f bc a0 41 e9 3d
       0.00033800624 -0.04837735 -0.009727434 0.1138947
000170 bf b8 04 3e f9 4b 67 bc 68 05 df bd 85 1c a8 bc
       0.129611 -0.014117234 -0.10889703 -0.020521412
000180 29 e6 7d 3d a1 02 7a 3d 32 7f b1 3d 91 b8 f3 bd
       0.061987076 0.061037663 0.08666839 -0.119004376
000190 fe 7a 23 bc ed af 15 be 74 ca 52 3d d5 a7 cc bc
       -0.009978054 -0.14617892 0.051462606 -0.024982372
0001a0 b7 cd e7 3b 5b 48 c0 3c 67 48 e2 3c 4a 6a 84 3d
       0.0070740837 0.023472002 0.027622415 0.064655855
0001b0 9c e3 89 bd 53 a6 c4 bd da 35 9c 3d b3 90 07 be
       -0.06732866 -0.09602036 0.07627459 -0.13238792
0001c0 0b 62 d9 3d b4 7b d8 bb ad 42 df 3d 0e f1 45 3d
       0.10614403 -0.0066065434 0.10901389 0.04832559
0001d0 b5 de a1 bc 72 26 1d bd 8e 61 a9 3d 00 cd 0b 3e
       -0.019759515 -0.038366742 0.0827056 0.1365242
0001e0 fb 59 ab bd 24 95 21 3e a9 ed 55 3e 61 35 04 bd
       -0.08366772 0.15779549 0.20891441 -0.03227747
0001f0 1f b8 ef 3d a6 a7 4e be 05 80 a1 bc 51 bb fd 3c
       0.1170504 -0.2018114 -0.019714365 0.030973108
000200 f7 e9 6d bd 9e 28 91 3d 1d 39 d7 bd 4e 09 24 3d
       -0.058084454 0.07087825 -0.1050894 0.040047936
000210 6a 18 fb 3d 03 ab 95 bd 06 32 00 bd e8 d8 55 bd
       0.12260516 -0.073080085 -0.031297706 -0.05220881
000220 5a 4f be 3d ba 20 b3 3d 51 e6 a8 3c 63 79 ef 3a
       0.09292479 0.087464765 0.020617636 0.0018270429
000230 c1 a3 61 3d ef a0 33 bc 65 95 38 bd a3 3b 6c 3e
       0.05508781 -0.0109636625 -0.04506435 0.23069625
000240 9b f5 10 3e 6e 09 12 be d4 31 b8 bd 5a 71 7a 3b
       0.14156191 -0.1426141 -0.08993879 0.0038214535
000250 76 55 27 be a2 a9 f7 3c c7 5a e5 bd 25 7d 62 bc
       -0.16341195 0.030232254 -0.11198955 -0.013823782
000260 b1 c6 e3 3d ac 45 78 3d 40 6e 3e be fe 3e 99 bb
       0.11121882 0.06061332 -0.18596745 -0.0046766987
000270 6e d6 21 bd 27 8c c1 3c 7d 78 58 be 4f e6 f3 3b
       -0.039511137 0.0236264 -0.21139713 0.0074432264
000280 0a 71 2f 3d 31 be a3 3d f5 08 33 bc d6 cf 0d 3e
       0.04283241 0.079952605 -0.0109274285 0.13848814
000290 8c ca 84 3e 37 d5 ce 3d b0 4f f1 3c f6 71 1a 3e
       0.2593578 0.10099261 0.029456943 0.15082535
0002a0 c5 9c d3 3d 3c ab da 3d c9 7b b3 bd 1a 63 90 3d
       0.10332636 0.106771916 -0.087638445 0.07050152
0002b0 3c 8a 17 3d 11 e2 2c 3c 05 2d f0 bd ea ad 84 3d
       0.036997065 0.010551945 -0.11727337 0.06478484
0002c0 77 bf 69 be 88 55 06 bd 54 8e 29 3e b9 e7 b5 bd
       -0.22826944 -0.032796413 0.165582 -0.08882088
0002d0 c4 39 fb bc 80 d7 dc 3d 0a ee 8f 3d ba 42 a0 be
       -0.030667193 0.10783291 0.07027824 -0.31300908
0002e0 60 f7 61 bd 76 b6 b7 bc 99 1b dc bd 03 65 24 3e
       -0.055167556 -0.022425871 -0.10747451 0.16054158
0002f0 40 bf bd 3d 5f ec 6a be 8f 06 0a be 50 6b fd bd
       0.09264994 -0.22941731 -0.13479064 -0.12373984
000300 99 e0 08 3e 4f ed 4e 3c 54 3e 34 be bc da 15 3e
       0.13366927 0.012629821 -0.17601901 0.14634222
000310 30 04 d2 3b 79 0d 2c be 03 96 0d 3e e9 62 b9 3c
       0.0064091906 -0.16802014 0.13826756 0.022630172
000320 04 8b 44 be 1e be 05 be c5 42 ac 3e ad 45 1c 3d
       -0.19193655 -0.13060805 0.3364469 0.038152386
000330 9d a0 96 3c 44 8e 03 3c 9e 78 2f be 12 f2 8d bc
       0.018387133 0.008029524 -0.17135856 -0.017327342
000340 f7 c7 40 be 30 d8 2a bd be c3 99 3d e2 90 0e be
       -0.1882628 -0.04171008 0.07508038 -0.13922456
000350 d2 c8 1b 3e 72 36 04 be 13 38 db 3d 3c f3 0e be
       0.15213326 -0.12911394 0.10704055 -0.13959974
000360 db c5 18 3e e2 5e 41 bd 55 18 35 3c 7a 48 e4 bc
       0.14919226 -0.047209628 0.0110531645 -0.02786659
000370 81 44 2b be 01 7b d0 bd 4f dd 87 3e 88 21 b7 3d
       -0.16725351 -0.10179711 0.26536033 0.089419425
000380 2e 31 ce 3d 76 5c 87 be c8 63 99 bd 58 18 3a bd
       0.10067974 -0.2643773 -0.07489735 -0.045433372
000390 af fc a6 bd 30 67 0b 3d 69 69 2c bd 51 29 15 be
       -0.08153664 0.034033954 -0.042092714 -0.14566542
0003a0 a0 3b 93 3d e9 12 4b bd 3e 0f b2 bd d7 b0 05 be
       0.07189107 -0.04957858 -0.086943135 -0.1305574
0003b0 db b2 3b 3e 28 9e ef 3d 79 e1 f9 bd d4 1a 37 3e
       0.18329947 0.11700088 -0.122012086 0.17881328
0003c0 80 73 28 3e 02 a1 44 be 54 bd 92 be d4 76 ec bd
       0.1645031 -0.19202045 -0.2866007 -0.11546102
0003d0 ce 75 1f 3e ba 18 3e bc 03 8a 1e be 7d 42 85 3d
       0.15572283 -0.011602575 -0.15482335 0.06506822
0003e0 f3 0b be bd ea ed 14 3e 47 b0 93 3d e0 4d 64 be
       -0.09279623 0.14543882 0.072113566 -0.22295332
0003f0 4a 37 83 3e 03 9b b9 bc e5 14 dc bd 42 8d 77 bb
       0.2562812 -0.022656923 -0.10746173 -0.0037773405

model.all_layers.0.bias f4 [100]
000000 50 10 73 3c 4f eb 8b 3d 0c 7d ee 3c e6 a8 13 bd
       0.014835432 0.06831991 0.029112361 -0.036049746
000010 00 a0 3d bc 22 04 6e 3d 52 25 0b 3d ad 1a 7d 3b
       -0.0115737915 0.05810941 0.03397114 0.0038620636
000020 87 56 49 bd 3b 5f a0 3d 7a b7 b0 bd 7d da b9 bd
       -0.049154785 0.07830664 -0.086287454 -0.090748765
000030 18 51 b5 3c b7 ee 85 3d 3a 3b c1 bd 52 8d 10 3d
       0.022133395 0.06539672 -0.09435125 0.035291024
000040 37 17 4a bd 65 78 8f 3d e0 9b d0 bc 83 ea bf 3d
       -0.049338546 0.07005385 -0.025464952 0.093709014
000050 6d 84 27 bd af f5 9f bb c1 f1 86 3d a0 ed db bc
       -0.040897775 -0.0048815827 0.0658908 -0.026846707
000060 80 65 af 3b 01 ab 9c 3d 1c a0 10 bd 25 1b a1 bd
       0.005352676 0.07649804 -0.035308942 -0.078665055
000070 68 1a 0f 3c 9f ff b5 bd 19 9e 92 3d 70 9e 1d 3c
       0.008734323 -0.088866465 0.07159061 0.009620294
000080 14 47 de bc d8 59 75 bc 5f 40 aa 3d 98 f1 f2 bc
       -0.027133502 -0.014975034 0.08313059 -0.029656217
000090 93 3a 81 ba 50 bf 69 3c c0 7b 18 3c 8a cd 54 bd
       -0.0009859375 0.014266804 0.009306848 -0.05195383
0000a0 a0 d5 d0 bb c3 54 26 bd 59 2d 0c bc 9b eb 91 bd
       -0.0063731223 -0.04060818 -0.008555734 -0.07125016
0000b0 7a d2 14 3d bd 18 25 bd 70 06 63 3c 2f d3 c7 3d
       0.03633354 -0.040306795 0.013856515 0.09757077
0000c0 54 72 e7 3c f4 a3 80 bd 5d 74 9f bd 60 fc 7f bd
       0.028252758 -0.062812716 -0.077858664 -0.062496543
0000d0 25 d9 8b 3d 67 a8 a0 3d 7a fd 0a 3d d2 37 9f bd
       0.068285264 0.0784462 0.03393314 -0.07774319
0000e0 cc a7 dc 3c 92 a7 08 3d 08 83 9a bc bc 15 f5 3c
       0.02693548 0.033362933 -0.018861309 0.02991759
0000f0 c9 56 b1 3d b8 03 c6 bc 7d 5d 81 3d ac fe bf 3c
       0.08659131 -0.024171695 0.063166596 0.023436867
000100 65 d0 b5 bd f0 df 00 bc e8 bc d1 bc 68 69 1b bc
       -0.08877639 -0.007865891 -0.025602773 -0.00948558
000110 a2 2f 97 bb c5 37 99 bd 9e c6 48 3d b5 47 88 bd
       -0.0046138326 -0.0748134 0.04901754 -0.06654302
000120 30 7f 49 bd 71 87 c5 3d b8 49 ae 3c 58 36 0e bc
       -0.04919356 0.09644974 0.021275386 -0.008679949
000130 de 4c 4d 3d 3d 5f c7 3d 27 46 4e bd 52 9d bd bd
       0.050122134 0.09734962 -0.05035987 -0.09258522
000140 58 7c 71 bc 72 35 80 bd f0 5c c0 bd 8a 0c 0a bd
       -0.0147391185 -0.06260194 -0.093927264 -0.033703364
000150 00 7c c0 bc 59 ba 85 ba f2 aa 37 3d e1 15 8a 3d
       -0.023496628 -0.0010202631 0.04484076 0.06742454
000160 14 c2 c5 bc 94 66 f8 bc d3 19 7a bd ff 41 92 3d
       -0.024140395 -0.03032235 -0.061059784 0.07141494
000170 56 17 1c 3d 10 f9 63 bc d6 1a 73 3d 41 f5 a5 3d
       0.038108192 -0.013914362 0.059351765 0.08103419
000180 04 a0 05 bd 77 c3 96 3d a6 ec 10 bd 2c 16 a0 bc
       -0.032623306 0.07361501 -0.035381936 -0.019541822

model.all_layers.1.weight f4 [100]
000000 a8 95 5f 3f f9 b5 6a 3f 80 f7 6a 3f 4a 6f 7e 3f
       0.8733773 0.9168392 0.91783905 0.99388564
000010 f5 49 70 3f 7f d3 86 3f b2 49 ac 3f 90 68 8e 3f
       0.9386285 1.0533293 1.345999 1.112566
000020 19 b3 79 3f 98 68 5e 3f dd b3 79 3f b9 3d 87 3f
       0.97538906 0.8687835 0.97540075 1.0565711
000030 39 dd 74 3f c9 d9 78 3f 82 48 4b 3f 88 e8 88 3f
       0.9565006 0.97207314 0.79407513 1.0695963
000040 b0 c9 6e 3f a7 94 94 3f 12 7a 7a 3f 55 5f 8e 3f
       0.932765 1.1607865 0.97842515 1.1122843
000050 ea a4 6b 3f 9f 38 7e 3f 1f 7d 67 3f 88 11 8b 3f
       0.92048514 0.99305147 0.90425295 1.0864725
000060 17 1d 62 3f 25 c7 86 3f 42 21 8b 3f f5 9e 8e 3f
       0.8832564 1.0529524 1.0869524 1.114226
000070 d4 63 90 3f c5 d7 61 3f 42 3d a2 3f b8 28 7f 3f
       1.1280465 0.88219863 1.2674944 0.99671507
000080 f5 00 8f 3f 0a 4a 58 3f e3 7a 84 3f de 74 89 3f
       1.1172167 0.84487975 1.0350002 1.073879
000090 60 b1 8b 3f d6 cd 71 3f 7d d7 8f 3f 6a e9 b7 3f
       1.0913506 0.94454706 1.1237637 1.4368107
0000a0 5b ce 6a 3f ce dc 81 3f 3d 2a 8b 3f 3a 79 85 3f
       0.91721123 1.0145509 1.0872265 1.042762
0000b0 1e b5 7b 3f f6 2f 8a 3f 10 ac 80 3f f4 62 88 3f
       0.9832324 1.0795887 1.0052509 1.0655198
0000c0 e5 52 72 3f 7d db 8a 3f 69 72 60 3f 02 13 80 3f
       0.94657737 1.0848233 0.87674576 1.0005801
0000d0 f4 34 62 3f c1 96 79 3f a9 6e 7c 3f 90 94 6f 3f
       0.8836205 0.9749566 0.98606354 0.93586063
0000e0 6b d3 71 3f e4 48 90 3f f0 6f 6c 3f e4 08 5c 3f
       0.94463223 1.1272244 0.92358303 0.85951066
0000f0 f9 7c 6b 3f 1c 7f 64 3f 81 80 8b 3f 34 b0 82 3f
       0.9198757 0.89256454 1.0898591 1.0210023
000100 9c 3d 97 3f 7d 6e 94 3f f3 0a 80 3f 55 39 81 3f
       1.1815677 1.1596218 1.0003341 1.0095621
000110 4e 85 99 3f d0 bd 88 3f 85 b1 7c 3f 01 52 70 3f
       1.1993806 1.0682926 0.98708373 0.9387513
000120 4a 39 8f 3f 19 02 8c 3f 50 4f 56 3f 30 cd 7b 3f
       1.1189358 1.093814 0.8371477 0.98359966
000130 4e b7 4d 3f 50 1b 7e 3f e7 27 8e 3f 41 ed 8d 3f
       0.80357826 0.99260426 1.1105927 1.1088029
000140 db 89 8f 3f 0c 8b 5b 3f 40 7f 81 3f ad 97 8d 3f
       1.1213945 0.85759044 1.0116959 1.1061913
000150 5b 6c 76 3f b6 46 6e 3f e5 b3 92 3f 4c b7 76 3f
       0.9625909 0.93076646 1.146115 0.9637344
000160 39 19 8a 3f 57 3e 7e 3f a2 c3 95 3f 2a 3c 71 3f
       1.0788947 0.99313873 1.1700327 0.9423243
000170 7c dc 6e 3f 02 c9 58 3f b6 b5 8b 3f b3 3d 98 3f
       0.9330518 0.84681714 1.0914829 1.1893829
000180 98 89 94 3f cb f7 8d 3f 08 98 6d 3f fa f5 8d 3f
       1.160449 1.1091245 0.92810106 1.1090691

model.all_layers.1.bias f4 [100]
000000 97 dd 77 be 5c 90 91 be c5 38 70 bd ed b8 43 be
       -0.24205624 -0.2843045 -0.05864789 -0.19113512
000010 57 80 5f be 6e 9f 61 3d c2 b9 8a be 0e 0c 00 bf
       -0.21826302 0.055083685 -0.27094847 -0.50018394
000020 57 77 32 be b1 f1 4b be fd a4 90 bd 31 3c e9 3a
       -0.17428337 -0.19916417 -0.07062719 0.0017794428
000030 5a 07 4e be 94 83 92 bd 35 05 b5 bd 71 65 88 be
       -0.20119992 -0.07154003 -0.08838884 -0.26639894
000040 dc a8 55 be 74 94 d5 bd 5c 9c 29 be 34 de 32 be
       -0.20865196 -0.10428706 -0.16563553 -0.17467576
000050 e9 31 6a be c2 c5 ea be 41 c4 cc 3d f8 b2 b9 bd
       -0.22870602 -0.45854002 0.0999837 -0.09067339
000060 f2 8a b8 be 73 19 b2 bd 07 2c 0c be 1f 89 83 be
       -0.36043507 -0.0869626 -0.1368867 -0.25690553
000070 f8 12 30 be dc 61 ce bd 38 e9 9f be 82 a6 fe 3d
       -0.17194736 -0.10077259 -0.3123262 0.124341026
000080 7f 39 00 be 9f 06 cb bd d1 b3 8f 3c 0b 36 75 bd
       -0.12521933 -0.09913372 0.017541798 -0.059865993
000090 e1 cf 1e 3e 10 a2 a1 be 10 1d 96 be eb 7f 12 bc
       0.15508987 -0.31568956 -0.29319048 -0.008941631
0000a0 a8 2b 0c be bd 2a 14 3e d3 71 25 be 03 e0 8a be
       -0.13688529 0.14469428 -0.16156702 -0.27124032
0000b0 5f 11 37 3d 4b 4b 22 3c 52 15 75 3d 16 92 54 3e
       0.0446943 0.009905647 0.059834786 0.20758852
0000c0 16 45 14 bc 9b 7e 45 be ab 5a c9 bd 2b 4a 0c 3d
       -0.0090496745 -0.19286577 -0.09831747 0.03425042
0000d0 93 01 5a be af 80 b9 bd 04 ae 3c 3d fe f5 93 be
       -0.21289663 -0.090577476 0.04606439 -0.28898615
0000e0 aa b2 a6 be 31 55 8c be 96 ee 8a be 79 e6 9d bd
       -0.32558185 -0.27408746 -0.27135152 -0.07709975
0000f0 b4 86 9c be 3b d9 8f be cd 76 0f 3e f0 68 cb 3d
       -0.3057152 -0.2809542 0.14010163 0.099321246
000100 02 db 8a be 21 20 1c 3e af 11 28 be 70 a4 53 3d
       -0.27120215 0.15246631 -0.16412996 0.05167049
000110 d5 1b 04 3d 93 eb 52 3e 92 0f 48 be b5 9c e4 be
       0.032253105 0.20597677 -0.1953719 -0.44650808
000120 10 83 03 bd 4e 98 dd be 15 ce 19 bd 58 8e 82 bc
       -0.032107413 -0.43280262 -0.03755005 -0.015937015
000130 13 2a 2d be 39 1e e1 3d 25 be 1b be f2 e5 46 bd
       -0.16910581 0.10992093 -0.15209253 -0.048559137
000140 6c 02 80 bd 43 e4 18 be bc 95 52 3d c3 08 90 3e
       -0.06250462 -0.14930825 0.05141233 0.28131685
000150 f9 f1 58 be c2 64 b5 bd c2 f7 cb be 93 3a 21 3e
       -0.21186055 -0.08857109 -0.39837462 0.15745
000160 82 27 56 be 76 84 2c 3d c8 78 8c be c0 c0 46 be
       -0.20913509 0.042118512 -0.274359 -0.19409466
000170 ad c8 1a be aa 3e e5 bd 32 ad 64 be df 97 1a be
       -0.15115614 -0.11193593 -0.22331694 -0.15096997
000180 f9 00 30 be 41 1b 93 be 56 a6 34 3e 33 d7 86 be
       -0.17187871 -0.2873173 0.17641577 -0.2633606

model.all_layers.1.running_mean f4 [100]
000000 c9 f8 52 be de 2f a3 3e 8a cf c4 3e a6 73 d1 bf
       -0.20602717 0.31872457 0.3843959 -1.6363418
000010 9e b0 16 bf 52 b3 2d 3e 70 6d f6 be 65 6c 61 3f
       -0.58863246 0.16962937 -0.4813037 0.8805602
000020 8b 88 34 bf 73 82 83 bf cb 6e 9a 3f 0a a5 3f 3f
       -0.7052085 -1.0274185 1.2065061 0.74861205
000030 8b 8a 95 3e 80 1d a8 bf b4 a0 f2 bf d1 bc 84 bf
       0.29207262 -1.3134003 -1.8955293 -1.0370122
000040 b8 a6 bf bd ad 05 23 3f cc 0e 99 bf e1 98 4b 3f
       -0.09357971 0.63680536 -1.1957641 0.7953015
000050 0a 73 b4 3f 92 a8 16 bf f1 51 87 3e 70 b9 9f 3f
       1.4097607 -0.5885097 0.26429704 1.2478466
000060 6a ac 64 bf e3 aa 8f bf 1e 67 5d bd 5a a4 cf 3e
       -0.89325583 -1.1224025 -0.05405342 0.40555078
000070 e4 6d b3 3c 36 cd d4 be 61 d3 18 bf f0 20 1c bf
       0.021902986 -0.41562814 -0.5969754 -0.6098776
000080 c0 87 13 be 65 41 ed bd e1 a8 25 be 6f 98 f8 be
       -0.14407253 -0.11584739 -0.16177703 -0.48553798
000090 67 2c 10 3f ea 23 16 3d 61 18 b6 3f 52 fd 97 3f
       0.5631775 0.036655344 1.422619 1.1874182
0000a0 42 6d a9 be c7 e6 d9 3d 08 6f 06 bf 64 a9 12 c0
       -0.3309117 0.106397204 -0.5251317 -2.2915888
0000b0 e9 04 62 3f b6 37 e8 3f 89 71 63 bf bf ec 33 40
       0.8828874 1.8142002 -0.88845116 2.8113248
0000c0 fd f8 aa 3d 1e ae 42 bf 1c ea 73 3f 8a 4e aa 3f
       0.08348272 -0.7604693 0.952791 1.3305218
0000d0 9f 1e aa 3e 68 49 6f 3f 5e c6 ce 3f 7c 9e b3 bf
       0.33226487 0.93471384 1.6154287 -1.403274
0000e0 75 34 77 3f bb a5 1f 3e 8e 98 c8 3d df cd a6 3e
       0.9656442 0.15590565 0.097947225 0.32578942
0000f0 a1 5f 4f be ce a0 1b bf 22 c7 02 c0 23 8e c2 3f
       -0.20251323 -0.60792243 -2.043404 1.5199627
000100 bd 80 3e bf aa 27 56 bf 64 3f 6a be c0 79 6d 3f
       -0.7441519 -0.8365427 -0.22875744 0.927639
000110 3e 9a c7 bf fd 6e 0a bd e5 a1 d3 3e 5f c6 85 3f
       -1.5593946 -0.033797253 0.41334453 1.0451163
000120 34 f0 12 3e ae 50 45 3f fb 0c 17 bf f3 cc e5 3e
       0.14349443 0.7707623 -0.5900418 0.44882926
000130 4e fc 15 bf e6 12 8d be 60 be 7b 3e 05 9c 02 c0
       -0.5858811 -0.2755348 0.24584341 -2.0407727
000140 c5 22 a8 bf a8 f3 73 bf 3a f0 c0 bf b8 19 16 3f
       -1.3135611 -0.95293665 -1.5073311 0.58632994
000150 34 f9 e3 3e 03 4b 8c bf 72 13 f4 bd 29 d9 b8 be
       0.44526064 -1.0960392 -0.119177714 -0.3610318
000160 ca ec 24 3f 42 ed a1 3f 10 05 0f 40 fc ec 81 3f
       0.6442381 1.265053 2.234684 1.0150447
000170 3a 59 b0 3e 24 39 eb be 1d 6f 5f bf a0 e5 5f 3f
       0.34443074 -0.45942032 -0.8727892 0.87459755
000180 43 4b bb bd 2f 6c 75 bf e7 85 a7 3f bc 13 0b c0
       -0.091452144 -0.958682 1.3087739 -2.1730795

model.all_layers.1.running_var f4 [100]
000000 d4 04 61 42 f5 d4 2c 42 6a b3 9c 42 17 24 88 42
       56.254715 43.207966 78.35042 68.07049
000010 f3 2d 0f 42 be 4c 78 42 d3 fc fc 42 2d 44 b3 42
       35.794872 62.074944 126.4938 89.633156
000020 16 e7 84 42 df 73 3e 42 e7 61 e5 42 16 f9 b2 42
       66.45134 47.613155 114.691216 89.486496
000030 7c 8e 8d 42 ad 6e 87 42 4f e9 6c 42 67 46 95 42
       70.77829 67.71616 59.22784 74.637505
000040 fc ed 47 42 67 e9 ac 42 fb 9c 7a 42 c9 47 cd 42
       49.982407 86.455864 62.6533 102.640205
000050 ba 2d 8c 42 09 62 62 42 f2 da 64 42 c5 57 82 42
       70.08931 56.595737 57.213814 65.171425
000060 7a 7c 28 42 3c a6 ea 42 0a 22 93 42 21 0a 7d 42
       42.12156 117.32468 73.56648 63.25989
000070 d0 8d a9 42 d6 ea 6f 42 78 fe a6 42 e4 41 e9 42
       84.77698 59.979332 83.49701 116.62869
000080 cf 76 e2 42 63 14 77 42 e2 0c df 42 36 a9 86 42
       113.23205 61.76991 111.52516 67.33049
000090 74 27 ab 42 b0 76 3e 42 06 e2 7f 42 1b de 22 43
       85.57706 47.615906 63.970726 162.8676
0000a0 0f 4d 96 42 41 54 ca 42 5c 05 89 42 2c a6 ed 42
       75.150505 101.16456 68.51047 118.824554
0000b0 ed 16 e8 42 bd b4 ba 42 df 44 59 42 60 1a d6 42
       116.04478 93.353004 54.317257 107.05151
0000c0 45 d6 67 42 70 b1 cd 42 6f 34 3a 42 2c a0 d4 42
       57.959248 102.84656 46.551205 106.312836
0000d0 cb 6a 0c 42 d6 1d 00 42 03 37 df 42 a6 a6 8a 42
       35.10429 32.029137 111.607445 69.325485
0000e0 11 9e b3 42 ab c4 09 43 b3 23 29 42 96 47 1c 42
       89.80872 137.76823 42.284863 39.06991
0000f0 cb 71 86 42 8a d9 5a 42 eb c5 1b 43 6d c4 a7 42
       67.22225 54.71244 155.77312 83.883644
000100 23 d4 8e 42 d6 59 ca 42 5b 45 97 42 80 fd 06 43
       71.41433 101.17546 75.63546 134.99023
000110 57 ce 98 42 98 3f 04 43 1f b5 54 42 cf 65 93 42
       76.40301 132.24841 53.176876 73.698845
000120 af d0 bb 42 3e f0 84 42 17 6e 1b 42 61 56 59 42
       93.907585 66.46922 38.85751 54.334354
000130 21 79 73 42 cc 40 98 42 4f ec 5c 42 bc 3f 9f 42
       60.86829 76.12656 55.23077 79.62448
000140 55 85 0e 43 04 c9 57 42 ab 26 b4 42 f8 73 d5 42
       142.52083 53.946304 90.07552 106.7265
000150 1f 51 79 42 2a eb b7 42 05 24 0b 43 4d 3f 75 42
       62.32922 91.959305 139.1407 61.311817
000160 71 23 cf 42 84 66 92 42 89 7f b1 42 da 09 21 42
       103.56922 73.200226 88.74909 40.25962
000170 57 fb 8e 42 de 04 3f 42 5b 5e a2 42 f2 6e 0e 43
       71.4909 47.754753 81.18429 142.43338
000180 88 81 06 43 e8 ab 12 43 3a 69 a9 42 15 3f b5 42
       134.50598 146.67151 84.70552 90.62321

model.all_layers.3.weight f4 [50, 100]
000000 c3 a8 8e be 52 56 6e 3e ea f3 58 be 80 56 1d 3b
       -0.2786313 0.23275116 -0.21186796 0.0024007857
000010 72 ff c4 bd 4b 38 e5 bd 7f b4 12 3e d1 cd 00 3d
       -0.09619035 -0.11192378 0.14326666 0.03144628
000020 9a 0e f2 3c 0c 42 82 bd f2 a4 82 3b 07 46 56 bd
       0.029547978 -0.06360254 0.003986948 -0.052312877
000030 8b a2 10 3e 32 57 87 3d 4f 65 cd 3a 6f 63 36 3e
       0.14124505 0.06608428 0.0015670451 0.17811368
000040 55 6b 46 be 62 8c fc 3d de 7c 18 3e d3 c7 01 bc
       -0.19376881 0.123314634 0.14891383 -0.007921177
000050 72 1f 0f 3e f4 ee 4b be 21 c2 a1 be 2a c9 9f bd
       0.13976839 -0.19915372 -0.3159342 -0.07802041
000060 d5 3c 23 be 89 86 07 be 2e 25 3b 3e 45 01 75 be
       -0.15941174 -0.13234915 0.18275902 -0.23926266
000070 52 31 48 be 77 de 6c bd 95 79 70 3e 4d e8 b3 be
       -0.19550064 -0.057829347 0.2348388 -0.3513817
000080 5d d8 4f 3e f8 13 32 3e 36 47 f1 3b 21 3d 14 3e
       0.2029738 0.1739043 0.0073632253 0.14476444
000090 0c 38 7f bd 59 88 25 3e 8a 89 7b be b9 cb 40 3e
       -0.06230931 0.16165294 -0.24564186 0.18827714
0000a0 37 fc f6 bc ff 6e 4e 3e f2 65 23 3d cc 4c f8 3d
       -0.030149562 0.20159529 0.039892145 0.12124023
0000b0 e0 d3 82 3d ef 82 82 be 55 d8 b2 3d cc 7c 1a be
       0.06388068 -0.2549052 0.08732668 -0.15086669
0000c0 16 31 47 3d dc be 37 3e c9 b6 e6 bd 26 bb 0b be
       0.048630796 0.17943901 -0.11265332 -0.1364561
0000d0 97 a1 68 be 7c 96 09 be e0 f1 e0 3c ee 4c 3a 3d
       -0.22717892 -0.13436311 0.027459085 0.045483522
0000e0 48 bd 1e be 3d 34 ff bd f2 52 b3 3c 3e 61 02 3e
       -0.15501893 -0.124611355 0.021890137 0.12732407
0000f0 a7 dd 75 3d 7c 27 27 be 80 f7 ce bc ac 5c b1 be
       0.060025837 -0.16323656 -0.025264502 -0.34641016
000100 57 46 83 3e 41 f0 c9 3d 04 da 88 be d4 75 28 3c
       0.25639603 0.09860278 -0.26728833 0.010281999
000110 d2 ff 89 3e 69 94 87 bd 06 39 e2 3c 5e 70 4a bc
       0.26952988 -0.06620104 0.027615082 -0.012355892
000120 e4 9b 7d be e1 3d 92 3e 85 17 dc 3d c9 91 d4 bc
       -0.24766499 0.28562835 0.107466735 -0.025948422
000130 9d c8 9a bc aa a3 c8 bd 20 42 76 3e 77 29 37 bd
       -0.018894488 -0.097968414 0.24048662 -0.04471728
000140 9c 42 f0 bc 2b 45 5f bd 2d 31 f4 3d b0 24 95 bd
       -0.029328637 -0.054509323 0.11923442 -0.07282388
000150 44 de b2 bc 5d 63 db bd be da 66 3d e5 fe 09 3e
       -0.0218345 -0.107123114 0.056360953 0.13476141
000160 a0 33 ef 3d 9a 8c 9a bc f7 db a2 3e eb 36 51 bd
       0.116797686 -0.018865872 0.31808445 -0.051077764
000170 cc 71 88 3d 15 fc 85 3e 37 e8 61 3d 78 d1 86 bd
       0.0666233 0.26168886 0.055153098 -0.06582922
000180 73 2c 04 3e f9 e0 38 3e 92 94 15 3e 00 12 36 bd
       0.12907581 0.1805457 0.14607456 -0.04445076
000190 c6 0f 98 bd 0b 90 09 3e 21 43 27 3e 63 10 38 be
       -0.074248835 0.13433854 0.16334201 -0.17975001
0001a0 9b 84 a8 bd 28 7b 85 bc ec b1 72 be d3 93 cb bd
       -0.082284175 -0.016294077 -0.23700684 -0.099403046
0001b0 bc 95 39 3e 08 21 09 be ac 26 82 3d e3 49 30 be
       0.18123525 -0.13391507 0.06355032 -0.17215686
0001c0 a2 51 24 3e db c0 e6 bd 37 2e f1 bd 6c c6 af be
       0.16046765 -0.11267253 -0.11776393 -0.3433107
0001d0 eb 84 15 3c b1 4b 85 be 12 14 9b bd 6f 31 ad 3d
       0.009125928 -0.2603431 -0.075721875 0.08456694
0001e0 b9 14 7d be 08 90 2d 3e e3 ed f5 3b 65 1b 5b be
       -0.24714936 0.16949475 0.007505165 -0.21397169
0001f0 96 9d d2 3d 65 17 c6 bd 6b 2f 84 be d6 b4 56 3b
       0.102839634 -0.09672431 -0.25817427 0.0032761595
000200 c1 cf 21 3d 2a a6 f9 3b e6 a2 26 bd dc 5b 86 3e
       0.03950477 0.0076186853 -0.040682696 0.26241958
000210 80 0c 63 bd d2 c3 8e 3c 7e 42 56 3e f9 31 97 3d
       -0.055431843 0.017427359 0.20923802 0.073825784
000220 b1 a8 b5 be a5 c2 12 be bb be 5f 3c 20 02 b9 3d
       -0.35480264 -0.14332063 0.0136563135 0.090336084
000230 0f 27 25 bd 02 11 77 bd 16 bd 6f 3e 27 40 a1 3d
       -0.040320452 -0.060318954 0.23411974 0.07873564
000240 3b 4f b0 3d de 03 81 be 44 03 0d 3e ac d7 5b be
       0.08608862 -0.25198263 0.13770777 -0.21468991
000250 13 72 2d be b5 b5 c9 3d 23 78 15 3d 16 9a 12 3e
       -0.16938047 0.09849111 0.036491524 0.14316592
000260 a1 38 b1 3d 03 9b b4 bd e2 23 59 bd 22 10 00 be
       0.08653379 -0.08818629 -0.053012736 -0.12506154
000270 5a 20 98 3d d5 43 8e 3e ab e5 c7 3d f8 ae 25 3c
       0.074280456 0.27786127 0.097606026 0.010112517
000280 2b 96 dc 3d 72 26 dc be 3c 3f 4c be a8 97 88 bd
       0.1077083 -0.4299808 -0.19945997 -0.06669551
000290 fb 23 ba 3d ce ce 13 3d 6d a2 65 bd dc 43 29 3e
       0.09088894 0.036085896 -0.056063104 0.16529793
0002a0 9b c6 9b 3d 13 8d 82 3d 8c 96 38 3e 94 81 27 bd
       0.0760624 0.06374564 0.18026179 -0.04089506
0002b0 b0 ea c3 3d 0c 35 00 be cf 26 74 bd 64 e3 3f 3e
       0.095662475 -0.12520236 -0.059607323 0.18739086
0002c0 77 7f 37 3e 7d bb 41 3e 23 76 a9 bd 4f 4e 2c bc
       0.17919718 0.18919177 -0.08274486 -0.010516717
0002d0 76 27 44 3c 3c 7a 6b 3d 77 6d 3e be 30 86 5f 3d
       0.011972299 0.05748962 -0.18596445 0.05457133
0002e0 8c 1c 96 3d 42 e9 76 be 27 94 24 3e bc 11 ad 3d
       0.07329664 -0.24112418 0.1607214 0.08450648
0002f0 42 c5 68 3e bc fe dc 3d 4c 32 e1 3c 77 4d 5d 3d
       0.22731498 0.10790774 0.027489804 0.054028954
000300 fe 0c 48 bc 40 31 23 3e 9a 7f 33 3e 95 75 75 bd
       -0.012210129 0.15936756 0.17529145 -0.059926588
000310 b5 15 45 3d 20 db b8 3d c3 10 3a bd 16 6f 1e bd
       0.048116405 0.0902617 -0.04542614 -0.03868016
000320 50 7f b5 bc 12 4c 29 bd 48 c7 28 3e b4 79 7a bd
       -0.022155434 -0.041332312 0.1648227 -0.06115122
000330 75 07 bd bd d1 ec 58 3e e9 61 82 bd d8 ad 07 be
       -0.09229938 0.21184088 -0.06366331 -0.1324991
000340 bc 60 40 bd 17 ed a0 3a 60 8e 27 be 50 8b 41 3d
       -0.046967253 0.001227769 -0.16362906 0.047252
000350 8f f6 bc 3d 36 5c 15 3d 62 25 b3 bc 60 c7 61 bb
       0.09226715 0.036464892 -0.021868411 -0.0034451112
000360 07 f2 85 3d ed 80 a6 3e a8 b5 b9 be 27 69 ec 3d
       0.06540304 0.32520238 -0.36271405 0.11543494
000370 5a 86 b2 37 41 2e f6 bd 99 c0 22 3d a3 36 89 3e
       2.1281816e-05 -0.12020541 0.039734457 0.26799497
000380 b8 27 b4 bd 38 e9 89 3b 09 8b 28 be 28 26 5e be
       -0.08796638 0.00420871 -0.16459288 -0.21694243
000390 8c 5f 1b 3e 44 db 0b be 35 e1 0f be 16 6d 9c 3d
       0.15173167 -0.13657862 -0.14050753 0.07637994
0003a0 62 20 dc 3d fa 0b 34 be 5d 10 95 be d1 6a 51 bc
       0.10748364 -0.17582694 -0.29114047 -0.012781815
0003b0 52 4c f0 3d a1 9f 4d be c4 e2 24 3d ab af ab 3e
       0.11733307 -0.20080425 0.040255323 0.33532462
0003c0 ef 9f 2a 3e 12 e9 6e bc 48 b8 14 be e1 ce 7a be
       0.16662572 -0.0145819355 -0.14523423 -0.2449298
0003d0 7c 51 4d 3d 2d 3d 7f bc d5 90 1e be 5f 6b 19 3e
       0.050126538 -0.01557855 -0.15484937 0.14982365
0003e0 bc 32 1e 3d 16 18 7b 3b 8f 5d 29 3c 5d 2d 82 3e
       0.038622603 0.0038313917 0.0103372475 0.25425234
0003f0 59 03 0c bd 71 06 a4 3d d2 13 fe bd a7 a7 58 3c
       -0.03418288 0.08009041 -0.12406124 0.013223565

model.all_layers.3.bias f4 [50]
000000 b0 10 b1 bd e6 6a 60 ba 4c 34 8d 3c ea b0 f9 3c
       -0.08645761 -0.0008560851 0.017236851 0.030479867
000010 53 44 ba 3b 64 ee 33 bd 4b 6d 8d 3c 01 1a 7f 3d
       0.0056844144 -0.04392852 0.017264029 0.06228066
000020 7a 53 40 bd 2c 42 77 bd ed 30 b8 bd 06 c7 24 3d
       -0.04695461 -0.06036584 -0.08993707 0.040228866
000030 3a 9b 58 bc 05 7c 91 3d e8 bd a6 bc 2f 77 b6 3b
       -0.013220603 0.07103733 -0.020354226 0.005568407
000040 bb a5 b1 bd de cb 18 3d a2 61 3f bb 3f d2 b6 3d
       -0.08674189 0.037303798 -0.002920248 0.0892682
000050 c2 5c 3b 3d 66 10 84 3c 3a bc 01 3d c7 70 4e 3d
       0.045742758 0.0161211 0.031673647 0.05040052
000060 9d 8d 0d bc ae 43 45 3c 0d 30 51 3b 94 49 73 bd
       -0.00863972 0.012040062 0.003191951 -0.05939634
000070 7e 96 73 bd 59 6b b2 3c 11 c9 a3 3d b1 50 84 3d
       -0.059469692 0.021779703 0.07997335 0.06460703
000080 2a ad 66 3d b6 48 11 3d 2d d6 64 3d 97 18 06 bd
       0.056317486 0.035469733 0.055868316 -0.032738294
000090 26 4b 02 bd 28 f4 89 3c ee 8d 90 bc 20 ba bf bd
       -0.03180995 0.016840056 -0.017645802 -0.093616724
0000a0 5e da 4b 3d 44 08 34 3d c3 03 bc bd 37 69 9f 3d
       0.049768798 0.043953195 -0.09180405 0.0778374
0000b0 f2 4d 82 ba 76 a8 a2 bd 83 de 5a bd eb 04 4b 3c
       -0.0009941442 -0.079422876 -0.05343486 0.012391309
0000c0 b6 77 92 bd 71 7e 87 3d
       -0.07151739 0.06615914

model.all_layers.4.weight f4 [50]
000000 13 20 69 3f ef 4a 61 3f 8c 0f 63 3f 69 f8 45 3f
       0.91064566 0.88004965 0.886956 0.7733217
000010 f6 ca 48 3f 01 0f 80 3f 6d 96 70 3f 6a 7f 7a 3f
       0.78434694 1.0004579 0.9397953 0.9785067
000020 05 18 78 3f 7c 43 64 3f e9 5c a4 3f 00 0c 4a 3f
       0.9691165 0.89165473 1.2840854 0.7892456
000030 24 8b 4a 3f 0f 1d 79 3f 19 e2 75 3f b7 18 93 3f
       0.7911856 0.97309965 0.9604812 1.1491917
000040 32 31 66 3f 53 54 65 3f 46 ff 65 3f a5 c9 89 3f
       0.89918816 0.89581794 0.8984264 1.0764662
000050 77 97 8f 3f 9b a1 9c 3f 1b ee 6e 3f 0a 40 5d 3f
       1.1218098 1.2236818 0.9333207 0.8642584
000060 4a 08 65 3f 3b 2b 83 3f 33 d0 5b 3f ff 3f 6d 3f
       0.89465773 1.0247568 0.8586456 0.92675775
000070 3e 84 7f 3f bf 86 51 3f 81 a7 71 3f 34 44 5d 3f
       0.9981116 0.8184623 0.94396216 0.86432195
000080 df 3b 63 3f 14 48 69 3f 25 1a 68 3f a9 74 7c 3f
       0.8876323 0.9112561 0.90664893 0.9861551
000090 ae 69 8e 3f 31 35 8c 3f f6 02 47 3f d3 4e 78 3f
       1.1126001 1.0953733 0.77738893 0.96995276
0000a0 76 cb 43 3f e9 9a 90 3f 9f 8b 87 3f ea aa 42 3f
       0.7648233 1.1297275 1.0589484 0.76042044
0000b0 cc 2c 77 3f 35 28 88 3f 2c 70 66 3f 34 e5 8d 3f
       0.9655273 1.063727 0.9001491 1.1085572
0000c0 83 20 97 3f c7 c3 83 3f
       1.1806797 1.0294122

model.all_layers.4.bias f4 [50]
000000 d4 81 67 be a4 dd 78 be c4 b3 c6 be 64 fb f4 bd
       -0.22608119 -0.24303299 -0.38809025 -0.119620115
000010 4c 86 86 be 4f a7 71 bc 4a 80 8b be 81 8c 08 be
       -0.26274335 -0.014749362 -0.27246314 -0.13334848
000020 38 0a 5d be 58 96 1d be d5 93 fe be 96 50 cf bd
       -0.2158593 -0.15389383 -0.49722162 -0.101227924
000030 87 00 fc 3d 6b a2 90 be a8 37 e2 be 03 7a 3c be
       0.12304788 -0.28248915 -0.44183087 -0.18405919
000040 da 48 a9 be 8a 51 83 be cb 6e 95 bd 93 61 b8 be
       -0.33063394 -0.25648147 -0.07296523 -0.36011943
000050 a0 ee f6 bc 7a 14 e5 bd 41 47 a5 be c9 ba 02 bf
       -0.030143082 -0.11185546 -0.32280925 -0.5106626
000060 b2 36 a2 be 99 9a b8 be 29 5d d3 be 5f b7 22 bf
       -0.31682354 -0.3605545 -0.41282013 -0.6356105
000070 c5 a8 d1 be 3f 5b 81 be 36 68 ef be c0 dc 7e be
       -0.40949073 -0.25264928 -0.46759194 -0.24888897
000080 aa de 9a be 60 02 56 be fd e7 d8 be 2f 6f 10 bf
       -0.30248004 -0.20899343 -0.42364493 -0.5641965
000090 6c 6b 2e bf 8f e0 f9 be 89 b8 bf be c1 aa e1 be
       -0.6813266 -0.48804137 -0.37445477 -0.44075587
0000a0 4c 1c ad be ed f3 c1 be cb b1 c3 be 47 b5 63 be
       -0.3381065 -0.37881413 -0.38221583 -0.2223712
0000b0 d9 fc f2 be 7e 16 75 be ea 6c 50 be d1 c2 7b be
       -0.47458532 -0.23934361 -0.20354047 -0.24586035
0000c0 7f 5f 12 bf 5a b6 f3 3d
       -0.57176965 0.11900015

model.all_layers.4.running_mean f4 [50]
000000 0f ae 0c 3d 66 ad de bd 7e 61 1a bf ea 59 51 3e
       0.034345683 -0.10872917 -0.6030501 0.20444456
000010 92 be b1 be 58 c1 16 bd d5 3b cb 3e 8b 27 c2 3f
       -0.34715706 -0.03680548 0.39694086 1.5168318
000020 34 a9 69 bf fb 81 20 bf 08 71 85 bf fd 01 14 3d
       -0.9127381 -0.62698334 -1.0425119 0.03613471
000030 01 86 b0 3e 26 81 a7 bf a7 67 9c bf 7a 87 77 3e
       0.34477237 -1.3086288 -1.2219132 0.24172774
000040 34 9b a5 bf fc 99 98 bf 14 b7 db 3e 93 b9 64 3d
       -1.2937989 -1.1921992 0.42913115 0.05584104
000050 67 71 43 3f 4b f2 58 bf 5e ed 45 bf 3d 57 c5 3e
       0.76344913 -0.8474471 -0.7731532 0.3854312
000060 d0 83 a5 3e 49 3d c2 bd 5d 75 f4 bd d9 e6 8a bf
       0.32327127 -0.094843455 -0.11936448 -1.0851699
000070 41 bb a3 bf d0 78 ba 3e 52 19 af bf 7a 67 58 bf
       -1.279152 0.36420298 -1.3679602 -0.8453289
000080 7f 43 b0 bd d2 91 3c bf c0 e1 0d bf df 86 8a bf
       -0.08606624 -0.73660004 -0.5542259 -1.0822409
000090 47 3b a5 bf ba 62 d0 bf ac 01 14 be c6 17 b1 bf
       -1.2908715 -1.6280129 -0.14453763 -1.383538
0000a0 9c fc 0c bf 4c e9 99 3d c5 fb e9 be 77 0c 4a bf
       -0.5507295 0.07515201 -0.45699897 -0.7892527
0000b0 cd 2e 8c be 74 37 85 bf 30 c7 d1 bd 6b 6d af bd
       -0.27379456 -1.0407548 -0.1024307 -0.08565792
0000c0 af 07 6a bf 8a d4 85 3f
       -0.91417974 1.0455487

model.all_layers.4.running_var f4 [50]
000000 7b 4f 0e 40 75 6f a2 3f 65 fd cf 3f db 08 40 3f
       2.223601 1.2690264 1.6249205 0.7501351
000010 99 79 5b 3f 8e a7 09 40 54 3f 15 40 7a ae 1d 40
       0.8573242 2.1508517 2.3319902 2.4637742
000020 15 59 0a 40 19 de 0f 40 bc 7f 6d 40 04 68 92 3f
       2.1616871 2.2479308 3.7109213 1.1437993
000030 94 71 f0 3f 53 62 00 40 8c e0 f5 3f fe 05 91 40
       1.8784661 2.0060012 1.9209151 4.5319815
000040 0c 14 01 40 e6 ba bf 3f e0 7e e3 3f 23 4d 2a 40
       2.0168486 1.4978912 1.7773094 2.660958
000050 e2 85 38 40 00 a8 c3 40 ce 92 cc 3f 6e 7d 7a 3f
       2.8831716 6.114258 1.5982301 0.9784764
000060 52 cd 96 3f 7f 7e 36 40 e9 86 6a 3f b0 c4 b5 3f
       1.1781409 2.8514707 0.91612107 1.4200649
000070 c3 51 e8 3f 9c bc b7 3f 47 a4 b4 3f 22 b4 b7 3f
       1.8149952 1.4354434 1.4112633 1.4351847
000080 30 da b8 3f 4a 18 02 40 3b 89 91 3f 6c 48 0f 40
       1.4441586 2.0327325 1.1370004 2.2387953
000090 13 a6 f5 3f 91 5b 47 40 f3 7a 35 3f e4 07 ce 3f
       1.9191307 3.1149638 0.7089073 1.6096158
0000a0 79 ba 3e 3f 59 64 31 40 56 b2 4c 40 89 7f 17 3f
       0.74503285 2.7717497 3.1983848 0.5917898
0000b0 35 31 9f 3f 59 7b 5c 40 60 89 ea 3f 5f 51 e7 3f
       1.2436892 3.4450285 1.8323174 1.8071707
0000c0 fe 1e 02 40 30 5e 2c 40
       2.0331416 2.6932487

model.all_layers.6.weight f4 [2, 50]
000000 af b5 93 3e d9 91 52 3e 45 22 90 be 65 fa 63 be
       0.2884955 0.20563449 -0.28151146 -0.22263487
000010 44 8f 92 3e df bf b7 be 2e 7a c8 be c1 87 df 3e
       0.28624928 -0.35888574 -0.39155716 0.4365826
000020 81 65 c2 be 09 d5 a6 be 7e 87 0c bf cf 6e 40 3e
       -0.37968066 -0.32584408 -0.54894245 0.1879227
000030 d3 5a 97 3e 0e d9 e4 3e 93 c5 e5 3e 1a 4a 03 3f
       0.2956148 0.4469685 0.448773 0.51284945
000040 6e 29 97 be 4f 50 ac 3e bc 15 9c be 23 26 f8 3e
       -0.29523796 0.3365502 -0.30485332 0.48466596
000050 45 21 04 bf 2e b9 01 3f 3b f7 d4 be cc 59 9f 3e
       -0.51613265 0.50673187 -0.41594872 0.31123197
000060 33 65 88 be af e3 c6 3e 1e 3c bd be 53 e7 ec be
       -0.2663971 0.38845584 -0.36959928 -0.46270236
000070 03 3e 00 bf 64 55 71 be c5 1f 94 be e1 d9 70 3e
       -0.5009462 -0.2356773 -0.28930488 0.23520614
000080 12 cb b2 be 5c 2a 9b 3e 9d f2 ba 3e 02 cc d6 be
       -0.34920555 0.30305755 0.36513224 -0.4195252
000090 86 39 02 3f 70 cd c2 be 56 23 96 3e 6a 1d 00 bf
       0.50869024 -0.3804736 0.29323834 -0.5004488
0000a0 be f0 60 be 64 e8 0b bf 05 f4 e2 be 6b c4 70 be
       -0.21966836 -0.54651475 -0.44326797 -0.23512428
0000b0 37 e8 a4 3e 14 04 dc 3e d5 06 aa be 95 01 09 bf
       0.32208416 0.4297186 -0.33208337 -0.5351804
0000c0 85 66 0d 3f c3 09 d0 3e 9a c0 96 be 02 08 df be
       0.5523456 0.40632448 -0.29443818 -0.43560797
0000d0 d0 1e b4 3e d1 83 77 3e b0 50 40 be c4 fb fd 3e
       0.35179758 0.24171378 -0.1878078 0.49606144
0000e0 2b 5d ae 3e 13 71 bb be 10 45 ab 3e d7 97 aa 3e
       0.34055457 -0.36609706 0.33451128 0.3331897
0000f0 ab de 1c 3f cc fb 94 be 38 4e bf be 1e ff 4c be
       0.61277264 -0.29098356 -0.37364364 -0.20019194
000100 b3 c6 a9 be 57 12 f4 be a8 ce 99 3e 0e cd 82 be
       -0.33159408 -0.47670242 0.3004048 -0.2554707
000110 72 cb c0 3e 1a 53 c9 be ca 44 03 3f db d0 04 bf
       0.37655216 -0.39321214 0.5127684 -0.5188119
000120 1a 4d bb 3e f6 71 d3 be df 3b 9d 3e 24 83 f0 be
       0.3658226 -0.41297883 0.3070974 -0.46975052
000130 e0 95 a6 3e 47 7e ac 3e 0f 7d 93 3e 72 d4 b9 3e
       0.3253622 0.33690092 0.2880635 0.36294895
000140 95 32 fd 3e 07 70 c0 be 79 11 ad 3e ff cc a1 be
       0.49452654 -0.3758547 0.33802393 -0.31601712
000150 28 27 a1 be e4 55 dd 3e 95 21 28 bf b5 98 ff 3e
       -0.31475186 0.43229592 -0.6567624 0.49921194
000160 0d 12 49 be f5 ab 92 3e 81 38 2c 3e 40 6f d1 3e
       -0.19635792 0.28646818 0.1681843 0.4090519
000170 be 94 de 3e 40 94 c3 3d 0a 44 00 bf f8 26 d5 be
       0.43472856 0.09549761 -0.5010382 -0.41631293
000180 9a 03 ab 3e 04 5a dc 3e 79 88 15 bf eb 67 04 bf
       0.33401185 0.43037426 -0.58411366 -0.51721066

model.all_layers.6.bias f4 [2]
000000 58 39 6a 3e ef 26 d0 be
       0.22873437 -0.40654704
