unit06-dl-tips/6.8-debugging/lightning_logs/version_3/checkpoints/epoch=4-step=2250.ckpt (torch, 71794 bytes, 14 tensors)

model.all_layers.0.weight f4 [100, 100]
-0.051652577 0.014039013 -0.10053518 0.040852632 -0.097381614 0.09293316 -0.03832047 -0.05319312
-0.10358854 0.06697033 -0.049871635 0.035570323 -0.05503684 -0.043482218 -0.03851462 0.014987795
-0.08089085 0.07269545 -0.0039543803 0.034073677 0.063636914 0.0073519745 0.034758374 0.09331094
-0.06251888 0.01197561 -0.049523458 0.07922556 0.08773724 -0.08443663 0.07999876 0.089439
0.03886453 0.052615814 0.08417925 -0.022652889 -0.08314433 -0.04379767 -0.055317648 -0.0069450103
0.011165282 -0.019274887 -0.013975134 0.089698955 -0.009684504 0.011625739 -0.022246735 0.008363131
0.11071962 0.060710996 0.035530675 0.056094605 0.026931126 0.04198939 -0.03433627 -0.09233598
-0.058573782 0.0964968 0.017346442 -0.073790975 -0.0016451568 0.078276806 -0.09324952 -0.06984563
-0.049824778 0.03837733 -0.012184752 0.00050119037 -0.08469899 0.033272292 0.0859234 0.059516978
-0.079457246 -0.072849736 0.036845353 0.03661392 0.035806417 -0.09655327 -0.021065045 0.0636871
0.056217924 0.007003645 0.019870263 -0.03088192 -0.07240128 -0.022680169 -0.053681448 0.090474226
0.037610743 0.029785516 -0.069468744 0.10347321 0.055315785 0.07990619 -0.037675954 0.0112764295
0.0777427 0.06889222 0.08526747 -0.024543643 0.092373386 -0.07073091 0.14438431 -0.059310406
-0.019464055 -0.052084647 -0.0223971 0.08427202 0.10755587 -0.040700875 0.10528046 -0.084858805
0.028563155 -0.03788701 -0.013280626 -0.0711687 -0.07656828 -0.02206397 0.0071488633 0.085737675
-0.032063533 0.047759235 0.08702219 -0.01825324 0.15349877 -0.06664416 0.08616535 0.03813039
0.026074972 0.078035556 -0.01801587 -0.0370327 0.041659158 -0.08804585 -0.0152588 -0.036321353
0.024507208 0.010218426 -0.015224403 -0.03097081 -0.022493154 -0.06098333 -0.0075551867 0.09521938
0.019267516 -0.054916456 -0.060748674 -0.008857862 -0.10065007 -0.06726875 -0.08228835 -0.06384349
0.020260293 0.08370754 0.070829704 0.038698263 -0.10535794 -0.016824843 -0.10582773 0.023746016
0.07928033 0.12098162 -0.08626513 0.10107898 0.06899435 0.050972838 -0.010994154 0.028446965
0.05001982 0.073974326 -0.040109586 -0.0627506 0.0043974183 0.017709179 -0.07836558 -0.110189736
-0.046882786 -0.03247124 0.08833566 0.031594805 -0.022595132 0.016874336 0.08034145 -0.05621058
-0.018719597 -0.058267895 -0.09117133 0.03864977 0.12909769 -0.04803075 -0.11848741 -0.10412376
0.013628967 0.08807777 -0.09604626 -0.06583145 0.06609116 -0.0508073 0.090600826 0.041991755
-0.045462966 -0.005234308 -0.040016007 -0.034510955 -0.078273 0.02129856 0.009356797 0.012508741
-0.07242396 0.10716684 -0.053328924 0.021486375 0.071045786 -0.042412046 0.0049527544 -0.0021620432
0.049875796 -0.024419276 0.024322236 0.004579354 -0.09767093 -0.08496154 0.031879634 -0.02797733
0.015349492 -0.09391278 -0.06045371 -0.087373175 0.048564307 -0.007906263 -0.03658363 0.032999076
-0.10521469 0.026504364 -0.014822943 -0.101851046 0.06408527 -0.021770978 -0.09666139 0.062606245
0.083415695 -0.0113057075 -0.04795628 -0.003713951 0.053634852 0.10817651 -0.07690779 -0.042615183
0.09716845 0.046339963 0.08351188 -0.042238154 0.082805604 -0.07336618 -0.01650456 0.03125441
00000000: a791 53bd e303 663c 63e5 cdbd 1755 273d
00000010: 0370 c7bd be53 be3d edf5 1cbd 07e1 59bd
00000020: 3a26 d4bd be27 893d 3346 4cbd 30b2 113d
00000030: 4f6e 61bd 691a 32bd 82c1 1dbd 5e8f 753c
00000040: 1aaa a5bd 5ae1 943d bf93 81bb d790 0b3d
00000050: 1254 823d d5e8 f03b cc5e 0e3d ce19 bf3d
00000060: e609 80bd 5935 443c 1cd9 4abd 0341 a23d
00000070: 95af b33d 1ded acbd 64d6 a33d cb2b b73d
00000080: 6a30 1f3d ae83 573d 2c66 ac3d 8d92 b9bc
00000090: 9347 aabd 3065 33bd c294 62bd f892 e3bb
000000a0: 96ee 363c 5ee6 9dbc f6f7 64bc 16b4 b73d
000000b0: c1ab 1ebc e279 3e3c c93e b6bc 8405 093c
000000c0: f8c0 e23d 18ac 783d 9d88 113d 75c3 653d
000000d0: aa9e dc3c 11fd 2b3d 30a4 0cbd a51a bdbd
000000e0: 10eb 6fbd 1da0 c53d 201a 8e3c b91f 97bd
000000f0: 4da2 d7ba 974f a03d 9bf9 bebd 3a0b 8fbd
00000100: 1115 4cbd 8c31 1d3d 8ea2 47bc 5162 033a
00000110: aa76 adbd 8748 083d 9cf8 af3d 13c8 733d
00000120: 7bba a2bd 3e32 95bd 27eb 163d 7af8 153d
00000130: c0a9 123d b9bd c5bd 9a90 acbc 626e 823d
00000140: c444 663d d57e e53b f6c6 a23c 15fc fcbc
00000150: 1f47 94bd c3cb b9bc 14e1 5bbd 8d4a b93d
00000160: b90d 1a3d c100 f43c a145 8ebd c3e9 d33d
00000170: ce92 623d dba5 a33d 1a52 1abd c6c0 383c
00000180: 9137 9f3d 5d17 8d3d b6a0 ae3d c00f c9bc
00000190: 422e bd3d 5edb 90bd 7bd9 133e 78ef 72bd
000001a0: 1573 9fbc b656 55bd 207a b7bc cf96 ac3d
000001b0: 4146 dc3d f6b5 26bd 489d d73d 74ca adbd
000001c0: 47fd e93c 692f 1bbd fc96 59bc e5c0 91bd
000001d0: d5cf 9cbd 80bf b4bc 0341 ea3b 3c97 af3d
000001e0: 0d55 03bd 309f 433d b138 b23d d287 95bc
000001f0: c82e 1d3e bc7c 88bd 7677 b03d 9d2e 1c3d
00000200: 2e9b d53c 1bd1 9f3d 0596 93bc 9aaf 17bd
00000210: cba2 2a3d 6251 b4bd 0c00 7abc b3c5 14bd
00000220: 57c3 c83c 2f6b 273c c66f 79bc 7fb6 fdbc
00000230: 9043 b8bc a8c9 79bd 8091 f7bb 6102 c33d
00000240: e9d6 9d3c 14f0 60bd 9ad3 78bd 9120 11bc
00000250: a021 cebd 33c4 89bd cb86 a8bd 60c0 82bd
00000260: eaf8 a53c dc6e ab3d 2a0f 913d 1282 1e3d
00000270: e7c5 d7bd 41d4 89bc 35bc d8bd 0187 c23c
00000280: ba5d a23d 36c5 f73d c6ab b0bd 7f02 cf3d
00000290: e94c 8d3d e5c8 503d d320 34bc 9c09 e93c
000002a0: 95e1 4c3d da7f 973d f349 24bd 6383 80bd
000002b0: 3818 903b d712 913c 227e a0bd 28ab e1bd
000002c0: 2a08 40bd 9000 05bd 54e9 b43d 8e69 013d
000002d0: 6d19 b9bc 0c3c 8a3c 0f8a a43d 113d 66bd
000002e0: d759 99bc 51aa 6ebd 09b8 babd 394f 1e3d
000002f0: 2f32 043e e4bb 44bd 87a9 f2bd d63e d5bd
00000300: 084c 5f3c 1e62 b43d e7b3 c4bd a4d2 86bd
00000310: cd5a 873d 511b 50bd ed8c b93d 8cff 2b3d
00000320: 6037 3abd 8f84 abbb d3e7 23bd 5c5b 0dbd
00000330: 984d a0bd 517a ae3c 404d 193c 76f1 4c3c
00000340: 0353 94bd 4a7a db3d 6e6f 5abd 3204 b03c
00000350: 7480 913d 41b8 2dbd b74a a23b 11b1 0dbb
00000360: 904a 4c3d ef0a c8bc 6d3f c73c 680e 963b
00000370: b207 c8bd 5100 aebd 3894 023d b730 e5bc
00000380: 707c 7b3c 5855 c0bd 4f9e 77bd b5f0 b2bd
00000390: 5eeb 463d 4589 01bc b7d8 15bd 0a2a 073d
000003a0: cd7a d7bd ae1f d93c eedb 72bc 4897 d0bd
000003b0: 233f 833d 0d59 b2bc 68f6 c5bd b437 803d
000003c0: d9d5 aa3d 933b 39bc ce6d 44bd c265 73bb
000003d0: 38b0 5b3d a58b dd3d d581 9dbd 428d 2ebd
000003e0: 4100 c73d f9ce 3d3d 4708 ab3d ea01 2dbd
000003f0: fc95 a93d 0241 96bd 9234 87bc a004 003d

model.all_layers.0.bias f4 [100]
0.014835432 0.06831991 0.029112361 -0.036049746 -0.0115737915 0.05810941 0.03397114 0.0038620683
-0.049154785 0.07830664 -0.086287454 -0.090748765 0.022133395 0.06539672 -0.09435125 0.035291024
-0.049338546 0.07005385 -0.025464952 0.093709014 -0.040897775 -0.004881583 0.0658908 -0.026846707
0.005352676 0.07649804 -0.035308942 -0.078665055 0.008734323 -0.088866465 0.07159061 0.009620294
-0.027133502 -0.014975034 0.08313059 -0.029656217 -0.0009859417 0.014266804 0.009306848 -0.05195383
-0.0063731223 -0.04060818 -0.008555733 -0.07125016 0.03633354 -0.040306795 0.013856515 0.09757077
0.028252758 -0.062812716 -0.077858664 -0.062496543 0.068285264 0.0784462 0.03393314 -0.07774319
0.02693548 0.033362933 -0.018861309 0.02991759 0.08659131 -0.024171695 0.063166596 0.023436867
-0.08877639 -0.007865891 -0.025602773 -0.00948558 -0.0046138316 -0.0748134 0.04901754 -0.06654302
-0.04919356 0.09644974 0.021275386 -0.008679949 0.050122134 0.09734962 -0.05035987 -0.09258522
-0.0147391185 -0.06260194 -0.093927264 -0.033703364 -0.023496628 -0.0010202674 0.04484076 0.06742454
-0.024140395 -0.03032235 -0.061059784 0.07141494 0.038108192 -0.013914362 0.059351765 0.08103419
-0.032623306 0.07361501 -0.035381936 -0.019541822
00000000: 5010 733c 4feb 8b3d 0c7d ee3c e6a8 13bd
00000010: 00a0 3dbc 2204 6e3d 5225 0b3d c11a 7d3b
00000020: 8756 49bd 3b5f a03d 7ab7 b0bd 7dda b9bd
00000030: 1851 b53c b7ee 853d 3a3b c1bd 528d 103d
00000040: 3717 4abd 6578 8f3d e09b d0bc 83ea bf3d
00000050: 6d84 27bd b0f5 9fbb c1f1 863d a0ed dbbc
00000060: 8065 af3b 01ab 9c3d 1ca0 10bd 251b a1bd
00000070: 681a 0f3c 9fff b5bd 199e 923d 709e 1d3c
00000080: 1447 debc d859 75bc 5f40 aa3d 98f1 f2bc
00000090: b73a 81ba 50bf 693c c07b 183c 8acd 54bd
000000a0: a0d5 d0bb c354 26bd 582d 0cbc 9beb 91bd
000000b0: 7ad2 143d bd18 25bd 7006 633c 2fd3 c73d
000000c0: 5472 e73c f4a3 80bd 5d74 9fbd 60fc 7fbd
000000d0: 25d9 8b3d 67a8 a03d 7afd 0a3d d237 9fbd
000000e0: cca7 dc3c 92a7 083d 0883 9abc bc15 f53c
000000f0: c956 b13d b803 c6bc 7d5d 813d acfe bf3c
00000100: 65d0 b5bd f0df 00bc e8bc d1bc 6869 1bbc
00000110: a02f 97bb c537 99bd 9ec6 483d b547 88bd
00000120: 307f 49bd 7187 c53d b849 ae3c 5836 0ebc
00000130: de4c 4d3d 3d5f c73d 2746 4ebd 529d bdbd
00000140: 587c 71bc 7235 80bd f05c c0bd 8a0c 0abd
00000150: 007c c0bc 7eba 85ba f2aa 373d e115 8a3d
00000160: 14c2 c5bc 9466 f8bc d319 7abd ff41 923d
00000170: 5617 1c3d 10f9 63bc d61a 733d 41f5 a53d
00000180: 04a0 05bd 77c3 963d a6ec 10bd 2c16 a0bc

model.all_layers.1.weight f4 [100]
0.99690956 1.0084282 1.0231434 0.9895032 0.9817243 1.0055237 1.0013512 0.9935256
0.9933252 0.9931789 1.0059254 0.99503034 1.0090436 0.9995543 1.0158215 1.0035061
0.99482185 0.98643655 1.0088503 1.0004007 0.9905238 0.99071693 0.9827139 1.0143056
1.0030955 0.99858457 0.99541295 0.9979816 1.0099093 1.0087677 0.99824136 0.99811435
0.99423707 1.0083444 0.9907297 1.0044577 1.0108579 0.9903164 0.9874034 1.0138786
0.99309134 1.001717 0.99390423 1.0134038 0.997842 0.99977523 1.0105922 1.0080656
0.9846473 1.0046918 1.0093277 1.0106703 1.0035104 0.9988077 1.0008839 1.0054947
0.99022985 1.0075899 1.0179352 0.9960473 1.0026187 0.9910739 0.9978781 0.9936409
0.9867638 0.9967265 1.0049967 1.0035055 0.9965697 0.9939882 1.0069876 1.0031295
0.9999783 0.9945966 0.99481064 0.98948175 0.99885046 1.0007206 0.9967092 0.9870762
0.9875178 1.0050361 0.98859435 1.0152274 0.9929208 0.9893746 1.0196348 1.0006986
0.9984474 1.0005018 0.98931766 1.0089375 1.006888 1.0147752 0.99246895 1.0076661
1.0000529 1.0083911 0.9994108 0.994738
00000000: 7735 7f3f 2d14 813f 5df6 823f 1550 7d3f
00000010: 4952 7b3f 00b5 803f 472c 803f b257 7e3f
00000020: 8f4a 7e3f f940 7e3f 2ac2 803f 4fba 7e3f
00000030: 5728 813f cae2 7f3f 7006 823f e372 803f
00000040: a5ac 7e3f 1b87 7c3f 0222 813f 210d 803f
00000050: f892 7d3f a09f 7d3f 2393 7b3f c4d4 813f
00000060: 6f65 803f 3da3 7f3f 62d3 7e3f b97b 7f3f
00000070: b544 813f 4d1f 813f bf8c 7f3f 6c84 7f3f
00000080: 5286 7e3f 6e11 813f 76a0 7d3f 1292 803f
00000090: cb63 813f 6085 7d3f 78c6 7c3f c6c6 813f
000000a0: 3c3b 7e3f 4338 803f 8270 7e3f 37b7 813f
000000b0: 9372 7f3f 45f1 7f3f 165b 813f 4b08 813f
000000c0: d811 7c3f be99 803f a631 813f a55d 813f
000000d0: 0773 803f ddb1 7f3f f71c 803f 0db4 803f
000000e0: b47f 7d3f b5f8 803f b34b 823f f5fc 7e3f
000000f0: cf55 803f 05b7 7d3f f074 7f3f 405f 7e3f
00000100: 8d9c 7c3f 7829 7f3f bba3 803f de72 803f
00000110: 311f 7f3f 0376 7e3f f8e4 803f 8c66 803f
00000120: 94fe 7f3f e29d 7e3f e9ab 7e3f ad4e 7d3f
00000130: aab4 7f3f 9d17 803f 5628 7f3f 07b1 7c3f
00000140: f7cd 7c3f 06a5 803f 8514 7d3f f9f2 813f
00000150: 0f30 7e3f a747 7d3f 6583 823f e416 803f
00000160: 409a 7f3f 7110 803f ec43 7d3f dd24 813f
00000170: b5e1 803f 27e4 813f 7212 7e3f 34fb 803f
00000180: bc01 803f f612 813f 63d9 7f3f 26a7 7e3f

model.all_layers.1.bias f4 [100]
-4.9518556e-10 2.1742603e-09 1.9307096e-09 1.4859156e-09 1.1361992e-09 -6.5072814e-10 1.4152132e-09 -1.0287574e-09
2.4691077e-10 3.2216245e-09 1.9500557e-09 1.4767541e-11 2.1941982e-09 -7.6355156e-10 -1.3756668e-09 -4.277062e-10
-1.6880881e-09 -1.8811717e-09 1.2771868e-09 -2.5799682e-09 7.909027e-10 4.3556425e-10 -5.728088e-11 1.6419008e-09
-9.515421e-10 -1.1944352e-09 -1.529895e-09 1.3154999e-09 2.5833629e-09 -9.667706e-10 1.3294377e-09 1.579777e-09
-2.566941e-09 -2.0720238e-11 1.7523595e-09 -8.8273416e-10 1.6518336e-09 -2.9025074e-10 -1.6576904e-09 8.367101e-10
-7.3403006e-10 -3.2564254e-10 1.3618046e-09 -8.534711e-10 3.6475523e-10 1.1852357e-09 1.7641707e-09 -1.0163558e-10
-2.703754e-10 2.6411222e-09 1.6570438e-09 3.492474e-11 -2.7521192e-09 -2.7052611e-09 -6.8490774e-10 -9.815372e-10
-1.2632544e-09 -2.4065403e-09 -1.6861356e-09 -7.179326e-10 2.2437685e-09 -1.4319598e-09 -7.343028e-10 -2.0686741e-09
-1.6682807e-09 1.9339172e-09 1.0229099e-09 1.0411396e-09 7.5299383e-10 -3.773493e-10 1.4474663e-10 1.6371426e-09
-9.620121e-10 -9.656032e-10 8.836877e-11 -2.8354057e-09 -8.336368e-10 -1.7756123e-09 -1.1544888e-09 1.7913268e-09
-1.3785565e-09 8.1803585e-11 -2.245474e-09 -1.2041776e-09 -6.808966e-09 -1.446303e-09 -2.6872105e-10 1.7259797e-09
-2.450349e-09 2.6875142e-09 -1.3655026e-09 2.7285199e-09 -5.721634e-10 -6.8934086e-10 9.719868e-10 -2.868344e-09
2.4461584e-09 1.8962802e-09 2.8621805e-10 -1.0459116e-09
00000000: 961d 08b0 fe69 1531 67ad 0431 0239 cc30
00000010: 7528 9c30 ecde 32b0 6381 c230 2f64 8db0
00000020: 9abd 872f 6b63 5d31 be01 0631 8ce5 812d
00000030: bec8 1631 2ae2 51b0 f911 bdb0 4c22 ebaf
00000040: 5202 e8b0 ec45 01b1 0489 af30 484b 31b1
00000050: d466 5930 3874 ef2f 8aec 7bae 40a9 e130
00000060: 69c7 82b0 7429 a4b0 6544 d2b0 0acd b430
00000070: 0087 3131 37df 84b0 6eb7 b630 761f d930
00000080: 1b66 30b1 d441 b6ad abd7 f030 e5a4 72b0
00000090: ba06 e330 2991 9faf ccd4 e3b0 3dfe 6530
000000a0: c6c4 49b0 1d06 b3af 3d2a bb30 b199 6ab0
000000b0: bc86 c82f c6e5 a230 3d77 f230 bf7f dfae
000000c0: f4a3 94af 1d7f 3531 0cbe e330 c399 192e
000000d0: cb1f 3db1 75e7 39b1 1944 3cb0 c5e6 86b0
000000e0: d09e adb0 4e60 25b1 9fbd e7b0 0458 45b0
000000f0: cb30 1a31 9bce c4b0 f7d7 49b0 8028 0eb1
00000100: 6949 e5b0 d5e5 0431 7196 8c30 d817 8f30
00000110: 3bfb 4e30 3173 cfaf 8e26 1f2f d601 e130
00000120: cb37 84b0 24b6 84b0 3253 c22e fcd8 42b1
00000130: fa25 65b0 ce09 f4b0 f7ab 9eb0 b532 f630
00000140: a577 bdb0 53e3 b32e cc4e 1ab1 3c80 a5b0
00000150: 4cf4 e9b1 43c7 c6b0 20bb 93af 8337 ed30
00000160: ff62 28b1 40af 3831 5aac bbb0 a180 3b31
00000170: 6c46 1db0 0d7c 3db0 bf96 8530 711c 45b1
00000180: 4619 2831 b74f 0231 9c59 9d2f bebf 8fb0

model.all_layers.1.running_mean f4 [100]
-0.07801162 0.2687547 -0.090215415 -0.28660113 -0.07318161 -0.052608307 0.07943737 -0.22334032
0.1956589 -0.4303302 -0.11533419 -0.40400416 0.11685506 -0.31598553 -0.6166382 0.37748545
-0.16502807 0.5214308 -0.26119298 0.45272818 0.050719645 -0.25056502 0.039740264 0.09275465
-0.26007953 -0.23251292 -0.07416557 0.353979 -0.118105784 0.097854294 0.36477318 -0.025167672
0.00927783 0.15676057 -0.14387028 -0.10433917 -0.32181457 0.31416342 0.23346815 0.479306
-0.18616986 0.12906131 -0.47053155 -0.11143034 0.050971232 0.25591534 -0.23585583 0.2657337
-0.1639514 -0.10892246 -0.47371873 -0.36741465 0.36520344 0.31540662 0.18248683 -0.32827303
0.38307476 0.033894107 -0.13767336 -0.09991717 -0.03217251 -0.17270641 -0.36894622 0.19144918
-0.36572045 0.16710836 -0.23593427 0.2194445 -0.4429452 -0.16938278 -0.12927103 0.08812368
-0.07529459 -0.06662209 0.34980583 0.17229189 0.007839985 0.1473679 -0.20524375 -0.2961616
-0.33329946 -0.27444696 -0.09950116 0.033353146 -0.013987329 -0.49967226 -0.028146956 0.26036677
0.14511912 0.3400892 0.3669859 0.38860744 -0.16322348 0.35332516 0.2673768 0.1471673
-0.11991036 -0.246895 -0.20690924 -0.15611741
00000000: 8ec4 9fbd 379a 893e dcc2 b8bd 62bd 92be
00000010: 3de0 95bd cf7b 57bd 0fb0 a23d 53b3 64be
00000020: cf5a 483e 3d54 dcbe 5534 ecbd a2d9 cebe
00000030: b551 ef3d dbc8 a1be 00dc 1dbf c645 c13e
00000040: 1efd 28be 7d7c 053f 16bb 85be fdcb e73e
00000050: 67bf 4f3d 0f4a 80be b0c6 223d 26f6 bd3d
00000060: 2529 85be de17 6ebe 1ee4 97bd bc3c b53e
00000070: 72e1 f1bd d567 c83d 8dc3 ba3e 6f2c cebc
00000080: 0a02 183c d885 203e bb52 13be c6af d5bd
00000090: e1c4 a4be 07da a03e 4612 6f3e 9967 f53e
000000a0: 50a3 3ebe a628 043e 83e9 f0be 9735 e4bd
000000b0: 36c7 503d 5607 833e 3184 71be 3f0e 883e
000000c0: e0e2 27be bd12 dfbd 438b f2be c61d bcbe
000000d0: f2fb ba3e fa7c a13e d4dd 3a3e 6713 a8be
000000e0: 6022 c43e 8cd4 0a3d 3ffa 0cbe 60a1 ccbd
000000f0: 52c7 03bd f3d9 30be 85e6 bcbe 410b 443e
00000100: b63f bbbe 741e 2b3e c198 71be 0fb6 603e
00000110: b7c9 e2be ae72 2dbe a05f 04be 307a b43d
00000120: 0d34 9abd 2a71 88bd c019 b33e 496d 303e
00000130: 4873 003c 9ce7 163e 6b2b 52be 7ea2 97be
00000140: 3aa6 aabe 5084 8cbe 44c7 cbbd 4f9d 083d
00000150: 1c2b 65bc 0bd5 ffbe 7294 e6bc cb4e 853e
00000160: 1b9a 143e 2c20 ae3e 93e5 bb3e 8ef7 c63e
00000170: 0e24 27be 09e7 b43e 9de5 883e 06b3 163e
00000180: 9093 f5bd 0bd2 7cbe 04e0 53be 3edd 1fbe

model.all_layers.1.running_var f4 [100]
3.9062767 7.8003306 9.664495 5.153448 4.3113227 7.179255 4.317557 5.476568
5.7224755 4.8344398 4.086087 6.4150224 4.933258 6.8103504 12.104601 4.6587286
7.983668 5.9599648 5.417041 3.9203494 4.6771293 4.057006 2.9861202 4.179028
5.937404 4.359666 4.5474043 6.471092 7.4423156 5.7057915 9.697549 5.7608237
3.5360453 11.141295 4.379942 6.7821445 4.5778656 5.583786 5.6085978 7.255895
7.510282 3.3454292 4.5953155 8.964982 4.8969665 4.023732 5.8430986 5.5373635
4.1301346 7.11601 8.13378 6.539297 5.2409067 3.3084328 4.6162167 6.023766
4.935184 4.947088 8.4410715 4.931534 6.5517416 4.8071976 6.1270313 5.14755
4.906474 4.2698855 7.6235423 3.4872396 5.8329463 7.901244 7.031453 4.433612
4.843708 5.556371 7.3613563 6.3390923 3.6425593 3.9336905 5.3652825 4.194083
5.628462 5.0345893 7.003406 4.896505 7.591234 5.3121405 8.269118 6.525641
5.450232 7.792924 4.8155937 7.0711937 7.385764 7.0439296 4.5960746 4.779259
6.2381477 4.5735474 4.70048 5.944214
00000000: 7000 7a40 4f9c f940 c6a1 1a41 0ce9 a440
00000010: 5bf6 8940 75bc e540 6d29 8a40 0c40 af40
00000020: 851e b740 bbb3 9a40 3ac1 8240 dd47 cd40
00000030: 40dd 9d40 64ee d940 72ac 4141 4e14 9540
00000040: 357a ff40 08b8 be40 6658 ad40 01e7 7a40
00000050: 0bab 9540 fed2 8140 981c 3f40 99ba 8540
00000060: 37ff bd40 6282 8b40 5684 9140 3013 cf40
00000070: 7327 ee40 d895 b640 2929 1b41 ab58 b840
00000080: 914e 6240 bf42 3241 7c28 8c40 5407 d940
00000090: e07d 9240 60ae b240 a279 b340 4b30 e840
000000a0: 3b54 f040 831b 5640 d30c 9340 9170 0f41
000000b0: f3b3 9c40 6ac2 8040 aafa ba40 1532 b140
000000c0: 102a 8440 5bb6 e340 f623 0241 ec41 d140
000000d0: 82b5 a740 5dbd 5340 0cb8 9340 b1c2 c040
000000e0: 07ed 9d40 8b4e 9e40 a10e 0741 20cf 9d40
000000f0: dea7 d140 90d4 9940 a410 c440 bbb8 a440
00000100: d601 9d40 e7a2 8840 0ff4 f340 ef2e 5f40
00000110: 7fa7 ba40 fed6 fc40 aa01 e140 26e0 8d40
00000120: a8ff 9a40 cbcd b140 3b90 eb40 d8d9 ca40
00000130: b11f 6940 96c1 7b40 65b0 ab40 ee35 8640
00000140: 5c1c b440 5b1b a140 e71b e040 2bb0 9c40
00000150: 64eb f240 0efd a940 4f4e 0441 0dd2 d040
00000160: 4d68 ae40 a25f f940 5819 9a40 3847 e240
00000170: 2e58 ec40 df67 e140 0b13 9340 b1ef 9840
00000180: e89e c740 805a 9240 556a 9640 0037 be40

model.all_layers.2.weight f4 [50, 100]
-0.040239763 0.080071084 -0.13038108 0.03320804 -0.09857969 -0.00041871256 0.015870748 -0.03869774
0.042860426 -0.085481204 0.009540458 -0.05174389 0.0832722 -0.023011995 -0.15961012 0.012485506
-0.080092885 0.0641395 0.011740495 0.016012706 0.121355034 -0.056347176 -0.06189465 -0.031191923
-0.117232755 0.001378897 0.00424361 -0.035139676 -0.08417481 0.026999112 0.08494187 -0.108322136
-0.018056493 0.015683893 -0.03251981 0.089099586 -0.06583193 0.08649496 -0.019773865 0.11305847
0.017226152 0.0788561 -0.119743116 -0.018619249 -0.019738117 -0.019769723 -0.017035216 -0.04462455
0.080789104 0.1068084 -0.13020232 -0.08782321 -0.10202463 -0.020991275 0.022016667 -0.055141576
-0.09559512 0.0640397 -0.0498003 -0.015501766 -0.0049602175 -0.06252889 -0.0920919 -0.050605956
0.0905274 -0.00057653664 -0.097799316 0.08787706 0.058537934 -0.028372847 -0.044405524 -0.08285763
-0.098034516 0.02443078 0.08460294 -0.058757953 0.08019268 0.07863068 -0.00772132 -0.06194921
-0.06470671 -0.089473076 0.12373865 -0.016542638 -0.024162184 -0.07043985 0.041554682 0.120342635
-0.008105713 -0.040764384 0.020633968 0.04027991 -0.029277181 0.088597566 0.023130184 0.015310724
0.0631701 0.06530883 0.07563854 -0.0018335842 -0.044971816 0.04658167 0.06068952 -0.07094479
-0.027753072 -0.02098387 0.0015931284 0.0979943 0.09165489 -0.07359474 0.11333721 -0.06538384
0.0070467717 0.011147904 -0.07803036 -0.08339436 0.011553297 -0.03433162 0.065589756 -0.027410135
-0.08840159 0.035304766 0.07751941 -0.1233807 0.052325085 0.02384203 -0.11648086 -0.057354715
-0.016356818 -0.046770614 0.03827391 0.0537664 0.09064136 0.066319354 0.10583771 -0.045079403
0.012190043 -0.049175777 -0.044707227 -0.029293908 0.034653716 -0.040235024 0.048305046 0.02441804
0.022430614 -0.08648757 0.03671082 0.010347521 -0.05573674 0.088175535 -0.037496995 0.061215885
0.05798531 0.019618634 0.026225237 0.08941237 -0.032739338 -0.028678242 0.08306234 0.039055545
0.006758819 -0.01669643 -0.019579824 -0.030965744 0.042297695 -0.06304896 -0.070279375 0.07876032
-0.034817785 -0.10266388 0.005131936 0.018012134 0.0584331 0.014248127 -0.061814293 0.016888391
0.101915464 -0.10140206 0.044700608 -0.01591849 0.04997074 0.039439645 -0.075052075 -0.09237173
0.091471806 0.00815389 0.06525134 0.07296595 0.049643975 -0.033098813 0.07184977 0.11160943
-0.13570224 -0.033116113 0.064632826 -0.006376031 0.0074503957 0.003993445 -0.04270596 0.075306214
-0.088516064 -0.053207006 0.082072325 -0.0044317967 0.07135397 0.08774903 -0.039800506 0.0045725647
-0.063393496 -0.007934094 -0.107533984 -0.031952366 0.10744605 -0.042658366 0.02399115 -0.067661576
-0.031802364 0.04234288 -0.058565658 0.054076314 -0.018245108 -0.017366208 0.031821664 0.06808507
0.097812 -0.027216578 -0.04731681 -0.046895307 0.017495064 -0.08342316 -0.009995358 0.03630179
-0.021068614 -0.002178755 -0.036182564 -0.009992637 0.1265417 0.052701037 0.029438753 -0.012651353
0.04268226 -0.07588568 -0.067137375 -0.052211322 0.10387244 -0.09862297 -0.057576388 0.04328923
-0.03287459 -0.08552819 0.016751194 0.08683861 -0.04574498 -0.03771635 -0.11839833 0.046327926
00000000: 73d2 24bd 4ffc a33d 9e82 05be 2705 083d
00000010: 26e4 c9bd a686 dbb9 5f03 823c 8581 1ebd
00000020: 6a8e 2f3d c510 afbd 954f 1c3c 67f1 53bd
00000030: 9d8a aa3d a783 bcbc d670 23be 0290 4c3c
00000040: bd07 a4bd 925b 833d 355b 403c 142d 833c
00000050: fd88 f83d 4ccc 66bd 3f85 7dbd 3486 ffbc
00000060: ba17 f0bd 1bbc b43a fb0d 8b3b 9fee 0fbd
00000070: d863 acbd 3e2d dd3c 01f6 ad3d ffd7 ddbd
00000080: 36eb 93bc 827b 803c 7e33 05bd d879 b63d
00000090: e4d2 86bd 4524 b13d cdfc a1bc 338b e73d
000000a0: dc1d 8d3c 4f7f a13d e13b f5bd 6587 98bc
000000b0: d5b1 a1bc 1df4 a1bc 708d 8bbc 3bc8 36bd
000000c0: c274 a53d 5dbe da3d c253 05be a8dc b3bd
000000d0: 4af2 d0bd e5f5 abbc 4c5c b43c 22dc 61bd
000000e0: 60c7 c3bd 3f27 833d 66fb 4bbd 1ffb 7dbc
000000f0: 5289 a2bb 260f 80bd ae9a bcbd 3148 4fbd
00000100: 6e66 b93d b822 17ba 024b c8bd e3f8 b33d
00000110: 79c5 6f3d 2c6e e8bc 91e2 35bd 43b1 a9bd
00000120: 52c6 c8bd 0f23 c83c 4e44 ad3d 2eac 70bd
00000130: 0f3c a43d 1f09 a13d 2003 fdbb 74be 7dbd
00000140: f484 84bd a93d b7bd b06a fd3d 6d84 87bc
00000150: c6ef c5bc c542 90bd 3e35 2a3d 3376 f63d
00000160: d3cd 04bc 8ef8 26bd 9108 a93c 8cfc 243d
00000170: b3d6 efbc a472 b53d 837b bd3c d5d9 7a3c
00000180: 535f 813d a3c0 853d 61e8 9a3d e054 f0ba
00000190: 5e34 38bd 6ccc 3e3d 9395 783d 814b 91bd
000001a0: 695a e3bc 5de6 abbc 85d0 d03a 3cb1 c83d
000001b0: 8fb5 bb3d d7b8 96bd 571d e83d f6e7 85bd
000001c0: 9be8 e63b b3a5 363c 62ce 9fbd aaca aabd
000001d0: 0a4a 3d3c 509f 0cbd ec53 863d 388b e0bc
000001e0: e50b b5bd bb9b 103d 7fc2 9e3d 05af fcbd
000001f0: d452 563d 5c50 c33c 848d eebd c7ec 6abd
00000200: bcfe 85bc 8b92 3fbd 1ac5 1c3d 283a 5c3d
00000210: 2da2 b93d 71d2 873d 71c1 d83d 2ea5 38bd
00000220: bfb8 473c 8a6c 49bd ed1e 37bd c7f9 efbc
00000230: 0ef1 0d3d 7bcd 24bd 83db 453d 5708 c83c
00000240: 68c0 b73c 6520 b1bd 165e 163d a688 293c
00000250: 354c 64bd 6095 b43d 7396 19bd 82bd 7a3d
00000260: 0182 6d3d 42b7 a03c 4fd6 d63c d51d b73d
00000270: af19 06bd a2ee eabc 971c aa3d b5f8 1f3d
00000280: 1579 dd3b f4c6 88bc de65 a0bc dfab fdbc
00000290: 5940 2d3d d01f 81bd a2ee 8fbd 174d a13d
000002a0: 189d 0ebd 7141 d2bd cd29 a83b 2f8e 933c
000002b0: 8c57 6f3d fa70 693c fc30 7dbd 8659 8a3c
000002c0: 0eb9 d03d e2ab cfbd fc17 373d 7e67 82bc
000002d0: 1eae 4c3d 778b 213d e7b4 99bd 642d bdbd
000002e0: 9255 bb3d e597 053c 7fa2 853d 2c6f 953d
000002f0: 7b57 4b3d 9f92 07bd f925 933d 7c93 e43d
00000300: 87f5 0abe c3a4 07bd 375e 843d 06ee d0bb
00000310: 7322 f43b 72db 823b 72ec 2ebd 253a 9a3d
00000320: e947 b5bd 97ef 59bd 8915 a83d 9b38 91bb
00000330: 0822 923d c3b5 b33d db05 23bd 74d5 953b
00000340: 73d4 81bd 01fe 01bc c73a dcbd 7ce0 02bd
00000350: ad0c dc3d 8aba 2ebd 1789 c43c 2792 8abd
00000360: 3243 02bd ba6f 2d3d 8be2 6fbd 207f 5d3d
00000370: c476 95bc 9443 8ebc 6f57 023d 2f70 8b3d
00000380: a851 c83d 4df5 debc 45cf 41bd 4b15 40bd
00000390: cf51 8f3c c3d9 aabd 92c3 23bc 30b1 143d
000003a0: 1698 acbc 71c9 0ebb 2b34 14bd 28b8 23bc
000003b0: 2694 013e 0bdd 573d 8a29 f13c 9f47 4fbc
000003c0: 98d3 2e3d f469 9bbd 527f 89bd 8adb 55bd
000003d0: 13bb d43d d7fa c9bd 38d5 6bbd 0c50 313d
000003e0: 82a7 06bd 6729 afbd cd39 893c 71d8 b13d
000003f0: 175f 3bbd 767c 1abd d37a f2bd 5ac2 3d3d

model.all_layers.2.bias f4 [50]
-0.08645761 -0.00085606176 0.017236851 0.03047987 0.0056844354 -0.043928504 0.01726403 0.062280662
-0.04695461 -0.060365845 -0.08993707 0.040228866 -0.013220586 0.07103733 -0.020354211 0.005568398
-0.08674189 0.037303798 -0.0029202173 0.0892682 0.045742773 0.016121015 0.031673647 0.050400518
-0.008639753 0.012040019 0.0031919735 -0.059396338 -0.05946969 0.021779701 0.07997335 0.06460703
0.056317486 0.035469733 0.05586832 -0.03273829 -0.03180995 0.016840063 -0.017645799 -0.093616724
0.049768798 0.043953188 -0.09180405 0.0778374 -0.000994061 -0.079422876 -0.05343486 0.012391247
-0.07151739 0.06615914
00000000: b010 b1bd 5569 60ba 4c34 8d3c ecb0 f93c
00000010: 8044 ba3b 60ee 33bd 4c6d 8d3c 021a 7f3d
00000020: 7a53 40bd 2d42 77bd ed30 b8bd 06c7 243d
00000030: 289b 58bc 057c 913d e0bd a6bc 1c77 b63b
00000040: bba5 b1bd decb 183d 1e61 3fbb 3fd2 b63d
00000050: c65c 3b3d 3810 843c 3abc 013d c670 4e3d
00000060: c08d 0dbc 8043 453c 6e30 513b 9349 73bd
00000070: 7d96 73bd 586b b23c 11c9 a33d b150 843d
00000080: 2aad 663d b648 113d 2ed6 643d 9618 06bd
00000090: 264b 02bd 2cf4 893c ec8d 90bc 20ba bfbd
000000a0: 5eda 4b3d 4208 343d c303 bcbd 3769 9f3d
000000b0: 274b 82ba 76a8 a2bd 83de 5abd a804 4b3c
000000c0: b677 92bd 717e 873d

model.all_layers.3.weight f4 [50]
0.64583534 0.6669137 0.65026927 0.6530526 0.66242373 0.6578447 0.6490432 0.6432498
0.6457406 0.66284055 0.65405715 0.66872126 0.6708169 0.65922254 0.6600164 0.65366554
0.6708524 0.6568365 0.6563565 0.6566473 0.6457561 0.64631444 0.65884715 0.66248745
0.64249855 0.6641318 0.6561161 0.64813584 0.6496903 0.65924805 0.6616295 0.6547289
0.66032064 0.6543947 0.64671654 0.65869826 0.6584826 0.6671603 0.6625064 0.65788174
0.6576684 0.6531467 0.65449405 0.65068364 0.6583964 0.6568429 0.6521902 0.6552483
0.65667987 0.6465269
00000000: 7755 253f dbba 2a3f 0c78 263f 752e 273f
00000010: 9a94 293f 8368 283f b227 263f 05ac 243f
00000020: 424f 253f ebaf 293f 4a70 273f 5131 2b3f
00000030: a8ba 2b3f cfc2 283f d6f6 283f a056 273f
00000040: fcbc 2b3f 7026 283f fb06 283f 0a1a 283f
00000050: 4650 253f dd74 253f 35aa 283f c798 293f
00000060: c97a 243f 8b04 2a3f 3af7 273f 3bec 253f
00000070: 1a52 263f 7bc4 283f 8d60 293f 509c 273f
00000080: c60a 293f 6986 273f 378f 253f 73a0 283f
00000090: 5192 283f 04cb 2a3f 059a 293f f06a 283f
000000a0: f55c 283f 9f34 273f ec8c 273f 3493 263f
000000b0: ab8c 283f db26 283f f0f5 263f 5abe 273f
000000c0: 2c1c 283f c982 253f

model.all_layers.3.bias f4 [50]
0.01292533 0.00718445 -0.02317544 -0.008715896 -0.010427674 0.012135099 -0.011444806 -0.00039503557
0.001406806 -0.019397719 0.00126513 0.015440553 0.0047635003 -0.015182894 0.0066818623 0.0087324465
0.032776438 -0.00056388654 -0.008158717 0.021604279 0.008209973 0.0057209837 0.011387456 -7.866911e-05
0.010668494 0.0006419336 0.018115047 0.009884674 -0.013179655 0.016633807 -0.011363569 -0.01774013
-0.0073614656 0.035907432 -0.0090479795 -0.004394424 0.00096405245 0.019334994 -0.0052208197 0.002913574
-0.0056780954 0.011326601 0.00060064683 -0.011254811 0.00028830522 0.010951599 -0.016139891 -0.01768991
-0.0058151647 0.0018408222
00000000: c3c4 533c 896b eb3b 6cda bdbc 1ecd 0ebc
00000010: d6d8 2abc 4bd2 463c ff82 3bbc c71c cfb9
00000020: 9464 b83a f7e7 9ebc b8d2 a53a 60fa 7c3c
00000030: 2317 9c3b acc1 78bc 86f3 da3b 8912 0f3c
00000040: 9640 063d c9d1 13ba 24ac 05bc 75fb b03c
00000050: 1f83 063c 1777 bb3b 7492 3a3c 28fb a4b8
00000060: e8ca 2e3c 6f47 283a 0266 943c 54f3 213c
00000070: 7bef 57bc 9f43 883c 432e 3abc c053 91bc
00000080: 7338 f1bb ac13 133d fa3d 14bc 1aff 8fbb
00000090: 77b8 7c3a 6c64 9e3c 6913 abbb a9f1 3e3b
000000a0: 510f babb 3593 393c ba74 1d3a 1966 38bc
000000b0: ac27 9739 566e 333c ce37 84bc 6eea 90bc
000000c0: 238d bebb be47 f13a

model.all_layers.3.running_mean f4 [50]
-0.08645761 -0.00085604074 0.01723685 0.030479895 0.0056844377 -0.043928497 0.017264036 0.062280674
-0.046954602 -0.06036586 -0.08993707 0.040228877 -0.013220586 0.07103733 -0.020354208 0.005568402
-0.086741894 0.037303798 -0.002920212 0.08926821 0.04574276 0.01612101 0.03167364 0.050400514
-0.008639765 0.012040008 0.0031919822 -0.059396356 -0.05946969 0.021779697 0.07997335 0.064607024
0.056317497 0.03546974 0.055868313 -0.03273829 -0.03180995 0.016840063 -0.017645802 -0.09361673
0.0497688 0.04395319 -0.09180404 0.07783739 -0.0009940739 -0.07942289 -0.053434838 0.012391265
-0.0715174 0.06615914
00000000: b010 b1bd ec67 60ba 4b34 8d3c f9b0 f93c
00000010: 8544 ba3b 5eee 33bd 4f6d 8d3c 051a 7f3d
00000020: 7853 40bd 3142 77bd ed30 b8bd 09c7 243d
00000030: 289b 58bc 057c 913d debd a6bc 2477 b63b
00000040: bca5 b1bd decb 183d 0761 3fbb 40d2 b63d
00000050: c35c 3b3d 3510 843c 38bc 013d c570 4e3d
00000060: cd8d 0dbc 7443 453c 9330 513b 9849 73bd
00000070: 7d96 73bd 566b b23c 11c9 a33d b050 843d
00000080: 2dad 663d b848 113d 2cd6 643d 9618 06bd
00000090: 264b 02bd 2cf4 893c ee8d 90bc 21ba bfbd
000000a0: 5fda 4b3d 4308 343d c203 bcbd 3669 9f3d
000000b0: 964b 82ba 78a8 a2bd 7dde 5abd bb04 4b3c
000000c0: b777 92bd 717e 873d

model.all_layers.3.running_var f4 [50]
3.4563358 0.9615328 2.5299892 2.9599397 1.0950853 1.1288992 1.5265746 1.6293764
1.1083355 0.9872865 0.9547284 0.9229268 1.0968456 0.91937983 3.1561253 1.6081849
1.0472467 1.0845788 1.5748423 1.8542583 1.0621713 1.8050224 1.5705239 1.3053257
1.3702333 1.805653 1.6054244 1.4329681 1.928992 1.1905023 1.4872463 1.0899878
1.1430627 1.6612246 1.336883 1.3171287 1.2584217 1.7314203 1.2605557 1.0368857
1.0509391 1.1862674 3.5391364 1.2560885 0.9037085 4.6675653 1.8201574 2.8503184
1.4775318 1.2609576
00000000: 9b34 5d40 0327 763f 58eb 2140 a76f 3d40
00000010: c12b 8c3f c57f 903f cc66 c33f 688f d03f
00000020: f0dd 8d3f cfbe 7c3f 1569 743f ee44 6c3f
00000030: 7065 8c3f 7a5c 6b3f f5fd 4940 01d9 cd3f
00000040: 2e0c 863f 7ad3 8a3f 6f94 c93f 5658 ed3f
00000050: 3bf5 873f f90a e73f ed06 c93f ea14 a73f
00000060: ce63 af3f a31f e73f 8c7e cd3f 806b b73f
00000070: 36e9 f63f 6162 983f 165e be3f b884 8b3f
00000080: e14f 923f 02a3 d43f fb1e ab3f ac97 a83f
00000090: f613 a13f 2e9f dd3f e459 a13f acb8 843f
000000a0: 2c85 863f 9cd7 973f 3681 6240 82c7 a03f
000000b0: 7159 673f b25c 9540 ebfa e83f 9e6b 3640
000000c0: c31f bd3f 0f67 a13f

model.all_layers.4.weight f4 [2, 50]
0.03908529 -0.100615 -0.018386737 -0.002583632 0.021270169 0.05472416 -0.07206337 0.03686093
-0.03697784 -0.028270403 0.04795008 -0.0415299 -0.012305725 0.12707226 0.09160164 0.014683977
0.009079234 -0.008689494 0.014633406 0.096137516 -0.015769461 0.010199412 -0.060616445 -0.039166138
0.005586315 -0.053177956 0.009120397 -0.010717086 -0.10458452 0.05889031 0.08171897 -0.050175965
-0.013322936 0.044483993 -0.0063676783 -0.010792578 -0.072177544 0.086418726 0.041131523 -0.1472749
-0.016755803 -0.08650064 -0.052499715 -0.08691528 -0.09937368 0.066522144 -0.036130052 -0.08095132
-0.018447489 -0.030800091 -0.04502749 -0.12935919 0.08867382 0.021662135 0.07717196 0.0824503
0.021059668 0.03362393 -0.008192002 0.035616327 0.015880734 -0.06153118 -0.06572287 0.11970532
0.025577266 0.021462787 -0.0039123315 0.08976929 0.05706584 -0.0046840073 0.012403428 -0.022279248
0.010490693 -0.06258055 0.035113763 -0.028118024 -0.05335655 -0.115085036 -0.10829949 0.0683814
0.12350421 -0.09047362 0.0021414668 -0.057443675 0.056748215 0.023563856 -0.075896 0.032319907
0.05574904 -0.066704616 -0.034727987 -0.05096202 0.043961223 -0.052711662 -0.07957906 -0.05311689
0.038058795 -0.023855334 -0.0133222705 -0.08008565
00000000: e617 203d 3d0f cebd c89f 96bc 2752 29bb
00000010: c73e ae3c 7126 603d f695 93bd 7dfb 163d
00000020: 1376 17bd 5597 e7bc 4e67 443d 421b 2abd
00000030: f49d 49bc 3b1f 023e a499 bb3d 1095 703c
00000040: 11c1 143c 615e 0ebc f4c0 6f3c bfe3 c43d
00000050: f52e 81bc 6f1b 273c f348 78bd ac6c 20bd
00000060: 680d b73b 21d1 59bd b86d 153c b796 2fbc
00000070: 6930 d6bd f736 713d 465c a73d 5085 4dbd
00000080: 7248 5abc d934 363d f5a7 d0bb 5ad3 30bc
00000090: d2d1 93bd 4dfc b03d 8779 283d 3bcf 16be
000000a0: 7743 89bc 3f27 b1bd f109 57bd a300 b2bd
000000b0: 6e84 cbbd c33c 883d 1bfd 13bd cec9 a5bd
000000c0: 301f 97bc 7950 fcbc bf6e 38bd bc76 04be
000000d0: 9f9a b53d ca74 b13c 550c 9e3d b4db a83d
000000e0: 5385 ac3c 3fb9 093d bf37 06bc 6de2 113d
000000f0: 5018 823c 1e08 7cbd b699 86bd 1028 f53d
00000100: 6a87 d13c bad2 af3c 0433 80bb f6d8 b73d
00000110: dfbd 693d 4d7c 99bb bf37 4b3c f882 b6bc
00000120: 28e1 2b3c 3b2a 80bd 73d3 0f3d c557 e6bc
00000130: 668c 5abd b4b1 ebbd 1fcc ddbd 8c0b 8c3d
00000140: c6ef fc3d 3c4a b9bd da57 0c3b 0f4a 6bbd
00000150: d170 683d fd08 c13c 5d6f 9bbd e161 043d
00000160: 1b59 643d 6e9c 88bd ef3e 0ebd 8dbd 50bd
00000170: af10 343d 2fe8 57bd 59fa a2bd 1991 59bd
00000180: 8ae3 1b3d 436c c3bc a745 5abc f203 a4bd

model.all_layers.4.bias f4 [2]
-0.04391149 -0.13390082
00000000: 89dc 33bd 4c1d 09be
