unit06-dl-tips/6.8-debugging/lightning_logs/version_6/checkpoints/epoch=9-step=10.ckpt (torch, 71794 bytes, 14 tensors)

model.all_layers.0.weight f4 [100, 100]
00000000: 5796 40bd d35a 603c 7eeb cfbd 5dff 343d
00000010: 6ab7 ccbd 5f8d be3d 62c4 34bd d573 5fbd
00000020: 3a75 d9bd 08c0 883d 5d9d 44bd 5f69 f13c
00000030: dea0 5dbd 9222 33bd 0291 22bd 3b2d 7b3c
00000040: 1ab1 98bd 5a8c a03d 32f3 7bbb e050 2d3d
00000050: ab33 8e3d f3f2 bf3b ecda 343d ba65 b13d
00000060: 6676 69bd c56d 173c 3f48 56bd 7e21 a83d
00000070: bc76 af3d a20c a7bd 474b a13d 7d6c ba3d
00000080: e1db 133d 6c8e 583d 5ead a83d 4a5c 6ebc
00000090: 4408 b2bd 8cf7 34bd e6c6 68bd 2d4a 18bc
000000a0: 5424 463c 4783 cdbc d47f 65bc 2956 d03d
000000b0: c4e9 31bc 4bff ec3b 75ac b6bc 662a 1f3c
000000c0: d79e e13d e42d 813d 0e10 023d 00f5 4d3d
000000d0: cc1c f93c f0fd 123d a2d4 03bd a28b b8bd
000000e0: 0d66 72bd 109f cb3d ba7b 953c b974 8bbd
000000f0: 5205 7e3b 68c8 a03d a3ee bdbd d3af 93bd
00000100: ab75 3dbd 1763 053d eaaa 17bc 3393 92b8
00000110: a8b4 b1bd b850 fd3c da79 a33d beb8 823d
00000120: b3fa 92bd c351 8fbd bb1e 2c3d 8073 153d
00000130: 7840 213d cc5f c5bd 54b5 afbc 9dcc 843d
00000140: d46f 683d acbb 2b3c 43c7 aa3c 025d ebbc
00000150: 6bf8 88bd 0a30 c6bc 108b 44bd 9a88 cc3d
00000160: 1fab 303d 1997 083d a19a 82bd 5d20 d13d
00000170: 7a7e 693d baf0 a23d 6c32 03bd 9d9d 743c
00000180: 874e a23d 256b 843d 71b6 ad3d 7eec b1bc
00000190: c98e b33d ccf3 8fbd c299 113e 503e 7ebd
000001a0: 85cb 83bc 185e 66bd 036b b4bc d057 a43d
000001b0: f5f1 ed3d a15b 2ebd 74e2 d53d 4739 abbd
000001c0: c582 c53c 11a4 1cbd 682e 1bbc 9c63 8dbd
000001d0: 3beb aabd 31d4 cfbc fb0b 443b 3048 9e3d
000001e0: 06ef 04bd ad76 443d 3dc3 a63d b10a 8fbc
000001f0: a664 193e bcc9 6cbd 101d ae3d b9d9 203d
00000200: 16f0 e93c aa26 a23d 064f 8abc 3ebd 31bd
00000210: bae2 2a3d 798c b5bd a5ec 54bc c9cd 37bd
00000220: 5682 ed3c 184e 493c 93f5 7abc 676b 04bd
00000230: 12be dcbc 1b42 78bd a2e3 a6bb f60b aa3d
00000240: 340b bd3c 11e6 65bd 84e2 73bd 852c 0ebc
00000250: ab7e d2bd a9a9 8dbd b7e5 a0bd 98fc 81bd
00000260: f0d9 863c ab76 aa3d 3f9b 913d d4d0 1d3d
00000270: f993 cbbd 46d9 b2bc fafe e3bd 5072 a73c
00000280: 73c9 9a3d 7fab f73d b28a a7bd 9961 ca3d
00000290: a06c 993d 7250 523d 6f15 83bc c3bb 0a3d
000002a0: f336 573d c7b7 943d 9627 1fbd 9f1a 8abd
000002b0: da04 1a3a 0b69 9a3c cb66 abbd 9028 e8bd
000002c0: 3e9b 52bd f90b 05bd b025 b93d 278d fa3c
000002d0: ef79 bdbc 233a 563c 8532 a33d e724 65bd
000002e0: f8aa b7bc c50b 6fbd 347d c1bd 4f64 073d
000002f0: 0d68 003e f84e 57bd b26e f9bd d57d ddbd
00000300: a6cf e13b b049 b53d 2b7b d1bd 38e5 80bd
00000310: dc24 8a3d 37b9 3cbd d4bf b83d 46c7 213d
00000320: 4b51 1dbd e5f4 36bb 7347 12bd 6877 f4bc
00000330: 50a9 a6bd ca87 ef3c b272 0c3c 91ca 603c
00000340: 17b7 a5bd 771f e43d 40f9 51bd 21a7 983c
00000350: 6db9 963d 10fb 30bd 7de8 a33a 2618 56bb
00000360: 7ee2 743d 6f44 babc 7326 043d db9d 8c3c
00000370: 92e7 bfbd bba6 aebd d67a 293d c733 e4bc
00000380: c33b af3c e9bb d4bd a5be 74bd fad0 afbd
00000390: 50d2 383d ec16 d1bb 0bee 1abd 73f5 273d
000003a0: d4ec d5bd 5dc0 f63c 1c3b 93bc 6153 b5bd
000003b0: 92a8 693d c61e a9bc 1f4b bebd f815 843d
000003c0: d20e b03d 2116 46bc 9eeb 5ebd 159d 723c
000003d0: 2486 4c3d fa2c dd3d 4206 a0bd c193 32bd
000003e0: 9c8d c23d aa9c 4a3d c33e 9f3d 8e38 30bd
000003f0: 7c58 b63d 2e8e 9abd 200d 8cbc 32f7 f03c
-0.047018375 0.013693529 -0.101523384 0.044188846 -0.09995921 0.09304308 -0.044132598 -0.054553825
-0.10618062 0.06677252 -0.048001636 0.02946919 -0.054108493 -0.04373414 -0.03968907 0.015330608
-0.074556544 0.0783927 -0.0038444516 0.042313457 0.06943449 0.005857819 0.044154093 0.08661981
-0.05699768 0.00924248 -0.052314993 0.08209513 0.08567569 -0.081567064 0.07875686 0.09102724
0.036098365 0.0528702 0.08236192 -0.014548371 -0.08692983 -0.04418139 -0.05683031 -0.009295029
0.012093622 -0.025087012 -0.014007527 0.10172684 -0.010858957 0.0072325817 -0.02229903 0.009714698
0.110166244 0.06307581 0.031753592 0.05028248 0.03040924 0.035886705 -0.032185204 -0.09011008
-0.059179354 0.09942448 0.018247474 -0.068093725 0.0038760495 0.078507245 -0.09274032 -0.0721127
-0.046254795 0.032565203 -0.009257058 -6.9892405e-05 -0.086770356 0.030922279 0.07982226 0.06382893
-0.07176723 -0.06998017 0.042021494 0.036487103 0.039368123 -0.096374124 -0.021448769 0.064843394
0.056747273 0.010481756 0.020846969 -0.028730873 -0.06688007 -0.024192829 -0.047984183 0.09986992
0.043131944 0.033347223 -0.063771494 0.10211251 0.057005383 0.07956071 -0.032030508 0.014930156
0.07925134 0.06465749 0.084820636 -0.021719214 0.087674685 -0.070289224 0.1421881 -0.062071145
-0.016088257 -0.05624208 -0.022023683 0.080245614 0.11618415 -0.042567853 0.10443583 -0.08360534
0.024110207 -0.038242403 -0.009471513 -0.069037646 -0.08345648 -0.025369735 0.0029914367 0.077286124
-0.032454513 0.04796474 0.081427075 -0.017461153 0.149798 -0.057809576 0.08501637 0.039270137
0.028556865 0.07917531 -0.016883384 -0.043393366 0.04172013 -0.08864684 -0.012995874 -0.044873986
0.028992813 0.012286685 -0.0153173385 -0.03232899 -0.026946101 -0.060609918 -0.005093054 0.083030626
0.023076631 -0.05612761 -0.059542194 -0.0086776065 -0.10278066 -0.06917126 -0.07856315 -0.063470066
0.016461343 0.08323415 0.07109689 0.038529232 -0.09940333 -0.02183212 -0.11132617 0.02044025
0.07557955 0.12093257 -0.08180751 0.098818965 0.07491422 0.05134625 -0.016001431 0.03387047
0.052542638 0.07261615 -0.03885611 -0.06743359 0.0005875357 0.018848917 -0.083692156 -0.11335862
-0.05141758 -0.03248212 0.090403914 0.030584885 -0.023129432 0.013075384 0.0796862 -0.055943396
-0.022420391 -0.058360834 -0.09447709 0.033054646 0.12539692 -0.052565545 -0.121793166 -0.10815016
0.0068912087 0.088519454 -0.102285706 -0.0629372 0.067453116 -0.046075072 0.09020963 0.039496683
-0.038407605 -0.0027916965 -0.03571267 -0.029842094 -0.081377625 0.029239554 0.008572267 0.013720171
-0.08091562 0.11138814 -0.051263094 0.01863438 0.07359586 -0.04320818 0.00125052 -0.0032668202
0.059786312 -0.02273771 0.03226323 0.017165115 -0.093703404 -0.08527895 0.04137691 -0.02785672
0.021390801 -0.103874035 -0.059752125 -0.08584781 0.045122445 -0.0063809063 -0.03782467 0.041005563
-0.10445562 0.030121023 -0.017972521 -0.08853794 0.057045527 -0.020644557 -0.09291672 0.06449503
0.08596577 -0.012090237 -0.05442392 0.014807959 0.049932614 0.10799594 -0.078136936 -0.04359794
0.09499666 0.049465813 0.07775643 -0.043022685 0.08903596 -0.0754665 -0.017096102 0.029414747

model.all_layers.0.bias f4 [100]
00000000: 5010 733c 4feb 8b3d 0c7d ee3c e6a8 13bd
00000010: 00a0 3dbc 2204 6e3d 5225 0b3d c11a 7d3b
00000020: 8756 49bd 3b5f a03d 7ab7 b0bd 7dda b9bd
00000030: 1851 b53c b7ee 853d 3a3b c1bd 528d 103d
00000040: 3717 4abd 6578 8f3d e09b d0bc 83ea bf3d
00000050: 6d84 27bd b0f5 9fbb c1f1 863d a0ed dbbc
00000060: 8065 af3b 01ab 9c3d 1ca0 10bd 251b a1bd
00000070: 681a 0f3c 9fff b5bd 199e 923d 709e 1d3c
00000080: 1447 debc d859 75bc 5f40 aa3d 98f1 f2bc
00000090: b73a 81ba 50bf 693c c07b 183c 8acd 54bd
000000a0: a0d5 d0bb c354 26bd 582d 0cbc 9beb 91bd
000000b0: 7ad2 143d bd18 25bd 7006 633c 2fd3 c73d
000000c0: 5472 e73c f4a3 80bd 5d74 9fbd 60fc 7fbd
000000d0: 25d9 8b3d 67a8 a03d 7afd 0a3d d237 9fbd
000000e0: cca7 dc3c 92a7 083d 0883 9abc bc15 f53c
000000f0: c956 b13d b803 c6bc 7d5d 813d acfe bf3c
00000100: 65d0 b5bd f0df 00bc e8bc d1bc 6869 1bbc
00000110: a02f 97bb c537 99bd 9ec6 483d b547 88bd
00000120: 307f 49bd 7187 c53d b849 ae3c 5836 0ebc
00000130: de4c 4d3d 3d5f c73d 2746 4ebd 529d bdbd
00000140: 587c 71bc 7235 80bd f05c c0bd 8a0c 0abd
00000150: 007c c0bc 7eba 85ba f2aa 373d e115 8a3d
00000160: 14c2 c5bc 9466 f8bc d319 7abd ff41 923d
00000170: 5617 1c3d 10f9 63bc d61a 733d 41f5 a53d
00000180: 04a0 05bd 77c3 963d a6ec 10bd 2c16 a0bc
0.014835432 0.06831991 0.029112361 -0.036049746 -0.0115737915 0.05810941 0.03397114 0.0038620683
-0.049154785 0.07830664 -0.086287454 -0.090748765 0.022133395 0.06539672 -0.09435125 0.035291024
-0.049338546 0.07005385 -0.025464952 0.093709014 -0.040897775 -0.004881583 0.0658908 -0.026846707
0.005352676 0.07649804 -0.035308942 -0.078665055 0.008734323 -0.088866465 0.07159061 0.009620294
-0.027133502 -0.014975034 0.08313059 -0.029656217 -0.0009859417 0.014266804 0.009306848 -0.05195383
-0.0063731223 -0.04060818 -0.008555733 -0.07125016 0.03633354 -0.040306795 0.013856515 0.09757077
0.028252758 -0.062812716 -0.077858664 -0.062496543 0.068285264 0.0784462 0.03393314 -0.07774319
0.02693548 0.033362933 -0.018861309 0.02991759 0.08659131 -0.024171695 0.063166596 0.023436867
-0.08877639 -0.007865891 -0.025602773 -0.00948558 -0.0046138316 -0.0748134 0.04901754 -0.06654302
-0.04919356 0.09644974 0.021275386 -0.008679949 0.050122134 0.09734962 -0.05035987 -0.09258522
-0.0147391185 -0.06260194 -0.093927264 -0.033703364 -0.023496628 -0.0010202674 0.04484076 0.06742454
-0.024140395 -0.03032235 -0.061059784 0.07141494 0.038108192 -0.013914362 0.059351765 0.08103419
-0.032623306 0.07361501 -0.035381936 -0.019541822

model.all_layers.1.weight f4 [100]
00000000: 9906 803f 15fb 803f f61b 833f 0f09 7d3f
00000010: 331e 7b3f 2164 803f 3339 803f d94d 7e3f
00000020: ce34 7e3f f311 7e3f bba1 803f bac2 7e3f
00000030: cde1 803f a483 7f3f f0fe 813f 72ca 803f
00000040: a7b4 7e3f f25c 7c3f 439a 813f 52cf 7f3f
00000050: 6a8a 7d3f 456d 7d3f 4581 7b3f 248c 813f
00000060: ca56 803f 87a0 7f3f 47a6 7e3f 9268 7f3f
00000070: 234b 813f bf1f 813f f633 803f 413e 7f3f
00000080: e364 7e3f 5eea 803f 1abf 7d3f da78 803f
00000090: 0753 813f 8054 7d3f 16f3 7c3f e3c6 823f
000000a0: 65e5 7e3f 6e2d 803f 887c 7f3f 3876 813f
000000b0: ad53 7f3f 69a8 803f 7f66 813f 9ce8 803f
000000c0: 4869 7c3f 7b8f 803f a93c 813f c33d 813f
000000d0: bd58 803f e06b 7f3f 991d 803f 2b9a 803f
000000e0: 5278 7d3f 20db 803f ba3b 823f 0b1d 7f3f
000000f0: b672 803f d46f 7d3f 8543 7f3f dbda 7e3f
00000100: f860 7c3f 098c 7f3f c171 803f e953 803f
00000110: dc86 7f3f a84f 7e3f feba 803f b635 803f
00000120: 05b7 7f3f 3380 7e3f ce8a 7e3f 05ff 7c3f
00000130: af89 7f3f ee44 803f 4fba 7f3f 65a8 7c3f
00000140: 4daf 7c3f cc7e 803f cbd3 7c3f 80fa 813f
00000150: 9ed1 7e3f df61 7d3f 3871 823f 9619 803f
00000160: 1f7a 7f3f 04cd 7f3f d02a 7d3f 2a31 813f
00000170: 7237 813f 3cec 813f c4d4 7d3f 17e6 803f
00000180: 289b 7f3f 49f1 803f 1aa0 7f3f eeba 7e3f
1.0002013 1.0076624 1.0242908 0.9884195 0.98092955 1.0030557 1.0017456 0.99337536
0.99299324 0.9924614 1.0049356 0.9951588 1.0068909 0.9981024 1.0155926 1.0061781
0.99494404 0.98579323 1.0125202 0.9992572 0.9903933 0.9899486 0.98244125 1.0120893
1.0026486 0.9985432 0.9947247 0.99768937 1.0101055 1.0087813 1.0015857 0.99704367
0.9937269 1.0071523 0.9911972 1.0036881 1.0103463 0.9895706 0.9880842 1.0216945
0.9956878 1.0013864 0.99799395 1.0114202 0.99737054 1.0051395 1.0109404 1.0070987
0.98598146 1.0043787 1.0096637 1.0096973 1.0027081 0.9977398 1.0009032 1.0047048
0.9901172 1.0066872 1.0174477 0.9965369 1.0035007 0.9899876 0.997124 0.99552697
0.9858546 0.9982305 1.0034715 1.0025607 0.99815154 0.99340296 1.0057065 1.0016391
0.9988864 0.99414366 0.9943055 0.9882663 0.99819463 1.0021036 0.9989366 0.9869445
0.9870499 1.0038695 0.9876067 1.0154572 0.995386 0.98977464 1.0190802 1.0007808
0.99795717 0.99922204 0.9889345 1.0093129 1.0095046 1.0150218 0.9915278 1.0070218
0.99846125 1.0073634 0.9985367 0.9950398

model.all_layers.1.bias f4 [100]
00000000: 3237 31b0 cb76 4031 cc5a f730 0253 d030
00000010: a90b 8730 ebde 17b0 310e b930 fcf0 83b0
00000020: cdf0 be2f 6b3f 5731 2358 0031 6279 bc2e
00000030: bfa8 2d31 4ac4 a8b0 2d45 97b0 d076 d32e
00000040: 8435 e6b0 7285 f1b0 9da2 b730 7c22 31b1
00000050: 6e00 2430 3774 e62f 7629 d9ae d932 e330
00000060: d48e 73b0 0c63 a4b0 cc42 e2b0 3cc0 ad30
00000070: 9960 1031 d4c4 61b0 a46a c230 dbd1 d130
00000080: b497 29b1 5197 93af 76c4 ba30 e5ac 3ab0
00000090: 5220 d930 9137 89af 652e fab0 7091 3730
000000a0: fc7b aab0 0d83 06b0 0b47 b830 d84c abb0
000000b0: 202d d32f 5fff d730 a45d ff30 dfbf 6daf
000000c0: e707 77af eaab 3431 d98a d630 2c00 402e
000000d0: 9974 47b1 41d8 38b1 4cf7 50b0 fb79 97b0
000000e0: 9eb4 abb0 b54e 06b1 06a4 fdb0 693e 37b0
000000f0: fe43 1431 ce81 e5b0 f707 5fb0 1bc2 23b1
00000100: 3622 edb0 6f1f 0531 78c6 0c30 3fae 9430
00000110: 0364 9230 2e73 dbaf e32c a42f 0bb5 f230
00000120: 9694 8cb0 ee42 8ab0 fc3f 4e2e caa5 44b1
00000130: 2d59 75b0 99d6 e6b0 f72b c7b0 82ff f430
00000140: a23e c3b0 ad1c baae 99fb 20b1 d599 b6b0
00000150: b41a d5b1 784a cfb0 d90f 03af 84d7 da30
00000160: 6555 29b1 a719 3431 5a14 a5b0 a000 1631
00000170: 9f79 18b0 d2ca 80b0 f43d 9130 7142 43b1
00000180: aebf 2331 ec22 1231 0380 2c2f 2c32 d8af
-6.447066e-10 2.8007203e-09 1.7997421e-09 1.5157584e-09 9.825857e-10 -5.5250265e-10 1.3464555e-09 -9.599996e-10
3.4731898e-10 3.1322667e-09 1.8676551e-09 8.570812e-11 2.5270734e-09 -1.2279397e-09 -1.1006357e-09 9.6162744e-11
-1.6749913e-09 -1.7572985e-09 1.336122e-09 -2.5776492e-09 5.9663463e-10 4.1919332e-10 -9.8753825e-11 1.6530876e-09
-8.8605856e-10 -1.1960721e-09 -1.6462649e-09 1.2642043e-09 2.1009667e-09 -8.213423e-10 1.4145667e-09 1.5266396e-09
-2.467897e-09 -2.684666e-10 1.3589119e-09 -6.7912104e-10 1.5798014e-09 -2.4959637e-10 -1.820308e-09 6.678169e-10
-1.2404366e-09 -4.893515e-10 1.3407954e-09 -1.2463728e-09 3.841274e-10 1.571589e-09 1.8580306e-09 -2.1623191e-10
-2.2467327e-10 2.629117e-09 1.5610012e-09 4.36559e-11 -2.902459e-09 -2.689845e-09 -7.602139e-10 -1.1021365e-09
-1.2493222e-09 -1.9544306e-09 -1.8454791e-09 -6.66637e-10 2.1575484e-09 -1.6698836e-09 -8.1138246e-10 -2.3829958e-09
-1.7253743e-09 1.9371915e-09 5.1213744e-10 1.0817941e-09 1.0651323e-09 -3.9917708e-10 2.986332e-10 1.7659273e-09
-1.0228571e-09 -1.0059844e-09 4.6895807e-11 -2.8615994e-09 -8.9257207e-10 -1.6795695e-09 -1.4491651e-09 1.7825956e-09
-1.4205919e-09 -8.4633946e-11 -2.342608e-09 -1.3285965e-09 -6.2021517e-09 -1.5082398e-09 -1.1920011e-10 1.5922841e-09
-2.4641278e-09 2.620803e-09 -1.2011114e-09 2.1828228e-09 -5.547011e-10 -9.370871e-10 1.0567747e-09 -2.8414002e-09
2.382858e-09 2.1265647e-09 1.5688788e-10 -3.932582e-10

model.all_layers.1.running_mean f4 [100]
00000000: a2ed e8be d8df 233f 6b66 5ebf 96b6 54bd
00000010: cb8c dd3e ab1b 3fbf 264a abbe b7fa 55bf
00000020: aa77 843b 4de3 e0be 9470 37bd 21f2 58be
00000030: baa1 d0bd 3ed0 f5bd 7523 d2be d3c5 143e
00000040: 49bf 8fbe 237a 1f3e b770 4a3e 3a37 b13d
00000050: c95b 4fbe 5bbc 91be 087c 3fbc 89ae 03ba
00000060: 5ebd a2be 4878 943e 74e6 0c3e db4f 9dbd
00000070: 5100 11bf 360d ffbd e338 b53e 0897 26bf
00000080: 554a f33d 81dc 1e3f 6b58 88be 0078 2e3f
00000090: b5bc ecbe d82d 373f 3cb1 45be 3637 473f
000000a0: c14d 1abf d2b8 4ebe 3952 67bf 6120 a93e
000000b0: 6086 453e ae0d a53e cc3e c0bd fb73 24bc
000000c0: a1a2 f03e cdfb fcbe 26a8 86be e59c 29bf
000000d0: 186b 4a3e ff4a 0d3e ae42 05be aa33 153e
000000e0: 2c7e f03e bff2 163f e919 ccbd 344d d83e
000000f0: d3ec bc3d 61c6 1cbf d9ce 773d a24a b73e
00000100: 4422 10bf c6c0 d73e bd47 f7bd 76c5 0ebf
00000110: 23ab 363c d74c e93e f455 10bf 97ea 8ebe
00000120: 0a19 2bbe 6515 35be 110c 033e 4d8c 463d
00000130: bffc 9abd a6cf 80be 26ca 783e fd30 0bbf
00000140: 678c 44be 7158 063f 7703 11be 9fc7 133f
00000150: 24f9 6dbf b5eb 24bd 83a3 4b3e a350 aa3c
00000160: 81ca 463f 31d6 f5be a4b4 c63d 1315 0fbf
00000170: a555 3a3f e5bc a63e acc0 c7be 6a10 ebbd
00000180: 2756 3dbd d452 d3bd 5306 a4be ca25 2a3e
-0.454938 0.64013433 -0.8687503 -0.05193194 0.4327148 -0.7465159 -0.33455008 -0.83585685
0.0040425854 -0.43923417 -0.044785097 -0.21186115 -0.10187097 -0.1200261 -0.41042677 0.14528589
-0.28075626 0.15573935 0.1976956 0.08653112 -0.20249857 -0.28464016 -0.011687286 -0.0005023261
-0.317851 0.28998017 0.13759786 -0.07681247 -0.5664111 -0.12453692 0.35394964 -0.65074205
0.11879412 0.6205521 -0.26629958 0.68151855 -0.46237722 0.71554327 -0.19305891 0.7781862
-0.60274893 -0.20187691 -0.90359837 0.33032516 0.19289541 0.32237 -0.093869776 -0.0100374175
0.46999076 -0.4941086 -0.26300162 -0.6625503 0.19767416 0.1379814 -0.13013718 0.1457049
0.46971262 0.5896415 -0.099658795 0.422464 0.09224858 -0.612402 0.0605 0.35799128
-0.56302285 0.42139262 -0.1207423 -0.5577005 0.011149201 0.45566437 -0.56381154 -0.27913353
-0.1670877 -0.17683943 0.12797572 0.048473645 -0.07567739 -0.25158423 0.24295864 -0.54371625
-0.19194184 0.524787 -0.14161478 0.5772647 -0.92958283 -0.04026385 0.19886594 0.020790404
0.77652746 -0.48014978 0.09702423 -0.5589153 0.72786933 0.3256599 -0.39014184 -0.1147774
-0.04622474 -0.103185326 -0.32036075 0.16615978

model.all_layers.1.running_var f4 [100]
00000000: 0015 8140 edb8 b640 4459 dd40 e383 b640
00000010: 562d 9b40 07df be40 7215 7240 5d94 8540
00000020: e323 0641 a4ef 6040 6ad1 b140 d4bc 0341
00000030: 0be1 b140 349e 0341 164e 2741 29d3 cd40
00000040: ce18 0c41 7283 1141 5737 5440 c78e 5b40
00000050: 0f7e a340 5470 7d40 0442 4040 30a8 8a40
00000060: 961e c040 f46d a640 6b4c 7440 2d6f f340
00000070: 4e97 c640 f236 9140 4b86 0a41 6381 3440
00000080: 8a3b 8c40 e93f da40 9a80 9640 2499 8540
00000090: d7fb 5e40 0d22 da40 8e78 de40 18cf 8140
000000a0: db83 cf40 cbc5 3940 df48 2e40 0a80 3541
000000b0: 1a93 9a40 8c31 2d40 e0c8 ac40 870d 7940
000000c0: b1af 6240 abf6 2d41 d7dd 0541 cc00 c240
000000d0: c2db 6f40 f011 8b40 5b76 bb40 41ff a940
000000e0: 0c65 e340 70d8 7f40 7f65 2941 73d6 9b40
000000f0: bbaa f640 72d1 d440 aa76 b440 4baa ff40
00000100: ea70 a940 7cf2 2840 ade7 1c41 ae65 2440
00000110: 6ae0 7d40 4b98 b340 68cc 9b40 fe74 6840
00000120: 87f2 8040 3f2b 9040 9758 0141 f04a 2841
00000130: 1d41 8c40 7888 5540 cdd5 a940 a5a4 ca40
00000140: f840 6240 dc65 6b40 47d3 0441 9ebc 4640
00000150: c064 5840 6262 a340 217d dd40 6be6 fe40
00000160: d2d4 7a40 886d 8640 97e5 9d40 ea1f 9840
00000170: fbbd 7640 a31f af40 e94c aa40 6ae9 7640
00000180: 0a3f ee40 0be5 6240 4f36 8740 ea50 c040
4.0338135 5.710074 6.9171467 5.7035995 4.849284 5.964725 3.782559 4.1743608
8.383761 3.5146265 5.5568132 8.233601 5.558721 8.226124 10.456564 6.4320264
8.756056 9.094591 3.3158777 3.4305894 5.109138 3.959981 3.0040293 4.3330307
6.0037336 5.200922 3.8171642 7.6073213 6.20597 4.537957 8.657786 2.8203971
4.382268 6.8203015 4.7031984 4.174944 3.484121 6.8166566 6.952216 4.05653
6.4848456 2.9026973 2.7231977 11.34376 4.8304567 2.706149 5.399521 3.8914506
3.5419734 10.872722 8.36666 6.0625973 3.747788 4.3459396 5.8581977 5.312409
7.106085 3.9975853 10.587279 4.869928 7.708341 6.650567 5.6394854 7.9895377
5.2950335 2.6398 9.806561 2.568706 3.9668221 5.6123405 4.868702 3.6321406
4.0296054 4.505279 8.084128 10.518295 4.3829484 3.3364544 5.3073487 6.332598
3.5352154 3.678092 8.301581 3.1052623 3.3811493 5.1057596 6.9215245 7.965627
3.9192395 4.2008705 4.934276 4.7538958 3.8553455 5.472612 5.3218884 3.8579965
7.445195 3.5452297 4.2253795 6.009877

model.all_layers.2.weight f4 [50, 100]
00000000: d2b0 3dbd 74ec a03d fb15 06be 2e48 033d
00000010: 6141 c4bd eb9e 1f3b 5e20 993c 7ed2 18bd
00000020: b949 2f3d 19c2 b3bd e802 fb3b 4e7a 59bd
00000030: ed4f b33d 1096 dcbc 0268 22be 36be 113c
00000040: d27d a5bd 9ad6 833d 16ec 993c 7083 953c
00000050: 8f3e f33d 7d16 5fbd 8faf 7abd 72b6 e5bc
00000060: c8a6 ebbd 2447 b4ba 8700 8b3b 16d2 04bd
00000070: a44f acbd 28ec ca3c 3cf2 b53d 14f8 dbbd
00000080: abcc b7bc 09ab 633c 9590 11bd 3638 b73d
00000090: cb74 88bd ea1d b53d 15de adbc 4e11 f83d
000000a0: 9dde 743c 06ff 9c3d cc86 03be 289c a4bc
000000b0: ef69 b1bc 7d37 50bc c15b 8cbc 9369 3abd
000000c0: 7c27 9b3d 9df8 d53d e649 06be 7175 afbd
000000d0: 64fa cfbd dcf7 b2bc e1f7 a73c c0b8 65bd
000000e0: bfe3 bbbd b17e 843d a25c 44bd ab2e 48bc
000000f0: 409e debb 7ac1 86bd a0b8 c2bd 4aec 5fbd
00000100: b48f b23d 49e9 9e3b 5d72 c3bd e5db ae3d
00000110: 569d 7f3d cd33 f5bc 7598 2dbd d3f7 a2bd
00000120: c23f c7bd c80f d13c 58fc a73d 96d9 5fbd
00000130: 06f1 a23d 3449 9f3d 3130 a7bb 8eb1 7ebd
00000140: 5b3f 89bd 6afc b9bd ee57 f83d 3d8e 85bc
00000150: 3273 e8bc 130c 98bd 65aa 263d 2b26 f53d
00000160: 4ad4 95bb e2db 1ebd 2726 923c fd0d 203d
00000170: 0f73 c9bc 0abc b73d 7973 b73c 589f 803c
00000180: a88b 773d 09db 863d 405d 963d 1567 83bb
00000190: d697 36bd e05d 3f3d 880d 773d 79cc 91bd
000001a0: 15ff e2bc 0229 b0bc 9c51 c03a 9e9e c73d
000001b0: 1a5e bb3d 60a1 96bd 37c6 e73d 7a13 86bd
000001c0: f888 e53b b135 3b3c 1bfc 9fbd 4352 aabd
000001d0: 7472 333c 8272 0dbd cb30 843d 8eeb e1bc
000001e0: 3b6c b4bd b3f8 0f3d 52d8 9d3d bff5 fcbd
000001f0: c558 553d 2f03 c33c b785 efbd 5c8b 6bbd
00000200: d4a0 84bc 1240 3dbd ca72 1c3d e5bf 593d
00000210: 4cfe ba3d c1f8 873d 5cd2 d83d ed07 38bd
00000220: b0cb 4b3c 63f2 4abd b76a 37bd bcc8 f4bc
00000230: cab4 0c3d 8fd7 24bd 3a10 493d 8217 cc3c
00000240: 751c b93c ec8e b2bd 9c94 163d fd55 2a3c
00000250: 0b75 63bd 4fa2 b43d 82e5 19bd fbe7 783d
00000260: 327c 6c3d a3ad a23c bba0 d33c 49ca b63d
00000270: 0796 07bd 15a7 e5bc 9796 a93d 39ae 1e3d
00000280: d346 de3b 7474 88bc a179 9bbc 1a34 fbbc
00000290: 6d82 2f3d b65d 82bd 013f 91bd bbc0 a13d
000002a0: 6e8d 0fbd 8e43 d1bd 0505 9f3b b133 913c
000002b0: 97d5 703d 2233 653c ed86 7bbd 9008 853c
000002c0: 11c0 d13d dbce cfbd 1933 373d 2750 81bc
000002d0: ea96 4c3d df5a 213d 3e9a 99bd 925d bdbd
000002e0: a5b7 bb3d 9c71 0a3c 877b 853d f3c5 943d
000002f0: 555b 4b3d 7977 08bd dfcb 933d fabe e33d
00000300: 164e 0bbe 8378 08bd e3fd 833d ad3c c8bb
00000310: 220d f43b da0c 713b b2a6 30bd 752a 9a3d
00000320: 9f26 a9bd 7e0f 5cbd 9b58 ae3d af4d 52bb
00000330: ff05 8d3d ce24 b33d 9141 30bd 45cb 763b
00000340: 9f62 7dbd dad7 b3bb 7c68 d8bd d4ee efbc
00000350: 8425 d53d b492 26bd 559c d23c 88e3 82bd
00000360: 473b 00bd c5f7 2b3d c6b4 84bd 44ba 5a3d
00000370: bd6f 7cbc d6b4 9fbc 4432 043d 872d 873d
00000380: 81f7 c83d d261 babc ebad 40bd 324b 49bd
00000390: 55fb 953c dada a7bd e5e4 7bbc 6764 1b3d
000003a0: bd0d 97bc 1c89 14bb 16f8 06bd b24f 3ebc
000003b0: ace5 023e 4db3 533d f441 fc3c d689 b5bc
000003c0: 14cc 3e3d f38c 98bd ce67 6ebd a8b3 57bd
000003d0: 1be0 d73d 4659 d7bd 4e4f 62bd ddf2 373d
000003e0: 8863 dfbc 9b89 aebd 5b60 a43c 9e2b b33d
000003f0: f501 38bd fc1d 1bbd eee8 f2bd 381c 453d
-0.046311207 0.078576 -0.13094322 0.032051258 -0.095827825 0.0024356197 0.018692192 -0.037310116
0.042794917 -0.087772556 0.0076602586 -0.053095154 0.08755479 -0.026927024 -0.15859988 0.0088954475
-0.08080639 0.064374164 0.018789332 0.01825115 0.118771665 -0.054464806 -0.061202582 -0.028041098
-0.115064204 -0.0013754112 0.004242006 -0.032426916 -0.08413628 0.024770811 0.08884093 -0.107406765
-0.02243646 0.013895758 -0.035538275 0.08946268 -0.066629015 0.08843596 -0.021224061 0.121126756
0.014945653 0.07665829 -0.1284439 -0.020093992 -0.021656958 -0.012708542 -0.017133595 -0.04551084
0.075758904 0.1044781 -0.13114128 -0.08567322 -0.1015518 -0.021846704 0.02050394 -0.056084394
-0.091742985 0.06469477 -0.047939904 -0.012218158 -0.006793767 -0.065798715 -0.09507871 -0.054668702
0.087188154 0.004849587 -0.095432974 0.08538035 0.062405907 -0.029931927 -0.042381722 -0.07957425
-0.09728958 0.02552022 0.082024276 -0.054650865 0.07956128 0.07777634 -0.0051021804 -0.062181048
-0.06701537 -0.09081347 0.12126146 -0.016303176 -0.028375242 -0.07424178 0.040689845 0.119701706
-0.004572426 -0.038783915 0.017840458 0.03907584 -0.024590997 0.089714125 0.022393929 0.015700981
0.06043592 0.065847464 0.07342005 -0.004010091 -0.044578396 0.046720386 0.06031564 -0.07119078
-0.027709523 -0.021503929 0.0014672759 0.09747051 0.09148808 -0.073549986 0.11317103 -0.065466836
0.0070048533 0.011426375 -0.07811757 -0.083164714 0.010952581 -0.03453303 0.06454619 -0.027578142
-0.08809706 0.035149287 0.077072755 -0.1235156 0.05208661 0.023805229 -0.11695426 -0.05750595
-0.01618997 -0.04620368 0.03819541 0.05316152 0.091305345 0.06639243 0.10586998 -0.044929434
0.0124387 -0.049547564 -0.044779506 -0.029880874 0.0343521 -0.040244635 0.04908774 0.024913553
0.022596577 -0.087186664 0.03676282 0.010396478 -0.055531543 0.088200204 -0.03757239 0.06076811
0.05773563 0.019858187 0.025833478 0.089253016 -0.03310206 -0.028033772 0.08280676 0.03874037
0.0067833452 -0.016657092 -0.018978896 -0.030664492 0.042848993 -0.0636553 -0.07092095 0.078980885
-0.035046987 -0.10217963 0.0048528933 0.017724844 0.058797445 0.013989242 -0.061407972 0.016239434
0.10241712 -0.101468764 0.044726465 -0.01578529 0.04994861 0.039393302 -0.075001225 -0.09246363
0.09165887 0.008449938 0.065177016 0.07264318 0.049647648 -0.033317063 0.0721662 0.1112041
-0.13604006 -0.033318054 0.064449094 -0.0061107487 0.0074478546 0.0036781342 -0.043127723 0.07527629
-0.082593195 -0.053725712 0.08512994 -0.003208976 0.06885909 0.08747254 -0.04303128 0.003765778
-0.06186163 -0.005488378 -0.10566804 -0.029288687 0.10407546 -0.04066725 0.02570931 -0.063910544
-0.03130653 0.04198434 -0.06479792 0.053400293 -0.0154075 -0.019495409 0.0322745 0.066004805
0.098128326 -0.022751722 -0.04704086 -0.049143977 0.018308321 -0.081960395 -0.015374397 0.037937548
-0.018439168 -0.0022664731 -0.032951437 -0.0116156805 0.12782925 0.051684666 0.030793168 -0.022160452
0.046581343 -0.07448759 -0.058204465 -0.052661568 0.105407916 -0.105150744 -0.055251412 0.044909347
-0.02726914 -0.0852234 0.020065477 0.08748554 -0.04492374 -0.037870392 -0.11860834 0.048122615

model.all_layers.2.bias f4 [50]
00000000: b010 b1bd 5369 60ba 4c34 8d3c ecb0 f93c
00000010: 8044 ba3b 60ee 33bd 4c6d 8d3c 021a 7f3d
00000020: 7a53 40bd 2d42 77bd ed30 b8bd 06c7 243d
00000030: 289b 58bc 057c 913d e0bd a6bc 1c77 b63b
00000040: bba5 b1bd decb 183d 1e61 3fbb 3fd2 b63d
00000050: c65c 3b3d 3810 843c 3abc 013d c670 4e3d
00000060: c08d 0dbc 8043 453c 6e30 513b 9349 73bd
00000070: 7d96 73bd 586b b23c 11c9 a33d b150 843d
00000080: 2aad 663d b648 113d 2ed6 643d 9618 06bd
00000090: 264b 02bd 2cf4 893c ec8d 90bc 20ba bfbd
000000a0: 5eda 4b3d 4208 343d c303 bcbd 3769 9f3d
000000b0: 264b 82ba 76a8 a2bd 83de 5abd a804 4b3c
000000c0: b677 92bd 717e 873d
-0.08645761 -0.00085606164 0.017236851 0.03047987 0.0056844354 -0.043928504 0.01726403 0.062280662
-0.04695461 -0.060365845 -0.08993707 0.040228866 -0.013220586 0.07103733 -0.020354211 0.005568398
-0.08674189 0.037303798 -0.0029202173 0.0892682 0.045742773 0.016121015 0.031673647 0.050400518
-0.008639753 0.012040019 0.0031919735 -0.059396338 -0.05946969 0.021779701 0.07997335 0.06460703
0.056317486 0.035469733 0.05586832 -0.03273829 -0.03180995 0.016840063 -0.017645799 -0.093616724
0.049768798 0.043953188 -0.09180405 0.0778374 -0.0009940609 -0.079422876 -0.05343486 0.012391247
-0.07151739 0.06615914

model.all_layers.3.weight f4 [50]
00000000: 284b 273f 9cc1 2a3f ab82 263f 38e6 273f
00000010: b388 2a3f 7298 293f 60f0 263f fcb4 243f
00000020: a6d0 253f 4afe 2c3f 7b9e 273f 522f 2c3f
00000030: c472 2b3f eb17 293f de7c 2a3f c166 273f
00000040: bc57 2c3f e9f9 283f bc77 283f e543 283f
00000050: 569a 253f 9eee 253f 2974 293f e98d 293f
00000060: 7eea 243f f1e1 2a3f 7005 283f 7e5d 253f
00000070: 0d52 263f 4812 293f 4fc2 2b3f 918c 273f
00000080: 69ba 2d3f 8dbd 293f 80b2 253f 81b5 2b3f
00000090: 8137 293f 5350 2b3f 67c2 293f 30bd 273f
000000a0: 240b 293f e822 273f 2328 273f f07d 273f
000000b0: a9db 293f a12c 2a3f c824 273f 5523 2a3f
000000c0: 6dd6 283f 1f74 253f
0.65349054 0.66701674 0.65043133 0.6558566 0.66614836 0.6624824 0.65210533 0.6433866
0.647715 0.67575514 0.65476197 0.67259705 0.66971993 0.6605212 0.6659678 0.65391165
0.6732137 0.6600633 0.658077 0.657286 0.6468862 0.64817226 0.6619287 0.6623216
0.64420307 0.6675101 0.65633297 0.6459578 0.6496895 0.6604352 0.67093366 0.6544886
0.67862564 0.66304857 0.64725494 0.6707383 0.6610032 0.6691944 0.6631226 0.6552305
0.66032624 0.6528764 0.6529562 0.6542654 0.663508 0.6647435 0.652905 0.6646016
0.6595219 0.6463031

model.all_layers.3.bias f4 [50]
00000000: 7317 ab3c a8bf de3b f036 f5bc 400b 53bc
00000010: df51 7ebc a3c1 ff3b 2538 95bc a5e8 1b3a
00000020: bf77 0abb 3949 debc 21fb 813a e661 9e3c
00000030: 491c a13b 3acc 53bc 7324 5d3c dda3 1d3c
00000040: 6a7e 123d ddd6 fbbb 1791 4bbc ad68 e43c
00000050: 9780 d03b d2a4 1f3c c050 d23b 7029 25b9
00000060: fd46 f13b 0d5e 7fbb 6979 b73c 1619 813c
00000070: fbc4 53bc 3397 963c 2aaf 90bc 14f1 95bc
00000080: 31db 6fbc 2272 373d 8a30 56bc 9ed6 2dbc
00000090: d76f 713b 9ecd c93c d907 f2bb 25a5 333a
000000a0: c493 01bc 7a86 1e3c 6fde 9bbb 24a5 85bc
000000b0: 7a70 61bb 25aa aa3c 151a afbc d679 cdbc
000000c0: 3ed1 07bc 28b2 633b
0.020885205 0.0067977495 -0.029933423 -0.0128811 -0.015522449 0.0078050657 -0.018215248 0.00059474475
-0.0021128503 -0.027134525 0.0009916761 0.019333791 0.004916702 -0.012927109 0.01349746 0.009621588
0.03576509 -0.007685526 -0.012424729 0.027881945 0.0063629854 0.009743886 0.0064183176 -0.00015751063
0.007363199 -0.003896597 0.02239676 0.015759032 -0.012925382 0.018382644 -0.01766165 -0.018303432
-0.014639662 0.04478658 -0.013073096 -0.010610251 0.0036840343 0.024634179 -0.0073861894 0.00068529166
-0.007908765 0.009675616 -0.0047567408 -0.016314097 -0.0034399317 0.020833084 -0.021374742 -0.02508251
-0.008289633 0.003474364

model.all_layers.3.running_mean f4 [50]
00000000: af10 b1bd f868 60ba 5034 8d3c f1b0 f93c
00000010: 8744 ba3b 5dee 33bd 506d 8d3c 011a 7f3d
00000020: 7c53 40bd 2e42 77bd ed30 b8bd 06c7 243d
00000030: 219b 58bc 047c 913d dcbd a6bc 2277 b63b
00000040: bca5 b1bd ddcb 183d fc60 3fbb 3ed2 b63d
00000050: c95c 3b3d 3c10 843c 3bbc 013d c670 4e3d
00000060: b58d 0dbc 8a43 453c 3230 513b 9549 73bd
00000070: 7d96 73bd 5a6b b23c 10c9 a33d b150 843d
00000080: 2aad 663d b548 113d 2dd6 643d 9918 06bd
00000090: 264b 02bd 2bf4 893c ee8d 90bc 20ba bfbd
000000a0: 5dda 4b3d 4208 343d c003 bcbd 3569 9f3d
000000b0: 474b 82ba 76a8 a2bd 83de 5abd b204 4b3c
000000c0: b477 92bd 707e 873d
-0.0864576 -0.00085605634 0.017236859 0.03047988 0.0056844386 -0.043928493 0.017264038 0.06228066
-0.046954617 -0.06036585 -0.08993707 0.040228866 -0.013220579 0.07103732 -0.020354204 0.005568401
-0.086741894 0.037303794 -0.0029202094 0.08926819 0.045742784 0.016121022 0.03167365 0.050400518
-0.008639743 0.012040028 0.0031919596 -0.059396345 -0.05946969 0.021779705 0.07997334 0.06460703
0.056317486 0.03546973 0.055868316 -0.032738302 -0.03180995 0.016840061 -0.017645802 -0.093616724
0.049768794 0.043953188 -0.09180403 0.077837385 -0.0009940647 -0.079422876 -0.05343486 0.012391256
-0.07151738 0.06615913

model.all_layers.3.running_var f4 [50]
00000000: 4831 3d40 66d9 893f 94c8 1d40 94f1 1440
00000010: fe31 ab3f 2c02 413f 6761 ef3f c93c ab3f
00000020: 9a9f bf3f 0469 6a3f 623d 6b3f 4088 993f
00000030: c098 cb3f de36 813f 04a6 4c40 4383 983f
00000040: b879 563f c20f 683f a5ad 963f ed3f 0240
00000050: 8258 783f 9005 eb3f 3bb8 583f 8467 973f
00000060: de04 7b3f 0664 fa3f 371d 0b40 9a0e de3f
00000070: c3b0 d43f 5d15 b93f 96d6 9e3f f252 853f
00000080: 14b4 983f 6d78 bc3f e6d3 9b3f f309 853f
00000090: 84b7 b83f 59e9 f23f 14e1 6a3f 65f9 993f
000000a0: bd1d a83f e340 933f f42e 2d40 ed83 c13f
000000b0: aa50 6a3f 6159 9640 fa10 2140 e749 2740
000000c0: 82dd 5d3f a3cc 863f
2.956133 1.076947 2.4653673 2.3272448 1.3374631 0.7539394 1.87016 1.3377925
1.4970582 0.9156649 0.9189054 1.1994705 1.5905991 1.0094869 3.1976328 1.1915058
0.8377948 0.90649045 1.1771742 2.0351517 0.9701005 1.8361073 0.84656113 1.1828465
0.980543 1.9561775 2.1736581 1.7348206 1.6616443 1.4459645 1.2409236 1.0415938
1.1929955 1.4724251 1.2174041 1.0393661 1.4431005 1.8977462 0.9174969 1.2029234
1.3134075 1.1504177 2.7059908 1.5118386 0.91529334 4.6984105 2.5166612 2.6138856
0.8666612 1.05312

model.all_layers.4.weight f4 [2, 50]
00000000: d0a0 a53d 78f1 08be 1c7a acbc 5e12 18bd
00000010: ef4e 11bc 31c4 303c 0a73 babd 7089 3a3d
00000020: 9d46 7dbd 7775 c6bd 224b 543b b8b7 143b
00000030: 3c7d 53bd cc10 1d3e 5249 063e 98d9 053d
00000040: 0a81 393d 8382 dfbc 3bc1 abbb 8007 d03d
00000050: fed4 04bd b903 0b3d 8fa4 a8bd 9ef6 71bd
00000060: 9c7f 83bc fb84 bbbd b9b5 533c 397f d0bc
00000070: 382e d7bd b9f1 c03d bb80 9b3c 60ac babd
00000080: 93f7 f5bd 97c1 b23d 5428 46bc 779d b1bd
00000090: 7d53 02bd 46f8 db3d 7a7d d43c b5ef dbbd
000000a0: 0666 91bd 56c9 a3bd 8ac6 27bd 7c07 fdbd
000000b0: 6634 19be 7c0c d13d 58a6 31bd c3f2 0dbe
000000c0: 5cc1 77bd 80db 01bd 3ecc b1bd c619 c5bd
000000d0: 3411 bb3d a137 663d e3c5 db3d 346b 013e
000000e0: d0fc 233d 9956 cc3c 3085 883c d680 d53d
000000f0: c32e 783d 6eb7 d7bd 5e3b d8bc f344 bf3d
00000100: 49b9 64bc 9150 633b 2557 24bd cbed dd3d
00000110: 2393 9d3d 3ddc 25bc e816 ee3c 5c7e 3cbd
00000120: 74f8 033d 87ca 2ebd ed74 683d d833 283c
00000130: 691e 6abd be84 cdbd 51ce dcbd a16a 073d
00000140: f0b5 3e3e 0ac1 4abd 4411 df3d 304c cdbd
00000150: e7e5 7f3d 4dc5 cb3d 7017 eebd b3a7 393c
00000160: f049 913d 2f4b dabd c2d6 9f3c 6279 6bbd
00000170: 48cd 043d f1b4 83bc e557 f0bc 4598 b5bd
00000180: ca8c 393d 4781 0a3d bb40 eb3c 512a a2bd
0.08087313 -0.13373363 -0.02105432 -0.03712689 -0.008868917 0.010788963 -0.09103973 0.045541227
-0.06183492 -0.096903734 0.0032393415 0.0022692513 -0.051633105 0.15338439 0.13113907 0.032678217
0.045289077 -0.027283913 -0.0052415407 0.101576805 -0.032429688 0.033939097 -0.08234512 -0.059073083
-0.01605206 -0.091562234 0.012921744 -0.02545129 -0.105068624 0.09421105 0.018982282 -0.09114909
-0.12010112 0.087283306 -0.012094576 -0.08672612 -0.031817902 0.10740714 0.025938738 -0.1073908
-0.070995376 -0.07997386 -0.040960826 -0.12354943 -0.14961395 0.10207459 -0.04337153 -0.13862137
-0.060487136 -0.031703472 -0.08681534 -0.096240565 0.091341406 0.056205396 0.10731103 0.12638551
0.040036023 0.024943637 0.016665071 0.10424964 0.06059147 -0.10533033 -0.026395496 0.09339323
-0.013960191 0.0034685472 -0.04012217 0.10836371 0.0769408 -0.01012331 0.029063657 -0.046018943
0.032219365 -0.042673614 0.056752134 0.010266267 -0.057157908 -0.10035084 -0.10781539 0.033060674
0.18624091 -0.049500503 0.10891965 -0.10024297 0.06247511 0.099497415 -0.11625564 0.0113314865
0.070941806 -0.106588714 0.019511584 -0.057488807 0.032422334 -0.01607749 -0.029338786 -0.08866934
0.045300283 0.033814695 0.02871739 -0.079182275

model.all_layers.4.bias f4 [2]
00000000: 8ffd 873c 1f14 47be
0.016600398 -0.1944127
