unit06-dl-tips/6.8-debugging/logs/my-model/version_8/checkpoints/epoch=4-step=10.ckpt (torch, 71666 bytes, 14 tensors)

model.all_layers.0.weight f4 [100, 100]
000000 02 e9 20 bd d0 76 a7 3b a9 b1 69 bd 1f 82 1f 3d
       -0.039284714 0.005110599 -0.057054196 0.038942453
000010 8e 1a ab bd 1e 10 a1 3d 20 3b 8b bd 48 0b a4 bd
       -0.08354674 0.07864402 -0.067983866 -0.08009964
000020 63 ba 91 bd 15 b0 4a 3d 4b 05 26 bd 01 be 14 3d
       -0.071156286 0.04948433 -0.04053239 0.036314014
000030 02 e0 a2 bd 1b 94 6e bd 2d b4 07 bd dd 27 77 bc
       -0.07952882 -0.058246713 -0.033130813 -0.015085188
000040 7b 0b 9f bd 73 2d 82 3d 60 73 95 bc e3 a3 09 3d
       -0.077658616 0.06356325 -0.018243492 0.03360356
000050 d5 bf 89 3d cd 48 9f 3c 39 3f e6 3c 06 5a ce 3d
       0.06726042 0.019443894 0.028106319 0.10075764
000060 8b 07 52 bd 07 92 eb 3c 42 37 3d bd 66 76 95 3d
       -0.051276725 0.028756155 -0.046195276 0.07297973
000070 a7 96 ab 3d ba b7 b9 bd 2f 14 ae 3d 13 ff 5b 3d
       0.08378344 -0.09068246 0.084999435 0.053710055
000080 ea 4e 40 3d a3 fa 2f 3d 3a 0d a9 3d 27 35 5b bc
       0.04695026 0.042963635 0.08254476 -0.013379372
000090 9b 73 b3 bd e6 bc ec bc c6 5c 8a bd f4 8a cc 3b
       -0.08762284 -0.028898668 -0.067559764 0.0062421504
0000a0 ee 57 5a bc 8f 73 48 bd 64 ae 55 bc 79 01 c2 3d
       -0.013326628 -0.04893833 -0.013042066 0.09472937
0000b0 4d ed 8c bb 6b bd ce 3a c7 92 86 bc c7 74 42 3c
       -0.0043007494 0.0015773004 -0.01642741 0.011868662
0000c0 ba 40 af 3d 03 f4 70 3d 74 14 0a 3d 49 86 d8 3c
       0.085572675 0.058826458 0.033710912 0.02643122
0000d0 cc 38 dd 3c 72 76 22 3d a2 3a b9 bc ce cb c4 bd
       0.027004622 0.03966374 -0.022610966 -0.09609185
0000e0 c3 7f 78 bd af 00 ad 3d 08 92 5b b9 a0 d3 a9 bd
       -0.060668718 0.08447396 -0.00020939868 -0.082923174
0000f0 8c 3c 1d 3c 94 93 aa 3d d0 0a bd bd fb 34 8a bd
       0.009596955 0.083289295 -0.09230578 -0.067483865
000100 a9 cf 16 bd d0 c4 0e 3c e8 4e c6 bc fc e7 13 bc
       -0.036819134 0.008713916 -0.024207547 -0.009027477
000110 16 81 c2 bd 36 4c 3e 3d 79 7e b1 3d 31 4e 79 3d
       -0.094972774 0.0464594 0.08666701 0.060865585
000120 9c d5 93 bd db fc a1 bd 0a d7 25 3d 66 c5 15 3c
       -0.07218477 -0.079095565 0.04048828 0.009141302
000130 e4 89 10 3d 61 b2 cb bd ca 0c ca bb fc ae 8e 3d
       0.035287753 -0.099461325 -0.0061660754 0.06966969
000140 30 62 42 3d cd e6 e7 3b 38 08 c0 3c 5a ee 9c bc
       0.04745692 0.007077074 0.023441419 -0.019156624
000150 02 82 7a bd 9d 0a 0f bd 86 a4 80 bd f5 aa ab 3d
       -0.06115914 -0.03492223 -0.0628138 0.08382217
000160 f6 19 48 3d 28 c1 ef 3c 9a f9 a0 bd 05 cf 9c 3d
       0.048852883 0.029266909 -0.07860108 0.07656673
000170 5e 35 17 3d b7 5c 91 3d ff 7c 1e bd ef 74 d7 3c
       0.03691613 0.07097762 -0.038693424 0.026300875
000180 1a f9 be 3d 59 b8 77 3d db 9f a2 3d 33 33 87 bc
       0.09324856 0.060478542 0.07940646 -0.016503906
000190 fd 94 9c 3d 85 1d a6 bd 22 bd 00 3c e4 5e 77 bd
       0.07645605 -0.08111099 0.007857593 -0.06039323
0001a0 31 f9 cf bc 38 82 ed bc 95 f4 9e 3c 42 0c c6 3d
       -0.025387378 -0.028992757 0.019403735 0.09670307
0001b0 50 8e 44 3d ee 31 66 bb c2 fa 8b 3d 41 05 69 bd
       0.047987282 -0.0035124975 0.06834938 -0.056889776
0001c0 5b 74 5e 3d 06 48 fc bb 5a d5 7e bc 26 1d 41 3c
       0.054310184 -0.0076990156 -0.015553797 0.011786735
0001d0 d0 e7 9b bd 68 28 5c 3c 8e bb f7 3c f0 ce b1 3d
       -0.07612574 0.013437368 0.0302408 0.08682048
0001e0 dd 0b 20 bd 31 ad 01 3d 12 d7 bb 3d be 83 1d bd
       -0.039073814 0.03165931 0.09171881 -0.038455717
0001f0 23 0b c1 3d 90 1e 53 bd 9f d8 41 3d 90 01 29 3d
       0.09425952 -0.05154282 0.047325727 0.041261256
000200 90 fc df 3c a6 3a a6 3d 2c a0 36 bd 5c 2d e6 3c
       0.02734211 0.08116655 -0.044586346 0.0280978
000210 7e 03 0e 3c 36 7b 9a bd 1f f5 a5 bc 2a e2 90 bd
       0.008667825 -0.07543032 -0.020258484 -0.07074387
000220 db 1c 3c 3d e7 19 b9 3a 48 da 15 3c 17 b7 10 bd
       0.045925956 0.0014122099 0.009146281 -0.035330858
000230 2e 3f 55 3b 96 24 9d bc 64 ac ee 3c ee 47 c0 3d
       0.0032538879 -0.019182485 0.029134937 0.093887195
000240 b6 37 8b 3c 7f c0 1b bd 65 88 87 bd 20 10 86 3b
       0.016994338 -0.038025375 -0.06617812 0.0040912777
000250 ae f4 8b bd cd 17 9b bd 03 0c 78 bd c9 92 b4 bc
       -0.06833778 -0.07572899 -0.06055833 -0.022042649
000260 fd 83 c1 3b f1 a6 8f 3d 55 16 0b 3d e3 ee 9a 3d
       0.005905627 0.070142634 0.033956844 0.07565095
000270 d1 9e 8b bd b9 12 fb 3b 0a d7 b1 bd 5c ad 72 3d
       -0.06817401 0.007662144 -0.086835936 0.05924736
000280 9e 2d a4 3c 62 25 c7 3d fd 70 98 bd 99 48 a8 3d
       0.020041283 0.09723927 -0.07443426 0.08216972
000290 13 fc aa 3d 12 00 be 3d fd 10 5d 3c ba e2 bf 3d
       0.083488606 0.09277357 0.01349282 0.093694165
0002a0 0c ab 88 3d dc 91 8e 3d 1c e8 46 bc fd 89 a6 bd
       0.066732496 0.06961414 -0.0121403 -0.08131788
0002b0 eb 23 33 bc cc b8 aa 3c 19 3c 83 bd 4f 73 71 bd
       -0.0109338565 0.020840071 -0.06407947 -0.058947857
0002c0 14 c5 be bd fe a7 06 bd 57 e0 a2 3d 64 76 80 3c
       -0.093149334 -0.032875054 0.07952946 0.015681453
0002d0 1a a8 47 bc 3a 21 25 3b 04 8f 78 3d 8a a2 be bd
       -0.012186075 0.0025196807 0.060683265 -0.093083456
0002e0 cd a8 9f bd ce d7 0a bd 69 06 64 bd b2 8b 31 3d
       -0.07795868 -0.033897214 -0.055670176 0.043346114
0002f0 0b 12 8f 3d ee 1e c1 bd bd f4 a9 bd 61 c9 bb bd
       0.06985863 -0.094297275 -0.08298633 -0.09169269
000300 66 a9 12 3d f7 1f 9f 3d d7 da 99 bd dc 70 6a bd
       0.035806082 0.07769769 -0.075124435 -0.057236537
000310 78 bb 0b 3d e3 70 8b bd fd 5d b4 3d 61 4b c0 3c
       0.03411433 -0.06808641 0.08806989 0.023473443
000320 7e 40 bc bc cf a3 4e 3c cf a8 e0 3c bf cb 0a bd
       -0.022979971 0.012612297 0.027424244 -0.033885714
000330 4e 6e a3 bd 09 de 0d 3c 20 8d 86 3b 6e d6 b2 bb
       -0.07980023 0.008658894 0.004106179 -0.005457691
000340 ea e9 92 bc 80 35 9a 3d 5c 34 05 bd 07 c0 6e bc
       -0.017933805 0.075297356 -0.032520637 -0.01457215
000350 3b cf 21 3d a2 99 80 bd d7 eb b7 3c eb e3 d6 bc
       0.03950427 -0.06279303 0.022451324 -0.026231727
000360 5b b4 6a 3d ef 50 4e bd 3b 68 3f 3c cc 4b 57 3c
       0.057300907 -0.050370153 0.011682565 0.01314063
000370 79 ff 9c bd 58 76 a5 bd 4f 99 16 3d 0d 77 ca bc
       -0.07665915 -0.08079213 0.0367673 -0.024714971
000380 f1 41 79 3d c8 1e ca bd f5 44 40 bd 93 cc 9f bd
       0.060853902 -0.09869152 -0.046940763 -0.07802691
000390 05 3c 2f 3d 9a c3 bc 3a 08 2c d9 bc 4e 2a ab bb
       0.04278185 0.0014401556 -0.026510254 -0.005223549
0003a0 59 47 9a bd 69 ea 09 3d d4 01 af 3a bd 20 85 bd
       -0.0753314 0.033670817 0.0013351985 -0.06500385
0003b0 f8 b1 23 3d bf cf 02 bc 0b 7f c1 bd ef d0 50 3d
       0.039964646 -0.007984101 -0.0944806 0.050980505
0003c0 0f 7a 54 3d 24 a1 87 bc 7d c7 91 bd da d1 04 3c
       0.051874217 -0.01655633 -0.071181275 0.008106673
0003d0 6c ae 91 3d fd f2 be 3d 81 e4 9a bd f9 18 66 bd
       0.071133465 0.0932369 -0.07563115 -0.05617616
0003e0 01 03 92 3d 07 7f 4e 3d 4c 7d 6e 3d 90 83 42 bd
       0.07129479 0.05041411 0.05822496 -0.04748875
0003f0 6c 34 ba 3d ff 99 b7 bd a9 2f c3 bb 36 0e 86 ba
       0.0909203 -0.08964919 -0.0059566093 -0.0010227624

model.all_layers.0.bias f4 [100]
000000 50 10 73 3c 4f eb 8b 3d 0c 7d ee 3c e6 a8 13 bd
       0.014835432 0.06831991 0.029112361 -0.036049746
000010 00 a0 3d bc 22 04 6e 3d 52 25 0b 3d c0 1a 7d 3b
       -0.0115737915 0.05810941 0.03397114 0.003862068
000020 87 56 49 bd 3b 5f a0 3d 7a b7 b0 bd 7d da b9 bd
       -0.049154785 0.07830664 -0.086287454 -0.090748765
000030 18 51 b5 3c b7 ee 85 3d 3a 3b c1 bd 52 8d 10 3d
       0.022133395 0.06539672 -0.09435125 0.035291024
000040 37 17 4a bd 65 78 8f 3d e0 9b d0 bc 83 ea bf 3d
       -0.049338546 0.07005385 -0.025464952 0.093709014
000050 6d 84 27 bd b0 f5 9f bb c1 f1 86 3d a0 ed db bc
       -0.040897775 -0.004881583 0.0658908 -0.026846707
000060 80 65 af 3b 01 ab 9c 3d 1c a0 10 bd 25 1b a1 bd
       0.005352676 0.07649804 -0.035308942 -0.078665055
000070 68 1a 0f 3c 9f ff b5 bd 19 9e 92 3d 70 9e 1d 3c
       0.008734323 -0.088866465 0.07159061 0.009620294
000080 14 47 de bc d8 59 75 bc 5f 40 aa 3d 98 f1 f2 bc
       -0.027133502 -0.014975034 0.08313059 -0.029656217
000090 c0 3a 81 ba 50 bf 69 3c c0 7b 18 3c 8a cd 54 bd
       -0.0009859428 0.014266804 0.009306848 -0.05195383
0000a0 a0 d5 d0 bb c3 54 26 bd 58 2d 0c bc 9b eb 91 bd
       -0.0063731223 -0.04060818 -0.008555733 -0.07125016
0000b0 7a d2 14 3d bd 18 25 bd 70 06 63 3c 2f d3 c7 3d
       0.03633354 -0.040306795 0.013856515 0.09757077
0000c0 54 72 e7 3c f4 a3 80 bd 5d 74 9f bd 60 fc 7f bd
       0.028252758 -0.062812716 -0.077858664 -0.062496543
0000d0 25 d9 8b 3d 67 a8 a0 3d 7a fd 0a 3d d2 37 9f bd
       0.068285264 0.0784462 0.03393314 -0.07774319
0000e0 cc a7 dc 3c 92 a7 08 3d 08 83 9a bc bc 15 f5 3c
       0.02693548 0.033362933 -0.018861309 0.02991759
0000f0 c9 56 b1 3d b8 03 c6 bc 7d 5d 81 3d ac fe bf 3c
       0.08659131 -0.024171695 0.063166596 0.023436867
000100 65 d0 b5 bd f0 df 00 bc e8 bc d1 bc 68 69 1b bc
       -0.08877639 -0.007865891 -0.025602773 -0.00948558
000110 a0 2f 97 bb c5 37 99 bd 9e c6 48 3d b5 47 88 bd
       -0.0046138316 -0.0748134 0.04901754 -0.06654302
000120 30 7f 49 bd 71 87 c5 3d b8 49 ae 3c 58 36 0e bc
       -0.04919356 0.09644974 0.021275386 -0.008679949
000130 de 4c 4d 3d 3d 5f c7 3d 27 46 4e bd 52 9d bd bd
       0.050122134 0.09734962 -0.05035987 -0.09258522
000140 58 7c 71 bc 72 35 80 bd f0 5c c0 bd 8a 0c 0a bd
       -0.0147391185 -0.06260194 -0.093927264 -0.033703364
000150 00 7c c0 bc 81 ba 85 ba f2 aa 37 3d e1 15 8a 3d
       -0.023496628 -0.0010202677 0.04484076 0.06742454
000160 14 c2 c5 bc 94 66 f8 bc d3 19 7a bd ff 41 92 3d
       -0.024140395 -0.03032235 -0.061059784 0.07141494
000170 56 17 1c 3d 10 f9 63 bc d6 1a 73 3d 41 f5 a5 3d
       0.038108192 -0.013914362 0.059351765 0.08103419
000180 04 a0 05 bd 77 c3 96 3d a6 ec 10 bd 2c 16 a0 bc
       -0.032623306 0.07361501 -0.035381936 -0.019541822

model.all_layers.1.weight f4 [100]
000000 1b c5 7f 3f eb 4a 80 3f 72 52 80 3f 98 41 7f 3f
       0.99910134 1.0022863 1.002516 0.99709463
000010 97 6a 7f 3f b0 b4 7f 3f 5e 02 80 3f 07 0c 80 3f
       0.9977202 0.9988508 1.0000722 1.000367
000020 98 dc 7f 3f 39 69 80 3f fb bc 7f 3f 38 3e 80 3f
       0.99945974 1.0032111 0.99897736 1.0018988
000030 40 b5 7f 3f fa d0 7e 3f f0 ca 7f 3f 91 a7 80 3f
       0.9988594 0.9953762 0.99919033 1.0051137
000040 2b 2f 80 3f 89 02 80 3f 2b b9 7f 3f 4c 84 80 3f
       1.0014395 1.0000774 0.9989192 1.0040374
000050 ba f7 7e 3f 1d 20 7f 3f 75 4e 7f 3f 7b e6 7f 3f
       0.9959675 0.99658376 0.9972909 0.9996106
000060 0b f2 7f 3f fb 31 80 3f bb 37 80 3f 3a ce 7f 3f
       0.99978703 1.0015253 1.0017008 0.9992405
000070 95 6c 7f 3f a8 03 80 3f 5b 6b 7f 3f 0a 91 7f 3f
       0.9977506 1.0001116 0.99773186 0.9983069
000080 20 f1 80 3f f8 26 7f 3f ee 1d 80 3f 81 9b 7f 3f
       1.0073586 0.99668837 1.0009134 0.99846655
000090 30 74 80 3f 7e 99 7f 3f 07 51 7f 3f 50 73 80 3f
       1.0035458 0.99843585 0.9973301 1.003519
0000a0 1a 10 80 3f 07 03 7f 3f 64 53 7f 3f 23 4f 80 3f
       1.0004914 0.99613994 0.9973662 1.0024151
0000b0 49 7d 7f 3f 4a 88 7f 3f 29 4a 80 3f e9 1a 80 3f
       0.99800545 0.99817336 1.0022632 1.0008212
0000c0 8c d2 7f 3f 1c 14 81 3f 2b 41 80 3f 92 e2 7f 3f
       0.99930644 1.0084262 1.0019888 0.99955094
0000d0 44 f1 7f 3f 18 bf 7f 3f fd 03 80 3f 77 5d 7f 3f
       0.9997752 0.9990096 1.0001217 0.9975199
0000e0 01 30 80 3f 96 62 80 3f fb a6 7f 3f d7 92 7f 3f
       1.001465 1.0030086 0.99864167 0.99833435
0000f0 b8 22 7f 3f 87 d6 80 3f d2 87 7f 3f b4 cd 7f 3f
       0.9966235 1.0065469 0.9981662 0.99923253
000100 2d d2 7e 3f 85 b5 80 3f ce 4f 80 3f 47 13 80 3f
       0.9953945 1.0055395 1.0024354 1.0005883
000110 40 df 7f 3f a8 86 7f 3f 0b 7b 7f 3f 34 43 80 3f
       0.9995003 0.99814844 0.99797124 1.0020509
000120 f0 35 80 3f 92 64 7f 3f 05 22 80 3f 4e 54 7f 3f
       1.001646 0.99762833 1.0010382 0.99738014
000130 58 03 80 3f 5a 1b 80 3f 19 60 80 3f f0 3d 7f 3f
       1.000102 1.0008347 1.0029327 0.99703884
000140 b4 08 7e 3f de 26 80 3f 2f de 7e 3f d0 56 80 3f
       0.9923203 1.0011861 0.99557775 1.0026493
000150 aa 84 80 3f 4c 25 7f 3f 64 d9 7f 3f 42 0b 80 3f
       1.0040486 0.99666286 0.99941087 1.0003436
000160 e6 3a 80 3f 1a 68 80 3f 75 46 80 3f 29 8a 7f 3f
       1.0017974 1.0031769 1.0021502 0.9982019
000170 cd 19 80 3f 33 ad 7f 3f 85 67 80 3f 37 fa 7f 3f
       1.0007874 0.99873656 1.0031592 0.9999117
000180 9d 46 7f 3f 18 41 80 3f 14 39 80 3f 91 a0 7f 3f
       0.9971712 1.0019865 1.0017419 0.9985438

model.all_layers.1.bias f4 [100]
000000 d5 9a 95 bb f3 94 02 3b 8a 0e 3c 3b 16 e2 23 bb
       -0.0045655766 0.0019925206 0.002869519 -0.0025006584
000010 35 a8 a2 3b 00 3d 75 39 3d 82 ed bb 6d b6 02 3b
       0.0049638995 0.00023387745 -0.0072481916 0.001994516
000020 0f 67 48 ba 48 09 92 3b a3 6f 9e bb 8c 2b 39 3b
       -0.00076447515 0.004456673 -0.0048350855 0.0028254716
000030 4d d8 7e bb 9d 4e 54 b9 ab fe 71 39 d1 bc 36 ba
       -0.003888625 -0.00020247181 0.00023078422 -0.0006970885
000040 65 66 77 3b 90 2a 81 3b d2 9d e7 ba 04 90 76 3b
       0.003775024 0.0039418414 -0.0017670935 0.003762246
000050 37 af 5a bb f3 ad 27 bb 9a 32 05 bb 3f 0f cb 37
       -0.0033368596 -0.002558586 -0.002032435 2.4206585e-05
000060 9a 1f a3 3a 47 82 9f 3b fb 40 a5 ba 13 2f 4b ba
       0.0012445331 0.004867825 -0.0012607867 -0.000775085
000070 13 a0 82 bb 45 aa a5 39 7f 2f 86 b8 72 2f 73 39
       -0.0039863675 0.00031598113 -6.398465e-05 0.0002319196
000080 66 fd 5d 3a c7 90 1d bb d7 a9 8a ba 24 da 8c 3a
       0.000846824 -0.0024042593 -0.0010579181 0.0010746163
000090 6c b7 2d 3b ee 55 be 3a f0 44 85 bb 1f bf dd 3a
       0.0026507033 0.0014521459 -0.004067056 0.001691792
0000a0 89 5e c8 39 ea 83 a0 bb 8f 88 ab ba 88 6b 7e 3a
       0.00038217407 -0.004898538 -0.0013086962 0.00097053545
0000b0 ee 2b f4 bb 15 10 b3 b9 40 ed 3f 3a 12 c7 d5 3a
       -0.007451526 -0.00034153523 0.0007321425 0.0016309938
0000c0 40 1f 0b 3a ac b6 1e 3b 6b a3 a3 3a e5 f6 c4 3a
       0.0005307086 0.0024217768 0.0012484615 0.0015027194
0000d0 fc a7 49 ba b7 27 48 ba 85 ea 78 38 9f bf ac 3a
       -0.0007692573 -0.00076353125 5.934622e-05 0.0013179666
0000e0 0a ef c3 3a f7 63 96 3a 6a 63 d3 ba 11 89 b1 3a
       0.0014948559 0.0011473884 -0.001612765 0.0013544877
0000f0 d8 ba 60 bb 72 94 67 3b 18 9e e8 39 67 d3 a8 ba
       -0.0034291055 0.0035336283 0.00044368277 -0.0012880386
000100 bd e4 9f bb 62 c8 30 b9 e5 28 30 3b 68 52 d6 39
       -0.0048795626 -0.00016859316 0.0026879844 0.00040878658
000110 e2 8a 65 b9 0c 3d 82 ba 89 98 80 ba 90 1e 1f bb
       -0.0002189088 -0.0009936406 -0.0009811084 -0.0024279691
000120 46 9b 42 3b 4a 57 06 bb 81 fd c4 3a b1 55 3c bb
       0.00296946 -0.0020498806 0.0015029163 -0.00287376
000130 b5 ad a0 3a 91 c2 05 37 ec 8e 3d bb d7 39 7e bb
       0.00122588 7.972719e-06 -0.00289243 -0.00387918
000140 0a a6 0c bc 9f 29 59 ba 1a af 17 bb dd 0f 63 39
       -0.008584509 -0.0008284095 -0.002314514 0.00021654317
000150 f6 be 21 3a 45 da 4d bb 8a 91 0f 3b 50 a9 ca 3a
       0.0006170118 -0.0031410616 0.0021906816 0.0015461836
000160 5c 6c 16 3a 84 13 37 3b de 6b c2 3a 52 f4 e7 ba
       0.00057381927 0.0027935216 0.0014833172 -0.0017696714
000170 40 df 61 3b f1 60 d4 ba 96 d5 b2 3a cf 35 6b 3a
       0.0034465343 -0.0016203207 0.0013643976 0.00089725567
000180 82 dd 3b ba 7e da fd ba 96 67 5c 3b 4d fb 24 3a
       -0.0007166491 -0.0019367484 0.0033631078 0.000629355

model.all_layers.1.running_mean f4 [100]
000000 f5 11 86 bd e2 a0 1e bd 6b ca 8a bd 8e dd 7e be
       -0.06546394 -0.03872765 -0.067768894 -0.24889204
000010 e6 65 73 3d 54 f9 3e bd 1c ba d6 bd c2 f3 2d be
       0.05942335 -0.046624497 -0.10484716 -0.16987517
000020 fa e1 bf 3d f9 ce 04 be c7 b6 72 bd eb 1b e8 bd
       0.093692735 -0.12969579 -0.05925634 -0.1133345
000030 21 c8 3d 3e 7a 52 e3 bd 9c 42 6d be 29 d3 85 3d
       0.18533374 -0.110997155 -0.2316994 0.06534416
000040 76 9a 32 be 0a d0 37 3e d7 e9 d5 bc 06 38 3a 3e
       -0.17441735 0.17950454 -0.02611248 0.18185434
000050 eb 8f 81 3d a0 00 5e 3c fa 87 f9 bc 3e ec 17 3e
       0.06326278 0.013549954 -0.030460346 0.14836213
000060 58 5f 89 bc c8 3a 02 3c 9b 57 4d bd 7c 51 c6 3d
       -0.016769096 0.007948585 -0.050132375 0.09683511
000070 f7 75 ac bc a8 7c ae bd 15 28 b5 3d a3 44 19 be
       -0.021052344 -0.0851987 0.08845536 -0.14967589
000080 54 e4 08 3e f3 b9 26 ba 41 73 70 3d 82 1c 88 bc
       0.1336835 -0.0006360106 0.058703665 -0.016615156
000090 e3 ea 6e bd a6 5b 8d 3e 46 ba b2 3d ed ff 26 3e
       -0.058329474 0.27608985 0.08726935 0.16308565
0000a0 54 7b 19 be c4 52 66 bd b9 d6 2f be d5 aa 58 be
       -0.14988452 -0.056231275 -0.17171754 -0.21158917
0000b0 c0 a6 9a bd 92 b9 a5 3d 60 ad 0f 3e 66 d6 2f 3e
       -0.07551336 0.08092035 0.14030981 0.1717163
0000c0 d5 a4 00 3e 92 d6 94 be ab 5b 82 3d 1d 49 40 bd
       0.12562878 -0.29069954 0.063651405 -0.046944726
0000d0 c8 6f 5c 3e e0 b8 c8 3d 3f ef 0f 3d 75 9a d7 bd
       0.21527016 0.09800887 0.035140272 -0.10527507
0000e0 f3 02 4d 3e 95 93 08 3c ba 84 ba 3d 18 96 77 3e
       0.20020656 0.008335968 0.09107347 0.2417835
0000f0 c8 95 3f 3d 6a 8b 9a be cf 57 a3 bd 9e 0f 08 3e
       0.046773702 -0.3018449 -0.079757325 0.13287207
000100 91 42 ca bd 57 a3 49 3d a2 7b c3 3c 9d a7 8e bd
       -0.09875978 0.04922804 0.023862664 -0.069655634
000110 46 80 18 be 58 89 b5 bd 55 0c 64 bc de 28 a7 3d
       -0.14892682 -0.08864087 -0.013918956 0.08162092
000120 95 9e aa ba 02 be d0 3d 3a f4 08 bd 62 b1 e6 3d
       -0.0013017232 0.10192491 -0.033436038 0.11264302
000130 c1 5f e4 bc 89 a4 23 bc f8 5d 80 bd 27 e0 1a be
       -0.02787769 -0.009987959 -0.06267923 -0.1512457
000140 1d 07 1b bd eb 25 00 be 2d 58 45 be 54 4f 07 3c
       -0.03784858 -0.12514465 -0.19271918 0.008258659
000150 e4 15 ef 3c 09 bd 2f bd c6 5f 5e 3e 01 9c 1d bc
       0.029185243 -0.042904887 0.21716222 -0.009619714
000160 0a 66 68 3d ec 8a b7 3d 9c ad 17 3e 86 11 8a 3d
       0.056737937 0.08962044 0.1481232 0.067416236
000170 f8 7a 26 3e b9 e3 e2 bb c4 e3 1a be 15 ea 33 bd
       0.16257846 -0.0069241193 -0.15125948 -0.04392441
000180 cf b5 88 bd 88 11 a9 3d 07 38 62 bb 78 4d ec 3b
       -0.06675302 0.08255297 -0.0034518258 0.0072113834

model.all_layers.1.running_var f4 [100]
000000 2b 8d 13 40 17 5e bc 3f a0 84 d9 3f d2 d0 39 40
       2.3054912 1.4716214 1.6993599 2.9033704
000010 94 4b c7 3f d3 e3 99 3f 7d c4 c5 3f cf 67 ca 3f
       1.556994 1.2022651 1.5450588 1.581293
000020 53 44 cf 3f fc ee 02 40 7c ba b0 3f bc 32 48 40
       1.6192726 2.0458364 1.380691 3.1280966
000030 c9 f5 82 3f 7c 28 17 40 fe 6f ac 40 d2 53 a5 3f
       1.0231258 2.361846 5.388671 1.2916205
000040 dc 37 8b 40 b5 72 75 40 e0 9c ce 3f 18 ea 83 3f
       4.350569 3.8351262 1.6141624 1.0305815
000050 cb 92 85 3f 09 29 4f 3f cb b4 d5 3f 9b db c7 3f
       1.0435423 0.8092199 1.6695799 1.5613893
000060 cb 63 5a 3f df af b7 3f 2c 33 f0 3f 47 51 4b 40
       0.8530852 1.4350547 1.8765616 3.1768358
000070 c2 a4 4a 40 8a 06 10 40 9f 94 7e 40 fe eb f3 3f
       3.166306 2.250399 3.977821 1.9056394
000080 4c 66 b6 3f ed c7 67 40 4c d1 e7 3f 15 8b 0f 40
       1.4249969 3.6215775 1.8110747 2.242864
000090 ff 6d af 3f 4e 55 6e 40 36 2d 3e 40 86 69 ed 3f
       1.3705443 3.7239566 2.9715095 1.8547828
0000a0 93 39 0f 40 6c ce b3 3f 9d 79 98 3f 38 8c 65 40
       2.237889 1.404737 1.1912113 3.5866833
0000b0 39 54 0e 40 6c 9f b3 3f ae b8 e8 3f 46 eb f1 3f
       2.2238905 1.4033027 1.818136 1.8899925
0000c0 c3 74 1b 40 53 a4 42 40 1a 28 31 40 84 1a 9f 3f
       2.4290016 3.0412796 2.7680726 1.2429967
0000d0 da 3d 02 40 51 63 0a 40 ac e9 cf 3f ea b0 e9 3f
       2.0350251 2.1623118 1.6243186 1.8257115
0000e0 0a 4a fb 3f 14 6a 4f 3f 03 d0 40 40 10 c3 11 40
       1.963197 0.8102124 3.012696 2.2775307
0000f0 08 11 5a 40 39 5d 60 40 94 8f 44 40 cf 94 07 40
       3.4072895 3.5056899 3.0712633 2.1184576
000100 80 8c b6 3f 96 87 dd 3f 27 f5 b1 3f d3 ff a6 3f
       1.4261627 1.7307003 1.390294 1.3046821
000110 91 16 49 40 9e 21 39 40 1b 1c 8c 3f 83 6f 04 40
       3.1420023 2.8926768 1.0946077 2.0693061
000120 9d b8 ba 3f e6 dc bc 3f 93 57 e5 3f f3 0c 3b 40
       1.458759 1.4754913 1.791735 2.9226654
000130 26 44 05 40 f7 8b 0b 40 4c 8f b8 3f 6a 12 25 40
       2.0822845 2.1804178 1.4418731 2.579249
000140 0b c5 4e 40 12 de 22 40 ed e8 36 40 23 40 00 40
       3.2307765 2.544804 2.8579667 2.0039146
000150 4c 39 a7 3f e1 36 b2 3f b8 ae 03 40 a5 45 3b 40
       1.3064361 1.3922998 2.057539 2.9261258
000160 ab 11 36 40 95 6f ed 3f 10 aa 39 40 ec 89 cc 3f
       2.8448284 1.8549677 2.9010048 1.597959
000170 cd b2 3e 40 c0 9f df 3f 19 95 02 40 29 3a d4 3f
       2.9796631 1.7470627 2.0403502 1.6580249
000180 6e ce 20 40 c3 27 8e 3f da 39 b6 3f f0 e5 e9 3f
       2.5125995 1.1105884 1.4236405 1.8273296

model.all_layers.3.weight f4 [50, 100]
000000 8a 50 58 bd 53 d6 ae 3d 33 4e c7 bd b9 09 84 3d
       -0.052811183 0.08536973 -0.09731712 0.06447167
000010 c7 47 ac bd 92 b0 4a 3d 21 53 fa 3c 80 08 96 bc
       -0.08412128 0.049484797 0.030557217 -0.0183146
000020 7e 5e 44 3d 6a b7 6c bd 17 8e ad bc 01 3a 20 bc
       0.047941677 -0.057792105 -0.021185918 -0.009779454
000030 69 e7 95 3d c7 d6 04 bd 80 35 b2 bd 56 39 98 3c
       0.073195286 -0.03243139 -0.087016106 0.018582027
000040 80 96 b7 bd 35 81 ed 3c 9c 1e 41 3d 53 70 90 3b
       -0.089642525 0.028992275 0.047148332 0.0044079213
000050 54 b4 b2 3d f1 a4 55 bd 59 ac 5e bd 1b 6e fb bc
       0.08725801 -0.052159254 -0.054363582 -0.03069215
000060 30 5e b2 bd 16 34 1f 3d 95 36 0d 3d 45 a8 3e bd
       -0.08709371 0.038868032 0.03447588 -0.046547193
000070 b2 74 18 bd 99 ab 4a 3d 04 e2 86 3d d2 18 7b bd
       -0.037220664 0.049480055 0.06586078 -0.061302967
000080 43 0b 8e bc 0e 1f 30 bc a3 7b 96 bc 05 23 bb 3d
       -0.017339354 -0.0107495915 -0.018369501 0.09137539
000090 b3 96 4b bd 65 fd b7 3d c7 b7 0d bd 16 c9 b3 3d
       -0.049704265 0.08983878 -0.03459909 0.087785885
0000a0 6d 14 b5 3c 75 6a 83 3d 01 ce 94 bd 66 61 0e bd
       0.022104466 0.064167894 -0.072658546 -0.034760855
0000b0 98 dd 5b 3c dc f1 41 bd 61 b5 5f 3c 7d ca 19 bd
       0.013419531 -0.047349796 0.013654084 -0.037546623
0000c0 11 cd 94 3d 39 7a cb 3d 80 72 a7 bd 42 05 56 bd
       0.07265676 0.099354215 -0.08176136 -0.052251108
0000d0 02 3e aa bd ef e6 e5 bc f7 62 aa 3a 6f ae b5 bd
       -0.08312608 -0.02806422 0.0012999465 -0.08871161
0000e0 09 97 d2 bd ea 5a 31 3d 8e e0 0d 3c 37 d1 b1 3a
       -0.10282714 0.043299593 0.008659495 0.0013566379
0000f0 1b 82 06 3d 12 f2 a9 bd 9c 68 b6 bd 35 7a 47 bd
       0.032838922 -0.082981244 -0.089066714 -0.04870053
000100 84 8d cf 3d 4d d0 2d 3c 66 7f 93 bd e8 3b 47 3d
       0.10134414 0.010608745 -0.07202034 0.048641115
000110 24 88 d3 3d c2 61 4f bd 08 81 03 bd c3 9a 84 bd
       0.10328701 -0.05063034 -0.032105476 -0.06474831
000120 60 81 94 bd d8 eb 80 3d f5 5b 66 3d 5e 40 03 bd
       -0.07251239 0.062949836 0.05624004 -0.032043807
000130 74 fc c0 3d 9c 83 ba 3d a5 a6 84 3c 8d e1 b9 bd
       0.094231516 0.09107134 0.016192744 -0.090762235
000140 0f 9c f8 bc 97 78 9d bd 55 49 ac 3d 2d f8 4e bc
       -0.030347852 -0.07689016 0.084124245 -0.012632412
000150 50 72 0b bd 00 15 58 bd b1 54 db 3c f7 7a d0 3d
       -0.034044564 -0.052754402 0.026773782 0.10179704
000160 e0 3d 2e bb 6f 42 fb bc c3 d7 7c bc 18 14 86 3d
       -0.0026587173 -0.030671326 -0.015432301 0.06546801
000170 8c 5c 11 bd ca e1 59 3d 7d f5 f3 3c 4f e6 07 3d
       -0.03548865 0.053193845 0.029780144 0.033178624
000180 a9 9a 5e 3d 7b 89 a3 3d 66 84 c1 3d ac f4 a1 3a
       0.054346714 0.07985207 0.09449081 0.0012356243
000190 c2 3c f1 bc 9f 80 c5 3c ef 3e 36 3d e1 23 a2 bd
       -0.029447917 0.024109183 0.044493612 -0.079169996
0001a0 59 39 54 bd f4 73 73 bd a6 4e ff bc a4 5d 81 3d
       -0.051812503 -0.059436753 -0.031165432 0.06316689
0001b0 b3 ce c2 3d 76 55 ca bd 68 f7 a2 3d 85 de ac bd
       0.09512081 -0.09879582 0.07957345 -0.0844088
0001c0 13 94 bd 3c 12 b9 dd 3b 21 4d a8 bd 05 52 bb bd
       0.023141896 0.006766447 -0.08217836 -0.09146503
0001d0 b7 ab 40 bc 6b 3d e0 bc 62 e2 9a 3d 12 c2 02 bd
       -0.01175969 -0.027373036 0.0756271 -0.03192336
0001e0 38 20 7f bd ec e6 d4 3c 50 0a a6 3d 0d 42 b3 bd
       -0.062286586 0.025989018 0.08107436 -0.087528326
0001f0 9c 54 68 3d 8c fc 8a 3c 60 d3 c7 bd 56 44 36 bd
       0.056721315 0.016966127 -0.097571135 -0.044498764
000200 71 e0 c8 bb 09 01 59 bd 96 38 7e 3c 96 61 a8 3c
       -0.006130271 -0.052979503 0.015516421 0.020554345
000210 d7 5e c1 3d 46 d3 8b 3d 65 32 c2 3d 5d f8 2c bc
       0.094419174 0.068274066 0.09482268 -0.010557261
000220 56 55 95 bc 9d 23 ac bc 92 ce 0a bd 66 a8 d0 39
       -0.018229168 -0.021013075 -0.033888407 0.00039798318
000230 53 ca 62 3c 70 b5 22 bd 20 cf 7c 3c aa 7f 91 3c
       0.013842183 -0.039723814 0.015430242 0.01776107
000240 3b 3c 0a 3d 21 5e 8c bd 77 58 bf 3d bf 2c ba 3b
       0.033748847 -0.06853891 0.09343045 0.0056816037
000250 88 92 34 bd d7 eb 73 3d 2b ba 4d bd 6f b5 4e 3d
       -0.044085056 0.059551086 -0.05022637 0.050465997
000260 ac d0 2c 3d d0 c0 f0 3b ba cf 74 3c db 62 9d 3d
       0.042191193 0.007347204 0.014942104 0.07684871
000270 d8 58 e1 bc 6a 7d 3e 3c 41 0c 90 3d 47 df 91 3d
       -0.027508184 0.011626581 0.07033587 0.07122665
000280 90 3e 08 bc e3 e4 8c bd ba 8c c5 bc 09 bf 03 3c
       -0.008315697 -0.06879594 -0.024114955 0.008041152
000290 80 9d 26 3d b4 3d a3 bd fa 8a 68 bd d1 b3 3f 3d
       0.040677547 -0.07970753 -0.056773163 0.046802346
0002a0 db c3 45 bd d6 d8 97 bd 9b aa be bc ed 58 89 3c
       -0.048282485 -0.07414405 -0.02327471 0.016766036
0002b0 71 6b 58 3d c5 5e 36 3c a6 46 95 bd fd 66 73 3c
       0.05283684 0.011130993 -0.07288866 0.014856097
0002c0 e6 51 9d 3d df b3 b8 bd bd 48 d2 3c 47 65 82 bc
       0.076816365 -0.09018683 0.02566945 -0.015917433
0002d0 28 42 e8 3c 6d ae 1e 3d 35 70 ae bd 59 e9 ad bd
       0.028351858 0.038740564 -0.085174955 -0.08491773
0002e0 5b 46 9e 3d 65 9c 50 3b b4 74 46 3d 85 e9 69 3d
       0.07728263 0.00318315 0.04845114 0.057107467
0002f0 ab b8 81 3d 16 6b f3 bc c5 af ac 3d e7 11 bf 3d
       0.06334051 -0.029714148 0.08431963 0.093295865
000300 75 c0 be bd e3 0b 70 bd 8b c3 1c 3d f0 51 15 bb
       -0.09314052 -0.058605086 0.03827242 -0.0022784434
000310 07 65 ae bc ce 1f 36 3c 9b 3d a1 bd 11 b6 a2 3d
       -0.021288408 0.011115981 -0.078730784 0.07944883
000320 c2 9a aa bd 73 e6 c2 bc 0f 31 81 3d 87 bf 49 3c
       -0.08330299 -0.023791527 0.06308185 0.01231373
000330 59 73 88 3d ed 6c 7f 3d 3a 8f 5f bd 7c 6f f6 bc
       0.06662626 0.06235974 -0.05457995 -0.030082457
000340 ec 5b af bd ae 7e 79 bc 2b f8 a3 bd aa 5f 22 bd
       -0.085624546 -0.015227957 -0.08006319 -0.039642014
000350 6f 4d bc 3d 8d 1e ef bc c2 e6 76 bc a5 85 f1 bc
       0.09194457 -0.029189372 -0.015069665 -0.029482672
000360 c6 2d a4 bc 6e 8e 84 3d db 56 af bd 0c fc 72 3d
       -0.020041358 0.06472479 -0.08561488 0.059322402
000370 02 50 24 bc ee de 7d bd 11 80 91 3c a9 2b 75 3d
       -0.010028841 -0.06198018 0.017761262 0.05985609
000380 38 15 5a 3d e8 fe 04 bd 3d 1f 52 bd 31 44 2c bd
       0.053242892 -0.03246966 -0.051299322 -0.04205722
000390 59 87 88 bb de d6 ae bd f5 33 5a bb 59 eb 66 3c
       -0.0041665253 -0.085370764 -0.003329513 0.014094197
0003a0 56 e3 1b bc f0 2a 31 3c 4c 54 63 bd e5 fb 5b bc
       -0.00951465 0.01081346 -0.055500314 -0.013426756
0003b0 77 7b a7 3d b8 87 56 3d 14 01 1f 3d e4 df 1e 3c
       0.08177846 0.052375525 0.038819388 0.009696934
0003c0 d1 b9 27 3d f6 5a 94 bd 7b 54 ca bd 12 a0 16 bd
       0.040948693 -0.07243912 -0.098793946 -0.03677375
0003d0 5f fc cb 3d dc 24 8a bd c8 b6 92 bd 12 4e 48 3d
       0.09960245 -0.067453116 -0.07163769 0.04890258
0003e0 44 fc b7 bb 43 c3 89 bd d5 72 5a 3b 6b 1d 34 3d
       -0.005614789 -0.06726696 0.0033332605 0.043973368
0003f0 fa fe 1e bd 9e 25 e9 bc 63 f3 b3 bd 26 70 a6 3d
       -0.038817383 -0.02846032 -0.08786657 0.08126859

model.all_layers.3.bias f4 [50]
000000 b0 10 b1 bd 82 69 60 ba 4c 34 8d 3c ec b0 f9 3c
       -0.08645761 -0.0008560644 0.017236851 0.03047987
000010 80 44 ba 3b 60 ee 33 bd 4d 6d 8d 3c 02 1a 7f 3d
       0.0056844354 -0.043928504 0.017264033 0.062280662
000020 7a 53 40 bd 2d 42 77 bd ed 30 b8 bd 06 c7 24 3d
       -0.04695461 -0.060365845 -0.08993707 0.040228866
000030 28 9b 58 bc 05 7c 91 3d e0 bd a6 bc 1f 77 b6 3b
       -0.013220586 0.07103733 -0.020354211 0.0055683996
000040 bb a5 b1 bd de cb 18 3d fc 60 3f bb 3f d2 b6 3d
       -0.08674189 0.037303798 -0.0029202094 0.0892682
000050 c6 5c 3b 3d 38 10 84 3c 3a bc 01 3d c6 70 4e 3d
       0.045742773 0.016121015 0.031673647 0.050400518
000060 c0 8d 0d bc 80 43 45 3c 63 30 51 3b 93 49 73 bd
       -0.008639753 0.012040019 0.003191971 -0.059396338
000070 7d 96 73 bd 58 6b b2 3c 11 c9 a3 3d b1 50 84 3d
       -0.05946969 0.021779701 0.07997335 0.06460703
000080 2a ad 66 3d b6 48 11 3d 2e d6 64 3d 96 18 06 bd
       0.056317486 0.035469733 0.05586832 -0.03273829
000090 26 4b 02 bd 2c f4 89 3c ec 8d 90 bc 20 ba bf bd
       -0.03180995 0.016840063 -0.017645799 -0.093616724
0000a0 5e da 4b 3d 42 08 34 3d c3 03 bc bd 37 69 9f 3d
       0.049768798 0.043953188 -0.09180405 0.0778374
0000b0 3b 4b 82 ba 76 a8 a2 bd 83 de 5a bd a7 04 4b 3c
       -0.0009940633 -0.079422876 -0.05343486 0.012391246
0000c0 b6 77 92 bd 71 7e 87 3d
       -0.07151739 0.06615914

model.all_layers.4.weight f4 [50]
000000 12 4a 81 3f 14 10 80 3f 4f cb 7f 3f 60 f9 7f 3f
       1.010073 1.0004907 0.999196 0.9998989
000010 6e ed 7f 3f 10 c2 7f 3f 79 e8 80 3f 19 5c 81 3f
       0.99971664 0.9990549 1.0070945 1.0106231
000020 1c d2 80 3f 52 9f 7f 3f ed 6d 80 3f 19 15 80 3f
       1.006412 0.9985248 1.0033547 1.0006438
000030 1d ea 7f 3f 86 0d 80 3f 79 12 81 3f 47 b2 80 3f
       0.99966604 1.0004127 1.0083762 1.0054406
000040 6d 08 80 3f 17 e5 80 3f 4d 58 80 3f 4e dc 7f 3f
       1.0002571 1.0069913 1.0026947 0.99945533
000050 13 4b 7f 3f d8 15 80 3f 55 8c 80 3f f8 38 81 3f
       0.9972393 1.0006666 1.0042826 1.009551
000060 b3 7a 80 3f bb 0e 80 3f 03 6c 7f 3f 5a f2 7f 3f
       1.0037445 1.0004495 0.9977419 0.99979174
000070 3e 88 80 3f 6a da 7f 3f 0a 10 80 3f cc 6e 7f 3f
       1.0041578 0.9994265 1.0004895 0.9977844
000080 86 4d 80 3f 63 b2 7f 3f 8b 9f 80 3f 4c 2b 80 3f
       1.0023658 0.9988157 1.0048689 1.0013213
000090 5f be 7f 3f 75 a4 7f 3f d1 70 7f 3f 63 10 80 3f
       0.9989986 0.99860317 0.9978152 1.0005001
0000a0 75 26 80 3f 07 5d 7f 3f bd 0b 82 3f 3a 38 81 3f
       1.0011736 0.99751323 1.0159832 1.0095284
0000b0 9f 2c 80 3f 73 2b 83 3f 15 af 80 3f 2f 7c 81 3f
       1.0013617 1.0247635 1.0053431 1.0116023
0000c0 e5 b4 7f 3f 91 a4 80 3f
       0.998854 1.0050222

model.all_layers.4.bias f4 [50]
000000 f1 5c b3 3a a2 10 97 3a b5 e4 2a ba d1 18 20 bb
       0.0013684315 0.0011525343 -0.00065190654 -0.0024428854
000010 1a 1d 26 ba ea b9 9e bb 72 48 40 3b 66 2b 64 3c
       -0.0006336734 -0.00484394 0.0029340056 0.013926363
000020 53 3e 9e 3b 45 80 ab ba ab 1b d4 38 6d f0 c4 3a
       0.004829207 -0.0013084492 0.00010114101 0.0015025266
000030 81 90 25 bb 4f ae 09 bb 41 6e 4c 3b 39 23 a6 3b
       -0.0025263133 -0.0021008437 0.0031193646 0.005070117
000040 fd 74 ad ba ef 64 36 ba 0a bb 15 3a 28 3f a2 39
       -0.0013233718 -0.00069577893 0.000571177 0.00030946103
000050 30 ec 20 bb 58 88 d5 ba 9b 72 3a 3b aa 06 2e 3a
       -0.0024554841 -0.0016291244 0.0028449658 0.0006638566
000060 d2 26 de ba d5 c7 e4 b9 44 8b 1f bb 12 1f bd ba
       -0.0016948825 -0.00043636435 -0.0024344483 -0.0014428815
000070 49 0f b7 3a 32 ee 92 ba cc e7 63 3a 3f e5 25 bb
       0.0013966347 -0.0011209904 0.0008693903 -0.0025313643
000080 8b 63 8f 3b 94 f5 06 bb 94 ab 37 bb 5f ea 3d 3b
       0.00437588 -0.0020593153 -0.0028025853 0.0028978807
000090 b4 08 30 bb 96 55 74 ba ad 15 05 bb 4f 2b 70 39
       -0.0026860656 -0.00093206146 -0.002030711 0.00022904317
0000a0 42 2e 86 ba dd 5d f9 ba 73 7e 51 3c 6f 87 b1 3b
       -0.0010237175 -0.0019025166 0.0127864955 0.0054177563
0000b0 45 74 c7 b9 2c f7 83 3c 66 f2 85 b9 a5 31 06 3c
       -0.00038042865 0.016109072 -0.00025548338 0.008190547
0000c0 8b b6 f0 ba 8c 54 2e 3b
       -0.0018364949 0.0026600687

model.all_layers.4.running_mean f4 [50]
000000 dd a3 b9 bd be 66 f5 3a 52 85 60 be b9 77 20 3b
       -0.090644576 0.0018722636 -0.21925858 0.0024485423
000010 40 d1 53 3d 5a f3 c8 3d 4a bb 51 be 54 80 50 3e
       0.05171323 0.098120406 -0.20481601 0.20361453
000020 4f c1 9a 3e 37 56 23 bc e0 05 0e 3d 12 ac d5 bd
       0.30225608 -0.009969286 0.03467357 -0.104332104
000030 fc 04 8f 3e 08 0c 09 be f0 51 32 bd 0c a4 19 3c
       0.2793349 -0.13383496 -0.043535173 0.009377491
000040 c1 d5 02 be 92 be 68 bd e2 1d b6 3d d4 a0 5a 3e
       -0.12776853 -0.056822367 0.088924184 0.21350414
000050 52 5d 64 3d 38 38 6d bd 49 38 6b 3d 71 d3 72 3e
       0.05575306 -0.057914943 0.057426725 0.23713471
000060 89 d7 85 bb a7 01 b1 3d 67 a5 89 bd de ce 9b be
       -0.0040845317 0.08642893 -0.06721001 -0.30431265
000070 0e 29 8b be ed 82 f9 3d 12 5d 8f be d5 d3 64 be
       -0.2717976 0.12183175 -0.28000695 -0.22346433
000080 d5 8c 50 3e 6c 3a 8f bc 70 9e a7 bd 0f 6b 11 be
       0.20366223 -0.017483912 -0.081845164 -0.14200996
000090 53 64 8d be 1f 7b 7a bd c1 94 8d bd d8 a8 87 be
       -0.27615604 -0.061152574 -0.06913138 -0.26496005
0000a0 26 a1 2d be 00 22 4a 3e f4 45 6e be fe a5 95 bd
       -0.16956005 0.19739532 -0.23268872 -0.07307051
0000b0 2b 3b f9 bd 50 26 ce bd ea 2f 30 bd 02 7e c5 3d
       -0.121694885 -0.10065901 -0.043014444 0.09643175
0000c0 26 68 60 be e1 fa 0b 3e
       -0.2191473 0.13669921

model.all_layers.4.running_var f4 [50]
000000 8b fd d4 3e 0e f1 d0 3e db 62 d5 3e 73 7a ca 3e
       0.41599688 0.4080891 0.41676983 0.39546546
000010 5c 6e d0 3e d9 19 d4 3e 61 c7 c4 3e 9c 74 d5 3e
       0.40709198 0.4142597 0.38433364 0.41690528
000020 c1 b7 e3 3e 05 0c c8 3e 3b f9 eb 3e 82 6a de 3e
       0.4447613 0.3907167 0.46088585 0.43440634
000030 3b 1e ce 3e 43 5b c5 3e 32 88 cd 3e 87 4e d9 3e
       0.4025744 0.3854619 0.4014297 0.42442724
000040 05 dc d9 3e 59 c7 e9 3e 49 5b eb 3e 90 ca e5 3e
       0.42550674 0.45659903 0.45968083 0.44881105
000050 28 17 f3 3e 47 ae d9 3e d4 24 c7 3e 85 8d d0 3e
       0.47478604 0.42515776 0.38895285 0.4073297
000060 fa 0e e1 3e b2 84 cf 3e be df ed 3e 00 30 f1 3e
       0.4395674 0.40530926 0.46459764 0.47106934
000070 8a 6f c6 3e ce 01 e2 3e 73 ab d9 3e 79 c7 d3 3e
       0.38756973 0.44142002 0.42513618 0.41363123
000080 f2 32 ec 3e 88 4a d6 3e c4 17 ea 3e e6 0f e0 3e
       0.46132618 0.41853738 0.45721257 0.4376213
000090 ba 6b ee 3e 71 7a d0 3e 52 6c d1 3e b7 b7 c0 3e
       0.46566564 0.40718415 0.40902954 0.37640163
0000a0 80 7c cd 3e e4 44 c9 3e d6 b2 d3 3e c1 00 d0 3e
       0.40134048 0.39310372 0.41347378 0.40625575
0000b0 a7 a5 d7 3e 10 89 f9 3e 42 a3 e4 3e ab 17 ec 3e
       0.4211857 0.48737383 0.44655806 0.46111807
0000c0 2e a9 ce 3e e7 29 d3 3e
       0.4036345 0.41242906

model.all_layers.6.weight f4 [2, 50]
000000 31 0e 11 3e a4 5f 1e be 83 86 93 3b 1e 4c f8 bd
       0.1416557 -0.15466172 0.004502119 -0.12123893
000010 6a 62 88 3d fd 90 d3 3d 66 78 ef bd 23 eb 40 3e
       0.06659396 0.10330389 -0.11692886 0.18839698
000020 84 ff 06 be e7 73 9f 3b 14 fa a7 bd 76 3f db bd
       -0.13183409 0.0048661116 -0.082019955 -0.107054636
000030 da b2 43 3b f3 40 1b 3e ef 75 3c 3e c2 21 ec 3d
       0.0029861243 0.15161495 0.18404363 0.11529876
000040 58 51 e3 bc 22 41 1e 3e a7 03 42 bd bc a9 74 3c
       -0.027748749 0.15454534 -0.047366764 0.014933046
000050 81 f2 d0 bd bd df df 3d 33 4e cd bd 8a 96 8d 3d
       -0.10202504 0.109313466 -0.10024681 0.06913479
000060 45 34 ee bd 6a db 9f bd 50 d8 be 3c 79 3f 16 bd
       -0.11631063 -0.07805522 0.023296505 -0.036681626
000070 38 e2 36 be be fc bf 3d 34 87 87 3d 22 60 8e bd
       -0.17859733 0.093743786 0.06617585 -0.0695193
000080 73 53 18 be d8 2d 38 ba 66 55 0e 3e d3 53 d3 bd
       -0.14875583 -0.0007025874 0.13899764 -0.103187226
000090 58 32 11 bd b0 1b 06 3c da 33 9c 3c f6 ed 0c be
       -0.035448402 0.008185312 0.019067694 -0.1376265
0000a0 eb 65 a2 3c a7 b3 9c bd 7b 95 3f be 54 93 45 be
       0.019823989 -0.076514535 -0.18709366 -0.19294482
0000b0 65 64 3d bd 9f 89 4a 3e b5 21 15 be 3a 50 42 be
       -0.04623832 0.19779061 -0.1456364 -0.18975917
0000c0 eb 89 22 3c 01 07 58 3d e9 23 17 be 52 3d 9a bd
       0.0099205775 0.052741054 -0.14759792 -0.07531227
0000d0 50 ba 86 3d 6a af 0f 3e 2f 73 02 3d f2 bb 0a 3d
       0.06578505 0.14031759 0.03184813 0.033870645
0000e0 cf 03 87 3d e3 7b f1 bd 04 7d b1 3d fc 85 22 3b
       0.06592523 -0.11791208 0.08666423 0.00247991
0000f0 e2 59 15 3e 1a dc 82 3b 06 eb a5 bd 83 e4 c2 3d
       0.14585069 0.0039935233 -0.08101468 0.095162414
000100 68 f0 88 bd 83 1a a2 bd ba d2 06 3d 22 75 96 bd
       -0.06686479 -0.07915213 0.03291581 -0.0734656
000110 04 d9 f3 3d dc b6 9c 3d c9 0d ca 3d 05 9d f8 bd
       0.11906627 0.07652065 0.098659106 -0.12139324
000120 e3 4b 4d 3d 8c fb 2e be 6e c7 20 3e 5e 61 54 bb
       0.0501212 -0.17088145 0.15701076 -0.0032406668
000130 9e 4e 8a bd c4 84 b6 bd f7 6f 0c bd 77 54 09 3d
       -0.06753276 -0.08912042 -0.034286465 0.033527818
000140 6d 62 0e 3e c0 ac 91 bd 4b e0 0c 3e 6c d2 48 bc
       0.13904734 -0.071130276 0.13757436 -0.0122572
000150 e0 7c b5 bd aa 7b ed 3d 14 a8 e6 bd d7 69 e2 3d
       -0.08861709 0.11595853 -0.11262527 0.110553436
000160 5a 5c 9f 3d f2 5e 9c bd d2 09 92 bd 3e a4 79 bd
       0.077812865 -0.07635297 -0.07130779 -0.06094765
000170 2c d7 36 3e c9 63 5a 3d 46 e6 07 be 77 cf 3c be
       0.17855519 0.05331782 -0.13271436 -0.18438517
000180 48 1b 17 3e 98 fb ad 3d 52 c3 2a bd c1 8d 27 be
       0.147565 0.08495253 -0.04169018 -0.16362669

model.all_layers.6.bias f4 [2]
000000 25 c3 86 bd d8 65 e5 bd
       -0.065801896 -0.11201066
