unit06-dl-tips/6.8-debugging/logs/my-model/version_7/checkpoints/epoch=4-step=5.ckpt (torch, 71666 bytes, 14 tensors)

model.all_layers.0.weight f4 [100, 100]
-0.04006626 0.0011155823 -0.049183615 0.037906203 -0.081940174 0.07665139 -0.0722024 -0.081356466
-0.06705392 0.046598986 -0.037088864 0.039983816 -0.08426061 -0.06011222 -0.03455573 -0.018102556
-0.07649275 0.06218932 -0.020236121 0.0337667 0.06802478 0.020147558 0.02797134 0.09920079
-0.047673054 0.030338362 -0.046231676 0.072254576 0.081260376 -0.09140762 0.08573917 0.04918857
0.04513548 0.041941937 0.083029404 -0.013794946 -0.08558462 -0.024363657 -0.068506226 0.009837213
-0.018058429 -0.053156864 -0.011451754 0.096643955 -0.005725664 0.0015128145 -0.016143644 0.016683437
0.085425064 0.060719214 0.03316702 0.022212686 0.025373008 0.04056985 -0.018800447 -0.0941174
-0.0603027 0.087713584 0.0022689814 -0.084297106 0.013200626 0.0825768 -0.09352488 -0.06548888
-0.03608102 0.0044953846 -0.020967923 -0.010686413 -0.09554718 0.05005446 0.0903368 0.0608705
-0.069077045 -0.07982072 0.04273802 0.0068007405 0.03575972 -0.09807855 -0.0016310648 0.071618415
0.046921823 0.0054454613 0.019962523 -0.015346103 -0.05755547 -0.035868697 -0.064187735 0.08368719
0.052456554 0.029738877 -0.07997501 0.07530991 0.032745615 0.06698259 -0.038533445 0.026081424
0.09558807 0.063166894 0.08087168 -0.01878773 0.07367062 -0.08067648 0.008115315 -0.057693977
-0.023841016 -0.030754458 0.015415113 0.099842705 0.04839071 -0.002964075 0.069336705 -0.051091548
0.056956686 -0.006852535 -0.016682716 0.010581062 -0.0760324 0.010868375 0.028479097 0.08742465
-0.040720407 0.033279594 0.09029454 -0.039034415 0.09072548 -0.05005181 0.04823509 0.03833466
0.029227756 0.078239955 -0.04178762 0.024735266 0.0039502364 -0.07835306 -0.020262446 -0.07171803
0.047127366 0.0019955698 0.006700726 -0.03358644 0.005900394 -0.023171106 0.029858975 0.0933023
0.015865419 -0.03899723 -0.06378755 0.006595375 -0.06598868 -0.07961957 -0.0655086 -0.026031272
0.0036883468 0.07624294 0.037450574 0.076818295 -0.06188539 0.0033935565 -0.08450398 0.05667837
0.016507229 0.09639011 -0.07204944 0.08139999 0.08330156 0.08878496 0.009224231 0.09538321
0.068632 0.07135857 -0.0063420744 -0.08071691 -0.013613363 0.017913474 -0.066944495 -0.06097451
-0.09825427 -0.037731614 0.08011282 0.01823321 -0.0113937855 0.00030240067 0.063123696 -0.08958972
-0.08149272 -0.036342774 -0.058239166 0.04192184 0.06632459 -0.09940221 -0.08555533 -0.088553056
0.032879896 0.0781322 -0.0790468 -0.053402722 0.032464433 -0.0633815 0.08515528 0.023152959
-0.025314966 0.013832033 0.03415789 -0.034275796 -0.07786677 0.010325309 0.0012680973 -0.00092885585
-0.020790877 0.0721509 -0.02672646 -0.014442736 0.04280869 -0.065076336 0.02500016 -0.02132394
0.053560585 -0.054291993 0.013348978 0.010714646 -0.07507447 -0.07525408 0.04817158 -0.02318662
0.061266426 -0.10396109 -0.048701208 -0.07749887 0.04030651 0.0019681924 -0.02471129 -0.010395899
-0.07523609 0.033680636 0.0023076078 -0.06286606 0.03737609 0.00079591403 -0.088922516 0.055489372
0.055178635 -0.01939441 -0.08058002 0.003955379 0.07368229 0.091142185 -0.07682363 -0.048053835
0.06936821 0.052264787 0.06077874 -0.05032683 0.09329417 -0.08556918 -0.0052242787 -0.0012043273
00000000: 851c 24bd bb38 923a c274 49bd 8943 1b3d
00000010: 40d0 a7bd 67fb 9c3d dade 93bd 389e a6bd
00000020: 9153 89bd 94de 3e3d 7eea 17bd 12c6 233d
00000030: d490 acbd 3b38 76bd 4f8a 0dbd d04b 94bc
00000040: 3ba8 9cbd 3aba 7e3d 39c6 a5bc f44e 0a3d
00000050: 9350 8b3d 7e0c a53c 2724 e53c c929 cb3d
00000060: d244 43bd 2888 f83c 6d5d 3dbd 35fa 933d
00000070: d76b a63d eb33 bbbd 0598 af3d f479 493d
00000080: fbdf 383d 4fcb 2b3d 520b aa3d 3204 62bc
00000090: fd46 afbd 4b96 c7bc fe4c 8cbd 432c 213c
000000a0: 45ef 93bc 03bb 59bd 23a0 3bbc 44ed c53d
000000b0: 5a9e bbbb a249 c63a ad3f 84bc b4ab 883c
000000c0: 56f3 ae3d b6b4 783d 24da 073d 61f7 b53c
000000d0: 0edb cf3c 922c 263d 6503 9abc a0c0 c0bd
000000e0: f7ff 76bd 2ea3 b33d 31b3 143b f6a3 acbd
000000f0: 7047 583c 061e a93d f989 bfbd 091f 86bd
00000100: b1c9 13bd 054e 933b ecc4 abbc 1116 2fbc
00000110: 3dae c3bd e805 4d3d 8002 b93d 5853 793d
00000120: 4478 8dbd 0c79 a3bd 100e 2f3d bfd8 de3b
00000130: c978 123d 68dd c8bd 74c9 d5ba adac 923d
00000140: 1931 403d d76f b23b 7288 a33c 396e 7bbc
00000150: 49bf 6bbd 0eeb 12bd dc74 83bd 3164 ab3d
00000160: afdc 563d f29e f33c f0c9 a3bd 153c 9a3d
00000170: 4420 063d 2b2e 893d 3fd5 1dbd b6a8 d53c
00000180: aec3 c33d a55d 813d 0da0 a53d bae8 99bc
00000190: 9fe0 963d b639 a5bd 19f6 043c 8550 6cbd
000001a0: 3c4e c3bc c6f0 fbbc ac8f 7c3c 557a cc3d
000001b0: 5635 463d ed40 42bb 6700 8e3d 5f45 51bd
000001c0: 6a4b 693d 3b8b e0bb 31aa 88bc 315c 2d3c
000001d0: e0b6 9bbd 4511 323c ff4c e93c b20b b33d
000001e0: 71ca 26bd 2f50 083d 58ec b83d 8de2 1fbd
000001f0: 48ce b93d 2003 4dbd 2892 453d ce04 1d3d
00000200: 0c6f ef3c 453c a03d 7f29 2bbd 9da1 ca3c
00000210: fc70 813b 9277 a0bd 6efd a5bc e7e0 92bd
00000220: a008 413d 1bc8 023b c491 db3b ef91 09bd
00000230: 1858 c13b 55d1 bdbc cf9a f43c 4715 bf3d
00000240: 32f8 813c 8fbb 1fbd 0ca3 82bd 041e d83b
00000250: 1325 87bd 960f a3bd 5f29 86bd 893f d5bc
00000260: 31b8 713b 4225 9c3d c665 193d e952 9d3d
00000270: 897b 7dbd 6e66 5e3b 6c10 adbd 9427 683d
00000280: 2b3a 873c 2e68 c53d a88e 93bd 0ab5 a63d
00000290: 029a aa3d e4d4 b53d 3b21 173c 4658 c33d
000002a0: ef8e 8c3d 7124 923d 2dd1 cfbb e84e a5bd
000002b0: 950a 5fbc 47bf 923c 321a 89bd 68c0 79bd
000002c0: 8939 c9bd 778c 1abd 3112 a43d d05d 953c
000002d0: 00ad 3abc 888b 9e39 ff46 813d d17a b7bd
000002e0: a8e5 a6bd 29dc 14bd 318c 6ebd 3cb6 2b3d
000002f0: 30d5 873d 6393 cbbd a237 afbd 4e5b b5bd
00000300: 12ad 063d c603 a03d 4ae3 a1bd d0bc 5abd
00000310: 6df9 043d 29ce 81bd e465 ae3d 46ab bd3c
00000320: 5561 cfbc c09f 623c 25e9 0b3d c764 0cbd
00000330: 9d78 9fbd 7c2b 293c 4936 a63a 767e 73ba
00000340: a151 aabc dac3 933d 73f1 dabc 3aa1 6cbc
00000350: 2a58 2f3d be46 85bd 23cd cc3c 8baf aebc
00000360: 5862 5b3d 4861 5ebd acb5 5a3c 7c8c 2f3c
00000370: a5c0 99bd d01e 9abd 904f 453d def1 bdbc
00000380: 81f2 7a3d 8de9 d4bd eb7a 47bd bab7 9ebd
00000390: 7018 253d cafc 003b 556f cabc 9053 2abc
000003a0: 6115 9abd b5f4 093d 3c3b 173b ecbf 80bd
000003b0: ac17 193d e3a4 503a 021d b6bd d348 633d
000003c0: fe02 623d 07e1 9ebc 2307 a5bd 209c 813b
000003d0: bee6 963d c1a8 ba3d b555 9dbd 19d4 44bd
000003e0: ec10 8e3d 9a13 563d 21f3 783d 8223 4ebd
000003f0: 0411 bf3d e53e afbd 6d30 abbb 85da 9dba

model.all_layers.0.bias f4 [100]
0.014835432 0.06831991 0.029112361 -0.036049746 -0.0115737915 0.05810941 0.03397114 0.003862068
-0.049154785 0.07830664 -0.086287454 -0.090748765 0.022133395 0.06539672 -0.09435125 0.035291024
-0.049338546 0.07005385 -0.025464952 0.093709014 -0.040897775 -0.004881583 0.0658908 -0.026846707
0.005352676 0.07649804 -0.035308942 -0.078665055 0.008734323 -0.088866465 0.07159061 0.009620294
-0.027133502 -0.014975034 0.08313059 -0.029656217 -0.0009859425 0.014266804 0.009306848 -0.05195383
-0.0063731223 -0.04060818 -0.008555733 -0.07125016 0.03633354 -0.040306795 0.013856515 0.09757077
0.028252758 -0.062812716 -0.077858664 -0.062496543 0.068285264 0.0784462 0.03393314 -0.07774319
0.02693548 0.033362933 -0.018861309 0.02991759 0.08659131 -0.024171695 0.063166596 0.023436867
-0.08877639 -0.007865891 -0.025602773 -0.00948558 -0.0046138316 -0.0748134 0.04901754 -0.06654302
-0.04919356 0.09644974 0.021275386 -0.008679949 0.050122134 0.09734962 -0.05035987 -0.09258522
-0.0147391185 -0.06260194 -0.093927264 -0.033703364 -0.023496628 -0.0010202677 0.04484076 0.06742454
-0.024140395 -0.03032235 -0.061059784 0.07141494 0.038108192 -0.013914362 0.059351765 0.08103419
-0.032623306 0.07361501 -0.035381936 -0.019541822
00000000: 5010 733c 4feb 8b3d 0c7d ee3c e6a8 13bd
00000010: 00a0 3dbc 2204 6e3d 5225 0b3d c01a 7d3b
00000020: 8756 49bd 3b5f a03d 7ab7 b0bd 7dda b9bd
00000030: 1851 b53c b7ee 853d 3a3b c1bd 528d 103d
00000040: 3717 4abd 6578 8f3d e09b d0bc 83ea bf3d
00000050: 6d84 27bd b0f5 9fbb c1f1 863d a0ed dbbc
00000060: 8065 af3b 01ab 9c3d 1ca0 10bd 251b a1bd
00000070: 681a 0f3c 9fff b5bd 199e 923d 709e 1d3c
00000080: 1447 debc d859 75bc 5f40 aa3d 98f1 f2bc
00000090: be3a 81ba 50bf 693c c07b 183c 8acd 54bd
000000a0: a0d5 d0bb c354 26bd 582d 0cbc 9beb 91bd
000000b0: 7ad2 143d bd18 25bd 7006 633c 2fd3 c73d
000000c0: 5472 e73c f4a3 80bd 5d74 9fbd 60fc 7fbd
000000d0: 25d9 8b3d 67a8 a03d 7afd 0a3d d237 9fbd
000000e0: cca7 dc3c 92a7 083d 0883 9abc bc15 f53c
000000f0: c956 b13d b803 c6bc 7d5d 813d acfe bf3c
00000100: 65d0 b5bd f0df 00bc e8bc d1bc 6869 1bbc
00000110: a02f 97bb c537 99bd 9ec6 483d b547 88bd
00000120: 307f 49bd 7187 c53d b849 ae3c 5836 0ebc
00000130: de4c 4d3d 3d5f c73d 2746 4ebd 529d bdbd
00000140: 587c 71bc 7235 80bd f05c c0bd 8a0c 0abd
00000150: 007c c0bc 81ba 85ba f2aa 373d e115 8a3d
00000160: 14c2 c5bc 9466 f8bc d319 7abd ff41 923d
00000170: 5617 1c3d 10f9 63bc d61a 733d 41f5 a53d
00000180: 04a0 05bd 77c3 963d a6ec 10bd 2c16 a0bc

model.all_layers.1.weight f4 [100]
0.99985594 1.0031446 1.0010767 0.998217 0.99843276 1.0006223 0.9998882 1.0019444
1.0002121 0.9998855 0.9981989 1.0016234 0.99837434 0.9960402 0.99863815 1.0024719
1.0012693 0.99901307 0.9991947 1.0029495 0.9980273 0.99972266 0.9990192 1.0004423
1.000508 1.0005255 1.002469 0.99883384 0.99848086 1.001072 1.0007071 0.99947083
1.0036118 0.99880767 1.0019637 0.99995404 1.0036029 0.99964505 0.9978894 1.0041791
1.0002471 0.9987795 0.99875164 1.0024154 0.9966165 0.9984491 1.0002236 1.0010209
0.9981604 1.0024811 1.000675 0.99912804 1.0012486 0.9991222 0.9983368 0.998433
0.9985484 1.0018538 0.99929035 0.99891067 0.998196 1.0034171 0.99897295 0.9981943
0.9952978 1.0008043 1.0006406 1.0027962 1.0002913 0.99968743 0.9976072 1.0043815
1.0036839 1.0002526 1.0017203 0.997385 0.9994743 0.99963593 1.0019934 0.9978206
0.99159646 1.0008816 0.9953042 0.9995461 1.002464 0.99745077 0.9980342 1.0018064
0.99991196 1.0004141 1.0015643 0.99992335 1.001306 0.9988757 1.0008199 1.0002363
0.9983713 1.0019883 1.0031487 1.0011935
00000000: 8ff6 7f3f 0b67 803f 4823 803f 268b 7f3f
00000010: 4a99 7f3f 6414 803f acf8 7f3f b73f 803f
00000020: f306 803f 7ff8 7f3f f789 7f3f 3235 803f
00000030: 7695 7f3f 7efc 7e3f c0a6 7f3f 0051 803f
00000040: 9829 803f 52bf 7f3f 39cb 7f3f a660 803f
00000050: b87e 7f3f d3ed 7f3f b9bf 7f3f 7e0e 803f
00000060: a510 803f 3811 803f e750 803f 93b3 7f3f
00000070: 719c 7f3f 2123 803f 2c17 803f 52dd 7f3f
00000080: 5a76 803f dcb1 7f3f 5940 803f fdfc 7f3f
00000090: 0f76 803f bde8 7f3f ae75 7f3f f188 803f
000000a0: 1908 803f 03b0 7f3f 30ae 7f3f 264f 803f
000000b0: 4222 7f3f 5c9a 7f3f 5407 803f 7421 803f
000000c0: 7187 7f3f 4d51 803f 1e16 803f dbc6 7f3f
000000d0: ea28 803f 79c6 7f3f 0093 7f3f 4e99 7f3f
000000e0: dea0 7f3f bf3c 803f 7ed1 7f3f 9cb8 7f3f
000000f0: c689 7f3f f96f 803f b1bc 7f3f a989 7f3f
00000100: d6cb 7e3f 5b1a 803f fe14 803f a05b 803f
00000110: 8c09 803f 84eb 7f3f 2f63 7f3f 938f 803f
00000120: b778 803f 4708 803f 5f38 803f a054 7f3f
00000130: 8cdd 7f3f 24e8 7f3f 5241 803f 2c71 7f3f
00000140: 44d9 7d3f e31c 803f 42cc 7e3f 41e2 7f3f
00000150: be50 803f ef58 7f3f 2b7f 7f3f 313b 803f
00000160: 3bfa 7f3f 920d 803f 4233 803f fafa 7f3f
00000170: cc2a 803f 51b6 7f3f de1a 803f be07 803f
00000180: 4395 7f3f 2741 803f 2d67 803f 1c27 803f

model.all_layers.1.bias f4 [100]
-0.0013517711 0.00030498137 0.00056810555 -0.001270161 0.0031471818 0.0016595415 -0.004426866 0.0024865544
0.0019435849 0.0006214717 -0.0022956084 0.0017100569 -0.0021660703 -0.0022276042 0.00041033508 0.00010569233
0.0030608745 0.0006085653 -0.00044751522 0.0043678833 -0.000835556 2.7563423e-05 -0.0007018429 0.00029578205
0.0031538927 0.00090855855 -0.0012785834 -0.0001452137 -0.0023010331 0.0015153656 0.0029456383 -0.0006336232
0.0011505812 -0.0033843776 -0.0008589067 -0.0007136528 0.002667002 6.5490894e-05 -0.0040843175 0.0043502008
0.00054130785 -0.0031186342 0.001498844 6.6284214e-05 -0.003166628 -0.00058490015 2.5178293e-05 0.001656535
0.0013607518 0.0032884767 0.0012637071 0.0010685427 0.00097306195 -0.00029516933 -5.5095028e-05 0.0015811921
-0.0019608354 0.00025417688 -0.00021379259 0.0023391629 -0.0011579145 -0.00047140033 0.00046018107 -0.0017229154
-0.0017256796 -0.00047742057 0.0015083774 0.0017072464 8.424906e-06 0.0013635758 -0.0005550304 0.001240351
0.0028701865 -0.00053535815 0.00124399 -0.00047625657 0.0007693249 -0.00059394416 -0.0013973541 -0.0012184817
-0.007674565 -0.00043843634 -0.003605975 0.0006115688 0.0023814056 -0.0017039586 -0.0018217078 0.0020099676
-0.0016585053 -0.000770236 0.001156985 -0.00047791805 0.0033987174 -0.00047689257 0.001805218 -5.350331e-05
-0.00096877135 -0.0012001841 0.0045895656 0.0026807156
00000000: e92d b1ba e8e5 9f39 ebec 143a 887b a6ba
00000010: f340 4e3b f984 d93a 3e0f 91bb 76f5 223b
00000020: e3bf fe3a 43ea 223a eb71 16bb fd23 e03a
00000030: a1f4 0dbb fffc 11bb 3e22 d739 23a7 dd38
00000040: f498 483b 2088 1f3a 7aa0 eab9 7620 8f3b
00000050: 3709 5bba 0038 e737 e1fb 37ba 3213 9b39
00000060: 8ab1 4e3b 552c 6e3a 2496 a7ba 8144 18b9
00000070: eecc 16bb 3b9f c63a 9c0b 413b bc19 26ba
00000080: 19cf 963a 6fcc 5dbb 4128 61ba 6e14 3bba
00000090: dec8 2e3b 2858 8938 bdd5 85bb 218c 8e3b
000000a0: 8ee6 0d3a 0062 4cbb dc74 c43a 1102 8b38
000000b0: 3487 4fbb fc53 19ba f935 d337 1720 d93a
000000c0: 415b b23a 7c83 573b f9a2 a53a 580e 8c3a
000000d0: 1515 7f3a f5c0 9ab9 d615 67b8 0140 cf3a
000000e0: 5c81 00bb 0b43 8539 832d 60b9 a44c 193b
000000f0: 2ac5 97ba 4826 f7b9 7544 f139 73d3 e1ba
00000100: 3330 e2ba 4e4e fab9 bfb4 c53a afc5 df3a
00000110: b258 0d37 03ba b23a 767f 11ba 4693 a23a
00000120: bd19 3c3b 4757 0cba 610d a33a 13b2 f9b9
00000130: 85ac 493a ebb2 1bba 6c27 b7ba 76b5 9fba
00000140: eb7a fbbb eedd e5b9 3952 6cbb b051 203a
00000150: 5b11 1c3b 5d57 dfba 5fc6 eeba a9b9 033b
00000160: 3462 d9ba aae9 49ba f9a5 973a 1391 fab9
00000170: 04bd 5e3b 7007 fab9 119d ec3a be68 60b8
00000180: 25f5 7dba 7f4f 9dba 1164 963b f2ae 2f3b

model.all_layers.1.running_mean f4 [100]
-0.15655974 0.11288663 -0.19190258 -0.10832337 0.02977523 -0.12987365 -0.12974146 -0.30230647
0.07664474 -0.17408127 -0.09199733 -0.10893276 0.107835814 -0.051138252 -0.19263555 0.030319367
-0.09301568 0.10974998 0.093908764 0.077395216 -0.070149206 0.017321542 -0.045012496 0.04831764
-0.0068795695 0.07203927 0.055935867 0.0070984913 -0.11638524 0.04541994 0.08799189 -0.27818984
0.11927674 0.17377435 0.08924418 0.103732675 -0.1342653 0.3299076 0.009199429 0.20193756
-0.2509609 -0.069561936 -0.22155571 0.014353128 -0.02666821 0.06406739 0.10827954 0.14559805
0.18027374 -0.26106513 0.055156868 -0.08273863 0.15248354 0.13916883 0.014364887 -0.038456686
0.19065619 0.017674204 -0.014929028 0.33411998 0.03287796 -0.34979773 -0.032596167 0.13206512
-0.12819275 0.11121424 0.07979734 -0.11086949 -0.096193306 0.02184258 -0.05047783 -0.06505878
-0.13535284 0.06705489 -0.12374108 0.020427963 0.07757657 -0.058987215 0.023824245 -0.12810378
-0.011467227 0.12640002 -0.1453368 0.1037953 -0.07807669 -0.040437225 0.07675536 -0.022712415
0.16434838 -0.0257377 0.11962285 -0.05509141 0.26026535 -0.060793642 -0.20074347 -0.0661004
-0.0104512945 0.08534402 -0.10295347 0.045573562
00000000: 3251 20be 1b31 e73d 1c82 44be a5d8 ddbd
00000010: 2feb f33c 99fd 04be f2da 04be eac7 9abe
00000020: ebf7 9c3d 5c42 32be 1969 bcbd 2418 dfbd
00000030: 06d9 dc3d 5876 51bd 4142 45be 5260 f83c
00000040: 017f bebd 99c4 e03d 3d53 c03d 6281 9e3d
00000050: 63aa 8fbd e8e5 8d3c 065f 38bd b8e8 453d
00000060: 036e e1bb 5389 933d 021d 653d 769a e83b
00000070: 625b eebd 420a 3a3d 1835 b43d e66e 8ebe
00000080: 5d47 f43d e7f1 313e a7c5 b63d cc71 d43d
00000090: d87c 09be a6e9 a83e 34b9 163c b8c8 4e3e
000000a0: f27d 80be 7d76 8ebd 80df 62be 6229 6b3c
000000b0: 4a77 dabc c435 833d aac1 dd3d a817 153e
000000c0: ae99 383e 54aa 85be 2bec 613d df72 a9bd
000000d0: a524 1c3e 4682 0e3e b45a 6b3c c284 1dbd
000000e0: 603b 433e 7ec9 903c e298 74bc c611 ab3e
000000f0: 0aab 063d b018 b3be 8f83 05bd 143c 073e
00000100: f644 03be 4bc4 e33d ca6c a33d 8b0f e3bd
00000110: ff00 c5bd 36ef b23c d7c1 4ebd 8a3d 85bd
00000120: ef99 0abe 1354 893d f76b fdbd 8b58 a73c
00000130: 77e0 9e3d 949c 71bd 102b c33c a32d 03be
00000140: 09e1 3bbc 026f 013e 2cd3 14be a192 d43d
00000150: ace6 9fbd 81a1 25bd ea31 9d3d 630f babc
00000160: f14a 283e ded7 d2bc d3fc f43d 88a7 61bd
00000170: 8041 853e c102 79bd b28f 4dbe a65f 87bd
00000180: e83b 2bbc d8c8 ae3d 45d9 d2bd 58ab 3a3d

model.all_layers.1.running_var f4 [100]
2.0382946 1.2897638 1.3539009 2.342012 1.587022 1.0136777 1.3660159 1.384281
1.5288321 1.7977813 1.4043691 2.621442 1.0275372 1.8141321 3.0061717 1.1986647
3.8954191 3.3194494 1.5841023 1.0575502 0.9594931 0.8422017 1.5112417 1.5069692
0.8659125 1.3056984 1.6597028 2.7279985 2.547705 1.9924461 3.2427466 1.6765554
1.2528691 2.3047519 1.2827457 1.631729 1.2277493 3.3923547 2.4595745 1.3514873
2.0582082 1.0812618 1.3505793 2.8527389 2.0735347 1.0512431 1.510931 1.6557856
2.1780963 2.7012434 2.5444396 1.1447662 1.7667563 2.1742074 1.4179174 1.7138231
2.0472112 0.8957589 2.7012227 2.3201652 2.8013253 3.2676857 2.8049233 2.0194314
1.5264131 1.4515129 1.6030185 1.2090902 1.9092841 1.9742275 1.1533357 1.2843416
1.1358172 1.2031478 1.7881633 2.5964344 1.8329546 2.0143929 1.2590728 2.433255
2.226241 2.0508657 2.7074525 1.8867123 1.1804676 1.2880006 1.7971029 2.6235533
2.6502197 1.4697545 2.4793313 1.339486 2.8989208 1.3282375 1.6833562 1.6486816
2.3965042 1.1736591 1.35337 1.395275
00000000: 6b73 0240 fb16 a53f a04c ad3f 86e3 1540
00000010: 8923 cb3f 31c0 813f 9cd9 ae3f 1f30 b13f
00000020: c5b0 c33f b31d e63f 5ec2 b33f b5c5 2740
00000030: 5786 833f 7b35 e83f 1e65 4040 d86d 993f
00000040: 8c4e 7940 dc71 5440 ddc3 ca3f ce5d 873f
00000050: 57a1 753f 889a 573f 5e70 c13f 5ee4 c03f
00000060: 71ac 5d3f 2021 a73f 2471 d43f 8797 2e40
00000070: 990d 2340 7908 ff3f 2989 4f40 5e99 d63f
00000080: 045e a03f 0e81 1340 0331 a43f 7fdc d03f
00000090: e426 9d3f 571c 5940 ab69 1d40 89fd ac3f
000000a0: afb9 0340 c966 8a3f c8df ac3f 4693 3640
000000b0: cbb4 0440 228f 863f 3066 c13f c8f0 d33f
000000c0: ee65 0b40 2ce1 2c40 19d8 2240 b387 923f
000000d0: 1225 e23f 3726 0b40 517e b53f 8e5e db3f
000000e0: 8205 0340 7550 653f d5e0 2c40 967d 1440
000000f0: ea48 3340 c321 5140 dd83 3340 5d3e 0140
00000100: 8161 c33f 2dcb b93f b62f cd3f 78c3 9a3f
00000110: 6c63 f43f 7db3 fc3f 81a0 933f 4e65 a43f
00000120: 7562 913f bf00 9a3f 89e2 e43f fb2b 2640
00000130: 429e ea3f d0eb 0040 4c29 a13f 73ba 1b40
00000140: bc7a 0e40 6241 0340 e746 2d40 ca7f f13f
00000150: 9019 973f 34dd a43f 7807 e63f 4ce8 2740
00000160: 339d 2940 ea20 bc3f 5dad 1e40 4774 ab3f
00000170: eb87 3940 b003 aa3f 3778 d73f 0008 d33f
00000180: 5360 1940 763a 963f 3a3b ad3f 5f98 b23f

model.all_layers.3.weight f4 [50, 100]
-0.052963875 0.07869171 -0.09787979 0.053818308 -0.0778258 0.04998342 0.022934567 -0.016047632
0.047723714 -0.06665015 -0.006015697 -0.0032111397 0.07797028 -0.037691712 -0.08594904 0.008759476
-0.08888997 0.035785332 0.0461294 0.018076586 0.10723932 -0.047647048 -0.0634813 -0.028227383
-0.081410505 0.033571612 0.038350962 -0.04206279 -0.037723888 0.045160383 0.07516774 -0.057079602
-0.011157112 -0.012454994 -0.023294926 0.09022113 -0.04132675 0.099917375 -0.041231424 0.08984731
0.023284432 0.07535879 -0.07837239 -0.04091531 -0.0005564637 -0.040946923 0.016705314 -0.024518419
0.071587205 0.09377864 -0.07916186 -0.05023619 -0.083207764 -0.026250891 -0.0035811372 -0.08809038
-0.088687286 0.035493292 0.0072307982 0.016863083 0.024549965 -0.08376189 -0.08414777 -0.06397295
0.08709376 0.011789316 -0.06982542 0.06673255 0.09239485 -0.047554724 -0.021800073 -0.05715041
-0.07297233 0.060350373 0.05980593 -0.031258207 0.09088333 0.08087773 0.006966651 -0.09036242
-0.033130236 -0.08402905 0.083927594 -0.021298096 -0.02910258 -0.053898316 0.018197311 0.099186294
-0.011180212 -0.01943342 -0.0031650602 0.06739626 -0.028000956 0.05835764 0.01700948 0.02970423
0.06715243 0.09068928 0.09737221 -0.0026199152 -0.031175224 0.02392186 0.040414203 -0.08238659
-0.052312378 -0.057391472 -0.035374433 0.060474385 0.09336023 -0.09655466 0.0797799 -0.08823112
0.025212463 0.005892338 -0.080306076 -0.094520174 -0.014883569 -0.028696466 0.07394795 -0.030363994
-0.062123097 0.027276397 0.08044401 -0.08936083 0.055262275 0.013161275 -0.09839774 -0.043970544
-0.008681399 -0.052838653 0.017789448 0.02116028 0.090545 0.06860085 0.09601472 -0.011220605
-0.018115953 -0.022722155 -0.032461893 0.0041632634 0.009350361 -0.03793031 0.016024215 0.019802013
0.035318024 -0.064184226 0.09421621 0.004534982 -0.047571808 0.062068477 -0.051714856 0.047409244
0.04290131 0.005990259 0.017990796 0.073456846 -0.029398603 0.01153152 0.068404794 0.06909704
-0.011308757 -0.06761332 -0.027086394 0.010118514 0.043891255 -0.07776919 -0.059930846 0.04663548
-0.047452465 -0.076555364 -0.021599 0.019981293 0.055770904 0.014242654 -0.07135826 0.013374903
0.078636564 -0.08798283 0.029827371 -0.016297773 0.024306526 0.03418688 -0.08417729 -0.08388959
0.07496588 0.00210659 0.049092904 0.056427464 0.065460905 -0.029016767 0.083437674 0.095442906
-0.09670046 -0.05759913 0.04080881 0.0003759614 -0.024743587 0.009245713 -0.07917706 0.076257244
-0.08363534 -0.02287415 0.059600566 0.012630391 0.06617511 0.06035997 -0.05647093 -0.03200926
-0.087727666 -0.015104771 -0.07736045 -0.039581243 0.09232035 -0.027784301 -0.018469186 -0.030459488
-0.019736782 0.067426495 -0.083016835 0.061361305 -0.007572883 -0.05952429 0.017869046 0.060288895
0.048696805 -0.034241736 -0.050423402 -0.040013034 -0.0047681485 -0.085030444 -0.0010135828 0.013815527
-0.008609041 0.01388995 -0.054950822 -0.013152131 0.08441173 0.055531744 0.03978878 0.01550386
0.03839609 -0.06935578 -0.09709719 -0.03650439 0.09969165 -0.06391548 -0.072125345 0.052339498
-0.004918305 -0.064879425 0.0039742948 0.043169934 -0.0377181 -0.027111568 -0.087083586 0.08170257
00000000: a6f0 58bd 1f29 a13d 3375 c8bd 9670 5c3d
00000010: 2263 9fbd 6abb 4c3d 46e1 bb3c 5376 83bc
00000020: f179 433d e07f 88bd 531f c5bb fc71 52bb
00000030: e2ae 9f3d a062 1abd 0d06 b0bd e883 0f3c
00000040: f20b b6bd a493 123d 2ff2 3c3d 5915 943c
00000050: 4aa0 db3d 8d29 43bd 7c02 82bd 1d3d e7bc
00000060: 8dba a6bd 6382 093d e615 1d3d 084a 2cbd
00000070: 5d84 1abd 18fa 383d 8bf1 993d 4dcc 69bd
00000080: 52cc 36bc 0810 4cbc 00d5 bebc dbc5 b83d
00000090: 3d46 29bd 7ba1 cc3d 48e2 28bd de01 b83d
000000a0: febe be3c b655 9a3d b481 a0bd d096 27bd
000000b0: a6df 11ba f6b7 27bd 95d9 883c dada c8bc
000000c0: 509c 923d 040f c03d 9d1f a2bd 77c4 4dbd
000000d0: d568 aabd 1c0c d7bc 83b1 6abb bb68 b4bd
000000e0: aea1 b5bd 6a61 113d 55f0 ec3b 7324 8a3c
000000f0: 021d c93c 5b8b abbd ab55 acbd 4004 83bd
00000100: 375e b23d fa27 413c a100 8fbd 13ab 883d
00000110: 8339 bd3d bec8 42bd 1196 b2bc 8c16 6abd
00000120: 8472 95bd f431 773d 10f7 743d 9b08 00bd
00000130: 0a21 ba3d 39a3 a53d 8148 e43b ef0f b9bd
00000140: 92b3 07bd 6c17 acbd 3be2 ab3d 5879 aebc
00000150: 8968 eebc 7bc4 5cbd 8712 953c 2f22 cb3d
00000160: 352d 37bc d632 9fbc e66c 4fbb 0d07 8a3d
00000170: 4362 e5bc 6c08 6f3d 7757 8b3c 4956 f33c
00000180: 3787 893d 4dbb b93d 156b c73d e2b2 2bbb
00000190: 2f63 ffbc c7f7 c33c 5d89 253d 4dba a8bd
000001a0: 8145 56bd 5213 6bbd c8e4 10bd fdb3 773d
000001b0: a633 bf3d 73be c5bd a563 a33d 84b2 b4bd
000001c0: 5e8a ce3c 8414 c13b 8377 a4bd cb93 c1bd
000001d0: 37da 73bc da14 ebbc 0672 973d e9bd f8bc
000001e0: ca74 7ebd c072 df3c d4bf a43d d002 b7bd
000001f0: b25a 623d 63a2 573c c184 c9bd 751a 34bd
00000200: 6d3c 0ebc 586d 58bd 2dbb 913c 5358 ad3c
00000210: a86f b93d 9a7e 8c3d 5ea3 c43d a1d6 37bc
00000220: e867 94bc d023 babc c3f6 04bd fc6b 883b
00000230: 4232 193c d05c 1bbd 3745 833c d537 a23c
00000240: a2a9 103d 0573 83bd 6ef4 c03d 309a 943b
00000250: a8da 42bd 843b 7e3d f5d2 53bd 3230 423d
00000260: 49b9 2f3d ef49 c43b 6f61 933c 8b70 963d
00000270: 57d5 f0bc b3ee 3c3c d017 8c3d c082 8d3d
00000280: 5d48 39bc da78 8abd 49e4 ddbc 20c8 253c
00000290: 51c7 333d 7445 9fbd 0c7a 75bd d804 3f3d
000002a0: 845d 42bd 0fc9 9cbd 63f0 b0bc cfaf a33c
000002b0: 0870 643d 055a 693c 4824 92bd 6922 5b3c
000002c0: 350c a13d 5830 b4bd 8858 f43c e882 85bc
000002d0: 7b1e c73c 8b07 0c3d 2565 acbd 4ece abbd
000002e0: b687 993d b70e 0a3b a415 493d 7c20 673d
000002f0: 5e10 863d 92b4 edbc 5fe1 aa3d 9277 c33d
00000300: e40a c6bd 11ed 6bbd 2427 273d af1c c539
00000310: 10b3 cabc 557b 173c 9527 a2bd c22c 9c3d
00000320: 0149 abbd 9262 bbbc b91f 743d b3ef 4e3c
00000330: d186 873d 043c 773d 104e 67bd 241c 03bd
00000340: 90aa b3bd 007a 77bc 286f 9ebd f11f 22bd
00000350: 7412 bd3d e79b e3bc b14c 97bc 2d86 f9bc
00000360: 08af a1bc e716 8a3d bb04 aabd fe55 7b3d
00000370: f225 f8bb becf 73bd 1b62 923c 7df1 763d
00000380: 4d76 473d 1041 0cbd c588 4ebd b5e4 23bd
00000390: 213e 9cbb 7124 aebd 32da 84ba 855a 623c
000003a0: ef0c 0dbc ac92 633c 1d14 61bd 097c 57bc
000003b0: 0fe0 ac3d 4175 633d 8ff9 223d e703 7e3c
000003c0: 3845 1d3d 670a 8ebd e4da c6bd a185 15bd
000003d0: 232b cc3d 1fe6 82bd 74b6 93bd f161 563d
000003e0: bc29 a1bb 81df 84bd cd3a 823b f5d2 303d
000003f0: 4b7e 1abd 1419 debc e158 b2bd ad53 a73d

model.all_layers.3.bias f4 [50]
-0.08645761 -0.00085606426 0.017236851 0.03047987 0.0056844354 -0.043928504 0.01726403 0.062280662
-0.04695461 -0.060365845 -0.08993707 0.040228866 -0.013220586 0.07103733 -0.020354211 0.0055684
-0.08674189 0.037303798 -0.0029202104 0.0892682 0.045742773 0.016121015 0.031673647 0.050400518
-0.008639754 0.012040019 0.0031919703 -0.059396338 -0.05946969 0.021779701 0.07997335 0.06460703
0.056317486 0.035469733 0.05586832 -0.03273829 -0.03180995 0.016840063 -0.017645799 -0.093616724
0.049768798 0.043953188 -0.09180405 0.0778374 -0.0009940634 -0.079422876 -0.05343486 0.012391247
-0.07151739 0.06615914
00000000: b010 b1bd 8069 60ba 4c34 8d3c ecb0 f93c
00000010: 8044 ba3b 60ee 33bd 4c6d 8d3c 021a 7f3d
00000020: 7a53 40bd 2d42 77bd ed30 b8bd 06c7 243d
00000030: 289b 58bc 057c 913d e0bd a6bc 2077 b63b
00000040: bba5 b1bd decb 183d 0061 3fbb 3fd2 b63d
00000050: c65c 3b3d 3810 843c 3abc 013d c670 4e3d
00000060: c18d 0dbc 8043 453c 6030 513b 9349 73bd
00000070: 7d96 73bd 586b b23c 11c9 a33d b150 843d
00000080: 2aad 663d b648 113d 2ed6 643d 9618 06bd
00000090: 264b 02bd 2cf4 893c ec8d 90bc 20ba bfbd
000000a0: 5eda 4b3d 4208 343d c303 bcbd 3769 9f3d
000000b0: 3c4b 82ba 76a8 a2bd 83de 5abd a804 4b3c
000000c0: b677 92bd 717e 873d

model.all_layers.4.weight f4 [50]
1.0136098 1.0000695 0.99992007 0.99535733 1.0002528 1.0018641 1.0026574 1.01267
1.001998 1.0010053 0.9987959 0.9989312 1.0017787 0.99996424 1.0093286 1.0069673
0.99996823 1.0054138 0.99882 0.9995476 0.9925909 0.99746 1.0005354 1.0105345
0.99511355 1.0000026 1.0038261 1.0005046 1.000713 1.0007972 1.0003598 1.0013859
0.995511 1.0000259 1.0035502 0.99990314 1.0020571 0.9981177 0.99777263 1.0002849
1.0013986 0.9978623 1.0078558 1.0033765 1.0004855 1.0099076 0.99909836 1.0068282
0.99850893 1.0095356
00000000: f7bd 813f 4702 803f c3fa 7f3f bdcf 7e3f
00000010: 4908 803f 153d 803f 1457 803f 2c9f 813f
00000020: 7841 803f f120 803f 17b1 7f3f f5b9 7f3f
00000030: 493a 803f a8fd 7f3f ae31 813f 4ee4 803f
00000040: ebfd 7f3f 66b1 803f abb2 7f3f 5ae2 7f3f
00000050: 701a 7e3f 8a59 7f3f 8b11 803f 3259 813f
00000060: c3bf 7e3f 1600 803f 607d 803f 8910 803f
00000070: 5d17 803f 1f1a 803f ca0b 803f 6a2d 803f
00000080: cfd9 7e3f d900 803f 5574 803f a7f9 7f3f
00000090: 6843 803f a484 7f3f 076e 7f3f 5609 803f
000000a0: d42d 803f e773 7f3f 6b01 813f a46e 803f
000000b0: e90f 803f a744 813f e9c4 7f3f bfdf 803f
000000c0: 489e 7f3f 7638 813f

model.all_layers.4.bias f4 [50]
0.00915108 0.00026594716 -0.00041827513 -0.005112743 4.5711757e-05 4.7744423e-05 0.0018152853 0.0064583267
0.0003314668 0.0005948829 0.00019796976 -0.00092819525 0.0020122658 -0.00021585086 0.0029244975 0.004606014
-0.0003902702 0.003999171 -0.0027174961 -0.00083320047 -0.007834195 -0.00624036 0.0005911186 0.0052404124
-0.0063468064 1.0998688e-05 0.0018914798 -0.00026298096 -0.00022920864 0.0008777503 0.00011077866 -0.000583298
-0.002855575 -0.0003179878 -0.0005101988 -0.0011853735 0.0015571471 -0.0016168088 -0.0024394593 0.000248476
0.0009625713 -0.0010551139 0.005259661 0.0058720326 0.0004697596 0.008966084 -0.0024904243 0.0034618482
-0.000953311 0.0072250776
00000000: 69ee 153c d36e 8b39 f04b dbb9 cc88 a7bb
00000010: a0ba 3f38 2f41 4838 deee ed3a 5fa0 d33b
00000020: b9c8 ad39 eaf1 1b3a 1a96 4f39 2152 73ba
00000030: 38e0 033b 0656 62b9 eda8 3f3b 0cee 963b
00000040: 2e9d ccb9 7a0b 833b 0518 32bb 236b 5aba
00000050: ff5a 00bc ef7b ccbb 4cf5 1a3a c4b7 ab3b
00000060: dff8 cfbb 0187 3837 88eb f73a b5e0 89b9
00000070: ba57 70b9 d318 663a d751 e838 77e8 18ba
00000080: 9924 3bbb 9ab7 a6b9 ddbe 05ba 895e 9bba
00000090: 3019 cc3a 1aeb d3ba 56df 1fbb e245 8239
000000a0: 1155 7c3a bf4b 8aba 3c59 ac3b 2e6a c03b
000000b0: 114a f639 7be6 123c 6336 23bb 2de0 623b
000000c0: 9ee7 79ba 58c0 ec3b

model.all_layers.4.running_mean f4 [50]
-0.051117662 0.0004516475 -0.13200608 0.013485949 0.036386617 0.06723126 -0.13488343 0.16362417
0.20535643 0.0047749407 0.024578527 -0.06329272 0.17592137 -0.08240059 -0.009218934 0.033248413
-0.077145725 -0.02148653 0.059925504 0.12799643 0.03971915 -0.017449342 0.042031802 0.16601455
0.025431521 0.050994992 -0.038417384 -0.1850327 -0.17607994 0.0808508 -0.18407089 -0.13111685
0.1362842 -0.0072563197 -0.032955267 -0.091833174 -0.17098036 -0.019111592 -0.034133233 -0.16709982
-0.11185875 0.13054335 -0.13800569 -0.053857893 -0.06788494 -0.06720255 -0.017390765 0.055046163
-0.13343312 0.08292613
00000000: c160 51bd 1acb ec39 9a2c 07be 2bf4 5c3c
00000010: 220a 153d 8bb0 893d e21e 0abe 188d 273e
00000020: f548 523e 1b77 9c3b e858 c93c 9d9f 81bd
00000030: bb24 343e a4c1 a8bd 030b 17bc 7d2f 083d
00000040: 94fe 9dbd 8504 b0bc 7274 753d 7f11 033e
00000050: 8cb0 223d ecf1 8ebc 8a29 2c3d b8ff 293e
00000060: c455 d03c 20e0 503d 8c5b 1dbd 3679 3dbe
00000070: 4d4e 34be 1b95 a53d 147d 3cbe 7f43 06be
00000080: 168e 0b3e 6cc6 edbb 1afc 06bd 0813 bcbd
00000090: 7a15 2fbe ea8f 9cbc 4acf 0bbd 371c 2bbe
000000a0: 3316 e5bd 28ad 053e 5d51 0dbe 189a 5cbd
000000b0: 4207 8bbd 7ea1 89bd 1477 8ebc 1678 613d
000000c0: b1a2 08be 2dd5 a93d

model.all_layers.4.running_var f4 [50]
0.62455916 0.61948234 0.61676353 0.62200594 0.62599564 0.6188906 0.616591 0.6347742
0.6497509 0.62004083 0.65722704 0.65292686 0.6262287 0.61494267 0.6299117 0.6297509
0.64145356 0.64550894 0.6614512 0.6656751 0.6622952 0.6611977 0.61272764 0.6340998
0.6553877 0.6363716 0.63737345 0.6708432 0.6231219 0.6479809 0.6434115 0.62820244
0.6466349 0.63464683 0.64998543 0.6385867 0.6569876 0.6337364 0.6510167 0.615109
0.6272829 0.6178962 0.62187666 0.6318696 0.62868136 0.68297225 0.64047945 0.6589657
0.6313009 0.6224594
00000000: 1ce3 1f3f 6596 1e3f 37e4 1d3f c83b 1f3f
00000010: 4041 203f 9d6f 1e3f e8d8 1d3f 9080 223f
00000020: 1356 263f ffba 1e3f 0840 283f 3726 273f
00000030: 8650 203f e26c 1d3f e541 213f 5b37 213f
00000040: 4d36 243f 1340 253f de54 293f af69 2a3f
00000050: 2e8c 293f 4144 293f b8db 1c3f 5d54 223f
00000060: 7dc7 273f 40e9 223f e82a 233f 61bc 2b3f
00000070: eb84 1f3f 14e2 253f 9eb6 243f e0d1 203f
00000080: dd89 253f 3778 223f 7265 263f 6b7a 233f
00000090: 5730 283f 8c3c 223f 08a9 263f c977 1d3f
000000a0: 9d95 203f 722e 1e3f 4f33 1f3f 35c2 213f
000000b0: 43f1 203f 45d7 2e3f 76f6 233f fab1 283f
000000c0: f09c 213f 8059 1f3f

model.all_layers.6.weight f4 [2, 50]
0.1504729 -0.12839422 0.040546875 -0.10010403 0.0667959 0.12542829 -0.08408302 0.19147684
-0.10448202 0.040368814 -0.053055376 -0.08338596 0.010573335 0.13896024 0.1827787 0.12112292
-0.0067295246 0.1460787 -0.015035834 0.041823328 -0.0638582 0.092437446 -0.06242098 0.0701332
-0.07627552 -0.045503728 0.05708053 -0.032325502 -0.13729602 0.1028733 0.07291608 -0.028526248
-0.11474256 0.015608553 0.1311939 -0.095663145 -0.013610024 0.06168505 0.039883714 -0.12782642
0.016950974 -0.06707078 -0.1607809 -0.16233474 -0.061294448 0.15071815 -0.120839775 -0.16921143
-0.00014884799 0.06789703 -0.15641515 -0.10157977 0.029740287 0.1191827 0.0316462 0.0117462445
0.033079382 -0.12099192 0.059312165 -0.033022795 0.1168861 -0.019675141 -0.08860189 0.10781709
-0.06559985 -0.084976286 0.011896593 -0.064998984 0.086735345 0.049630374 0.060492273 -0.10451722
0.012295374 -0.17187987 0.116975635 -0.035792165 -0.10131679 -0.093476556 -0.07558779 0.024398308
0.13230708 -0.112123325 0.10356108 -0.028568346 -0.08081336 0.10843444 -0.13446365 0.0570537
0.05699685 -0.086153045 -0.06843478 -0.0703914 0.15224244 0.022707738 -0.117658235 -0.13731273
0.122768395 0.06440483 -0.031620745 -0.17878269
00000000: 9115 1a3e c679 03be 7b14 263d 5703 cdbd
00000010: 4acc 883d 4670 003e b833 acbd 8112 443e
00000020: abfa d5bd c559 253d 9850 59bd 42c6 aabd
00000030: c83b 2d3c 984b 0e3e 572a 3b3e 4b0f f83d
00000040: 5883 dcbb a895 153e dc58 76bc f04e 2b3d
00000050: 17c8 82bd d84f bd3d 24ad 7fbd ffa1 8f3d
00000060: 5736 9cbd 1e62 3abd 46cd 693d bf67 04bd
00000070: 5497 0cbe 3daf d23d 0755 953d e1af e9bc
00000080: 26fe eabd 04bb 7f3c b257 063e 0aeb c3bd
00000090: 94fc 5ebc 77a9 7c3d 1b5d 233d eee4 02be
000000a0: c5dc 8a3c 685c 89bd c0a3 24be 143b 26be
000000b0: e30f 7bbd dc55 1a3e d87a f7bd c345 2dbe
000000c0: 1414 1cb9 990d 8b3d 4b2b 20be 0e09 d0bd
000000d0: e7a1 f33c 0f16 f43d 729f 013d 5273 403c
000000e0: 3f7e 073d 9dca f7bd 50f1 723d e942 07bd
000000f0: fb61 ef3d c32d a1bc e874 b5bd 35cf dc3d
00000100: 3759 86bd 0c08 aebd ede9 423c 301e 85bd
00000110: 4da2 b13d 3849 4b3d bfc6 773d 200d d6bd
00000120: 8972 493c 4701 30be ec90 ef3d ce9a 12bd
00000130: 2d7f cfbd a370 bfbd c5cd 9abd f6de c73c
00000140: 827b 073e eaa0 e5bd d517 d43d 2a08 eabc
00000150: 7a81 a5bd e012 de3d d7b0 09be 24b1 693d
00000160: 8775 693d 0271 b0bd 8927 8cbd 5e29 90bd
00000170: 71e5 1b3e 9405 ba3c cdf6 f0bd b59b 0cbe
00000180: ff6d fb3d aee6 833d c184 01bd cf12 37be

model.all_layers.6.bias f4 [2]
-0.030314187 -0.14749835
00000000: 7555 f8bc cf09 17be
