unit06-dl-tips/6.8-debugging/logs/my-model/version_2/checkpoints/epoch=4-step=2250.ckpt (torch, 71730 bytes, 14 tensors)

model.all_layers.0.weight f4 [100, 100]
-0.03437874 -0.013736654 -0.12616916 0.018569274 -0.115774795 0.051715266 -0.049214862 0.005518134
-0.112271294 0.038474105 -0.072361484 0.11103745 -0.021049524 -0.027450694 -0.06856227 -0.02500325
-0.084503174 0.08828044 -0.04517224 0.059005123 0.017120471 0.005480222 -0.030757956 0.07393935
-0.0984241 0.00667821 -0.02693243 -0.018661328 0.11287741 -0.18232325 0.11626462 0.078517504
-0.000767015 -0.00039761257 0.046466183 -0.044762265 -0.0953778 -0.09744242 -0.12015691 0.013465689
0.045152605 -0.030169366 0.06352956 0.11416583 -0.03973225 0.04562132 0.0035364083 0.014787234
0.19285472 0.07801002 0.03718544 0.04520024 -0.0170383 0.10868425 -0.006939064 -0.068707295
-0.028709933 0.031341266 0.102329925 -0.058206026 -0.037550207 0.051577844 -0.097918086 -0.064900234
-0.10290834 0.027482882 -0.07734028 0.036979187 -0.10565176 0.05368294 0.16139048 0.07922975
-0.16852292 -0.17073634 0.025939386 -0.0059307367 -0.01626174 -0.091676794 -0.07470984 0.08567044
0.109939225 -0.036965773 0.03734421 -0.003484724 -0.10830652 -0.08751936 -0.03809663 0.024957983
0.0017057017 -0.02228255 -0.05388387 0.16218455 0.059246175 0.05213023 -0.09183057 -0.005540844
0.07441494 0.034215778 0.0811364 -0.046813145 0.048361536 -0.099839285 -0.0018308157 -0.06218311
-0.030356329 0.024821963 0.08122367 0.089912094 -0.013481358 -0.031435758 0.0659364 -0.09505539
0.06206665 0.00091070984 0.037760843 0.069663644 -0.06514731 -0.013926478 0.08405555 0.12637453
-0.044944026 0.09044222 0.14598195 -0.047382027 0.12418519 -0.1387446 0.011260725 0.054295722
-0.02165381 0.09420103 -0.039851688 0.084978275 0.06662415 -0.03810419 -0.038041934 -0.09458437
0.04130615 0.044724934 0.051123593 -0.032232 0.011010395 0.04263742 -0.0027939563 0.14011803
0.070309006 -0.067336895 -0.08756346 -0.0066522164 -0.09586584 -0.08676085 -0.078737974 0.039777298
0.0523419 0.041221373 -0.088417314 0.028882373 -0.08464369 0.06495277 -0.133162 0.03188355
0.049966924 0.11770972 -0.05868138 0.1206572 0.13465841 0.15459351 0.07078336 0.10501858
0.08571508 0.07271293 -0.05030594 -0.0318598 0.027996825 0.033874538 -0.06457995 0.050639797
-0.12281996 -0.018109024 0.12284222 -0.013976159 -0.028571649 0.048955966 0.055622384 -0.21545766
-0.048033062 0.008080123 -0.08303404 0.09760912 0.09978426 -0.12396783 -0.11035019 -0.09848367
0.11278024 0.058969364 -0.07779121 -0.014111181 0.014280527 -0.08367942 0.09611129 0.026364587
-0.05920998 -0.0063333926 0.116299 -0.014159406 -0.05701101 0.011367629 -0.08982868 -0.008951232
-0.08328056 0.045811094 0.018104997 -0.09470984 0.09565575 -0.088453844 0.05059379 -0.04523393
0.0605631 -0.029462475 0.014391297 0.019022673 -0.06489837 -0.073522374 0.18061586 -0.01232844
0.08760773 -0.16095117 -0.06987439 -0.04341168 -0.021181563 0.036055494 -0.060456358 -0.056598976
-0.046977 0.009601435 -0.022738062 -0.115225054 0.078720294 0.03742379 -0.096676715 0.075008355
0.10802578 -0.11049119 -0.1698005 -0.0075769345 0.09927604 0.028714027 -0.0982265 -0.0065033417
0.005520469 0.061432958 0.049924772 -0.14142387 0.16588093 -0.092234455 -0.014710773 0.004998657
00000000: b9d0 0cbd b40f 61bc 7d32 01be 971e 983c
00000010: 561b edbd 63d3 533d 8695 49bd 77d1 b43b
00000020: 7eee e5bd 0697 1d3d 4232 94bd 9a67 e33d
00000030: 0d70 acbc 47e0 e0bc 606a 8cbd 9ed3 ccbc
00000040: 0010 adbd 60cc b43d 8706 39bd 5baf 713d
00000050: 3b40 8c3c 6f93 b33b 1cf8 fbbc 846d 973d
00000060: 9392 c9bd e3d4 da3b 66a1 dcbc a4df 98bc
00000070: 462c e73d f2b2 3abe 251c ee3d c9cd a03d
00000080: 8111 49ba a876 d0b9 5353 3e3d a358 37bd
00000090: 7055 c3bd e48f c7bd d314 f6bd 319f 5c3c
000000a0: f0f1 383d bf25 f7bc c91b 823d c6cf e93d
000000b0: 49be 22bd 6cdd 3a3d 16c3 673b 2846 723c
000000c0: b57b 453e b8c3 9f3d c34f 183d e323 393d
000000d0: e893 8bbc d995 de3d 1661 e3bb 69b6 8cbd
000000e0: 1831 ebbc b35f 003d 5a92 d13d 7169 6ebd
000000f0: 3fce 19bd 4a43 533d 4789 c8bd 6aea 84bd
00000100: 9cc1 d2bd c823 e13c 9564 9ebd 7d77 173d
00000110: f35f d8bd a4e2 5b3d 8c43 253e 3543 a23d
00000120: 4691 2cbe 82d5 2ebe d67e d43c a056 c2bb
00000130: 5737 85bc 0bc1 bbbd 7901 99bd fc73 af3d
00000140: d127 e13d 6c69 17bd 3ef6 183d f85f 64bb
00000150: cfcf ddbd 5a3d b3bd 360b 1cbd af74 cc3c
00000160: da91 df3a e589 b6bc 55b5 5cbd b513 263e
00000170: 1eac 723d 8286 553d aa11 bcbd f88f b5bb
00000180: dc66 983d d825 0c3d d72a a63d 24bf 3fbd
00000190: bf16 463d 8a78 ccbd fbf7 efba b7b3 7ebd
000001a0: d6ad f8bc 6e57 cb3c 9858 a63d d523 b83d
000001b0: eae0 5cbc c8c2 00bd aa09 873d 66ac c2bd
000001c0: 9939 7e3d b4bc 6e3a 1dab 1a3d d0ab 8e3d
000001d0: f46b 85bd e22b 64bc 5125 ac3d 5368 013e
000001e0: 3a17 38bd c539 b93d 4b7c 153e a813 42bd
000001f0: ce54 fe3d 1013 0ebe e77e 383c 3165 5e3d
00000200: 5563 b1bc 78ec c03d 863b 23bd 1709 ae3d
00000210: 3e72 883d 2413 1cbd dcd1 1bbd 73b5 c1bd
00000220: a330 293d 7e31 373d f966 513d b405 04bd
00000230: f264 343c 93a4 2e3d cf1a 37bb 1a7b 0f3e
00000240: 2bfe 8f3d ede7 89bd 7954 b3bd d6fa d9bb
00000250: 4f55 c4bd acaf b1bd 6041 a1bd 85ed 223d
00000260: 7664 563d bed7 283d 2314 b5bd ba9a ec3c
00000270: ac59 adbd f505 853d 9f5b 08be 5398 023d
00000280: 1eaa 4c3d cb11 f13d e35b 70bd 1f1b f73d
00000290: e5e3 093e c34d 1e3e def6 903d fb13 d73d
000002a0: 638b af3d 84ea 943d 9a0d 4ebd 6c7f 02bd
000002b0: 9959 e53c 07c0 0a3d 7e42 84bd ad6b 4f3d
000002c0: 0889 fbbd 6059 94bc b494 fb3d 42fc 64bc
000002d0: 170f eabc 0d86 483d 4cd4 633d efa0 5cbe
000002e0: 51be 44bd 7e62 043c c00d aabd 4ae7 c73d
000002f0: b15b cc3d d8e2 fdbd 48ff e1bd ceb1 c9bd
00000300: 54f9 e63d dc89 713d ff50 9fbd 9532 67bc
00000310: dff8 693c 1e60 abbd ffd5 c43d 8cfa d73c
00000320: 2a86 72bd 5988 cfbb 2c2e ee3d dafc 67bc
00000330: 6084 69bd 4b3f 3a3c 19f8 b7bd 30a8 12bc
00000340: 008f aabd 6aa4 3b3d ee50 943c 3cf7 c1bd
00000350: 29e7 c33d 4a27 b5bd 6f3b 4f3d 3747 39bd
00000360: 0311 783d 4a5b f1bc 79c9 6b3c 70d5 9b3c
00000370: 70e9 84bd e692 96bd 5df3 383e 3afd 49bc
00000380: ae6b b33d 62d0 24be 4e1a 8fbd 72d0 31bd
00000390: f584 adbc edae 133d 16a1 77bd 54d4 67bd
000003a0: f46a 40bd 564f 1d3c 2c45 babc 1dfb ebbd
000003b0: 1b38 a13d b049 193d 71fe c5bd fb9d 993d
000003c0: 9f3c dd3d 3449 e2bd 2fe0 2dbe ef47 f8bb
000003d0: 3d51 cb3d ae39 eb3c fa2a c9bd fc19 d5bb
000003e0: 0de5 b43b 20a1 7b3d eb7d 4c3d 6bd1 10be
000003f0: b1dc 293e 6be5 bcbd 7405 71bc c6cb a33b

model.all_layers.0.bias f4 [100]
0.014835432 0.06831991 0.029112361 -0.036049746 -0.0115737915 0.05810941 0.03397114 0.0038620678
-0.049154785 0.07830664 -0.086287454 -0.090748765 0.022133395 0.06539672 -0.09435125 0.035291024
-0.049338546 0.07005385 -0.025464952 0.093709014 -0.040897775 -0.004881583 0.0658908 -0.026846707
0.005352676 0.07649804 -0.035308942 -0.078665055 0.008734323 -0.088866465 0.07159061 0.009620294
-0.027133502 -0.014975034 0.08313059 -0.029656217 -0.0009859364 0.014266804 0.009306848 -0.05195383
-0.0063731223 -0.04060818 -0.008555733 -0.07125016 0.03633354 -0.040306795 0.013856515 0.09757077
0.028252758 -0.062812716 -0.077858664 -0.062496543 0.068285264 0.0784462 0.03393314 -0.07774319
0.02693548 0.033362933 -0.018861309 0.02991759 0.08659131 -0.024171695 0.063166596 0.023436867
-0.08877639 -0.007865891 -0.025602773 -0.00948558 -0.0046138316 -0.0748134 0.04901754 -0.06654302
-0.04919356 0.09644974 0.021275386 -0.008679949 0.050122134 0.09734962 -0.05035987 -0.09258522
-0.0147391185 -0.06260194 -0.093927264 -0.033703364 -0.023496628 -0.0010202675 0.04484076 0.06742454
-0.024140395 -0.03032235 -0.061059784 0.07141494 0.038108192 -0.013914362 0.059351765 0.08103419
-0.032623306 0.07361501 -0.035381936 -0.019541822
00000000: 5010 733c 4feb 8b3d 0c7d ee3c e6a8 13bd
00000010: 00a0 3dbc 2204 6e3d 5225 0b3d bf1a 7d3b
00000020: 8756 49bd 3b5f a03d 7ab7 b0bd 7dda b9bd
00000030: 1851 b53c b7ee 853d 3a3b c1bd 528d 103d
00000040: 3717 4abd 6578 8f3d e09b d0bc 83ea bf3d
00000050: 6d84 27bd b0f5 9fbb c1f1 863d a0ed dbbc
00000060: 8065 af3b 01ab 9c3d 1ca0 10bd 251b a1bd
00000070: 681a 0f3c 9fff b5bd 199e 923d 709e 1d3c
00000080: 1447 debc d859 75bc 5f40 aa3d 98f1 f2bc
00000090: 893a 81ba 50bf 693c c07b 183c 8acd 54bd
000000a0: a0d5 d0bb c354 26bd 582d 0cbc 9beb 91bd
000000b0: 7ad2 143d bd18 25bd 7006 633c 2fd3 c73d
000000c0: 5472 e73c f4a3 80bd 5d74 9fbd 60fc 7fbd
000000d0: 25d9 8b3d 67a8 a03d 7afd 0a3d d237 9fbd
000000e0: cca7 dc3c 92a7 083d 0883 9abc bc15 f53c
000000f0: c956 b13d b803 c6bc 7d5d 813d acfe bf3c
00000100: 65d0 b5bd f0df 00bc e8bc d1bc 6869 1bbc
00000110: a02f 97bb c537 99bd 9ec6 483d b547 88bd
00000120: 307f 49bd 7187 c53d b849 ae3c 5836 0ebc
00000130: de4c 4d3d 3d5f c73d 2746 4ebd 529d bdbd
00000140: 587c 71bc 7235 80bd f05c c0bd 8a0c 0abd
00000150: 007c c0bc 7fba 85ba f2aa 373d e115 8a3d
00000160: 14c2 c5bc 9466 f8bc d319 7abd ff41 923d
00000170: 5617 1c3d 10f9 63bc d61a 733d 41f5 a53d
00000180: 04a0 05bd 77c3 963d a6ec 10bd 2c16 a0bc

model.all_layers.1.weight f4 [100]
0.9296038 0.9545582 0.9971951 0.9471729 0.9471466 1.0153391 1.1182162 1.0344695
0.9800674 0.9078278 1.0459867 1.0392448 1.0383303 0.94503164 0.97147316 1.0548465
0.998916 1.0693989 1.0450668 1.1246523 0.9224908 0.9820122 0.96566164 0.962537
0.958565 1.0269557 1.050654 1.0215554 1.0105146 0.95122886 1.0467548 1.0385387
0.98634785 0.9534331 0.97695404 1.0351987 0.99052954 0.9918222 1.018101 1.1050316
0.9416832 0.98223084 1.0767524 0.9553093 1.0096256 0.9740734 1.0000447 1.0099411
0.9311876 1.0342933 0.9239379 1.0081419 0.9822799 0.9771245 0.9896755 0.9647468
0.9760365 1.0503168 0.9485979 0.94976246 0.9645728 0.93385834 1.0340352 1.0292867
1.0345902 1.1135391 0.947663 1.0802193 1.0193219 1.0803697 1.0047361 0.9762384
0.9791078 1.001966 0.9687756 1.0125583 0.9476908 0.94887316 1.0331879 1.0868214
1.0141151 0.96627146 1.0084316 1.1033443 0.95977783 0.95019716 0.99336857 0.9626493
0.9849145 0.9860475 1.0550615 0.95020634 0.9463649 0.96235126 0.99914783 0.98904306
0.932892 1.0553811 1.0088779 1.003371
00000000: 84fa 6d3f ed5d 743f 2e48 7f3f ec79 723f
00000010: 3378 723f a2f6 813f b521 8f3f 7f69 843f
00000020: b2e5 7a3f 6767 683f e4e2 853f f905 853f
00000030: 02e8 843f 98ed 713f 77b2 783f 3605 873f
00000040: f5b8 7f3f 10e2 883f c0c4 853f 9bf4 8f3f
00000050: 5b28 6c3f 2765 7b3f 9a35 773f d368 763f
00000060: 8464 753f 4973 833f d57b 863f 54c2 823f
00000070: 8b58 813f bc83 733f 10fc 853f d6ee 843f
00000080: 4b81 7c3f 3114 743f a919 7a3f 6481 843f
00000090: 5893 7d3f 0fe8 7d3f 2251 823f ad71 8d3f
000000a0: 2612 713f 7b73 7b3f 06d3 893f 268f 743f
000000b0: 693b 813f e05c 793f 7701 803f c045 813f
000000c0: 5062 6e3f b963 843f 3287 6c3f cb0a 813f
000000d0: b276 7b3f d524 7a3f 605b 7d3f a5f9 763f
000000e0: 87dd 793f c870 863f 50d7 723f a223 733f
000000f0: 3eee 763f 5711 6f3f 445b 843f abbf 833f
00000100: 746d 843f 7388 8e3f 0b9a 723f a044 8a3f
00000110: 2479 823f 8e49 8a3f 319b 803f c3ea 793f
00000120: cfa6 7a3f 6c40 803f ad01 783f 839b 813f
00000130: dd9b 723f 5ae9 723f 803f 843f f71c 8b3f
00000140: 86ce 813f 915d 773f 4914 813f 633a 8d3f
00000150: 00b4 753f 1f40 733f 674d 7e3f 2f70 763f
00000160: 5b23 7c3f 9c6d 7c3f 410c 873f b940 733f
00000170: f844 723f a75c 763f 27c8 7f3f ed31 7d3f
00000180: 03d2 6e3f ba16 873f e922 813f 766e 803f

model.all_layers.1.bias f4 [100]
-0.113451675 -0.20632601 0.02073732 -0.04477045 -0.058098845 -0.012558402 -0.08901458 -0.16760717
-0.09056835 -0.07928136 -0.06486836 0.05612269 -0.004486148 -0.031008296 -0.0308312 -0.010821475
-0.096421264 -0.0523852 -0.012589547 -0.041672844 -0.09802437 -0.029886989 0.009650612 -0.03856358
-0.122456476 -0.066945516 -0.083150014 -0.06520293 -0.17059766 -0.015643403 -0.119858295 0.05224987
-0.007634045 0.02360798 0.009439305 -0.043321732 -0.05948064 -0.039905 -0.113094226 0.020694757
-0.0827863 -0.0034390434 -0.051387616 -0.15917857 -0.0071667084 -0.030315926 -0.007191765 0.013558901
-0.09287737 -0.068062685 0.03293165 0.03185908 -0.12270071 -0.06973474 -0.057651192 -0.080813035
-0.19288518 -0.06401499 -0.09113459 -0.10185201 -0.11200017 -0.09397542 0.07084907 -0.0152901085
-0.16229504 -0.046605263 -0.081138454 0.046221334 0.06188919 0.14389826 -0.104561925 -0.15439893
-0.040601812 -0.14384308 -0.020301921 -0.033168685 -0.0811661 -0.08755325 -0.04273106 -0.071788244
-0.14276811 -0.08011504 -0.033208657 0.124964215 -0.09787605 -0.06799115 -0.17018203 0.025454655
-0.15879048 -0.0921617 -0.112254545 -0.07311306 -0.036263485 0.05986267 -0.09822421 -0.06802228
-0.14703819 -0.14817189 0.03030048 -0.14458556
00000000: 5a59 e8bd 2047 53be 50e1 a93c 3861 37bd
00000010: 0ef9 6dbd c1c1 4dbc 474d b6bd 37a1 2bbe
00000020: e67b b9bd 445e a2bd b4d9 84bd e8e0 653d
00000030: 8900 93bb 1c05 febc b691 fcbc 8e4c 31bc
00000040: 8378 c5bd dd91 56bd 6344 4ebc 25b1 2abd
00000050: 00c1 c8bd 8fd5 f4bc 9a1d 1e3c d8f4 1dbd
00000060: 76ca fabd bb1a 89bd 8e4a aabd 1d89 85bd
00000070: 27b1 2ebe 9826 80bc 4478 f5bd f603 563d
00000080: 0327 fabb 8665 c13c 51a7 1a3c 2172 31bd
00000090: f9a1 73bd 6d73 23bd f29d e7bd 0d88 a93c
000000a0: dd8b a9bd 9361 61bb d27b 52bd b5ff 22be
000000b0: b5d6 eabb 1b59 f8bc e6a8 ebbb 2726 5e3c
000000c0: 7e36 bebd 7364 8bbd 56e3 063d ab7e 023d
000000d0: 834a fbbd 16d1 8ebd a823 6cbd 4e81 a5bd
000000e0: b183 45be 4b1a 83bd c6a4 babd c997 d0bd
000000f0: 5860 e5bd 2f76 c0bd 5119 913d 5d83 7abc
00000100: ac30 26be 29e5 3ebd eb2b a6bd 9552 3d3d
00000110: 857f 7d3d 115a 133e 9024 d6bd c11a 1ebe
00000120: 164e 26bd 9a4b 13be 3750 a6bc e3db 07bd
00000130: 6a3a a6bd 1e4f b3bd c406 2fbd b705 93bd
00000140: ce31 12be 5b13 a4bd cd05 08bd 3ded ff3d
00000150: 3d73 c8bd f23e 8bbd 3344 2ebe 4886 d03c
00000160: f999 22be 46bf bcbd b6e5 e5bd 4dbc 95bd
00000170: 0589 14bd 8f32 753d c629 c9bd 444f 8bbd
00000180: 2e91 16be 5fba 17be b638 f83c 3d0e 14be

model.all_layers.1.running_mean f4 [100]
0.22446263 -0.17697746 -0.12012421 -1.1103697 -0.17937273 0.35482764 -0.3251688 -0.088454455
-0.33510363 -0.66523534 0.86578804 0.49446353 -0.16482732 -1.147126 -1.3792013 -0.28104258
0.22236457 0.7139613 0.0292221 -0.2564015 0.6793665 0.40963447 0.041289397 0.7741985
-0.504245 -0.37028798 0.28631085 -0.123780884 -0.18224409 -0.25372228 0.033918284 -0.15494624
-0.20513506 -0.00020006715 -0.038856305 -0.4586782 0.5237894 -0.16973343 0.7425211 0.68061787
-0.65050864 0.17209199 -0.47677067 -1.2495525 0.79357225 1.2147872 -0.67984545 1.4388232
-0.58585334 -0.30391788 0.27883923 0.18985994 0.21553761 0.7409317 1.2051954 -1.2981312
0.18302873 0.23910858 -0.2014992 -0.12034571 -0.13349533 -0.05109627 -0.73887104 0.86670214
-0.50510037 -0.4647081 -0.22357227 0.99834543 -0.6441604 -0.2801979 0.5055326 1.4230968
0.4258068 0.06799234 -0.3177006 0.17134821 -0.17725107 0.38143376 -0.0089729605 -1.1438704
-0.8471464 -0.58570117 -0.70986086 -0.49894285 0.02932932 -0.5597939 -0.17853089 0.29842454
-0.14909355 0.8031819 0.7967038 0.7778569 0.16287683 -0.083476275 -0.5131859 1.056096
-0.023480896 0.026967093 0.2010034 -0.7804813
00000000: 88d9 653e 9439 35be af03 f6bd 9820 8ebf
00000010: 7cad 37be f8ab b53e 867c a6be 9c27 b5bd
00000020: b492 abbe dd4c 2abf 49a4 5d3f 532a fd3e
00000030: 7ec8 28be 06d5 92bf ab89 b0bf d0e4 8fbe
00000040: 8ab3 633e 2bc6 363f 2f63 ef3c 0f47 83be
00000050: f7ea 2d3f 9cbb d13e 121f 293d df31 463f
00000060: 3316 01bf 6396 bdbe 5697 923e d580 fdbd
00000070: 329e 3abe e3e7 81be e6ed 0a3d 3aaa 1ebe
00000080: ed0e 52be 1ec9 51b9 ca27 1fbd ded7 eabe
00000090: 1017 063f 9ace 2dbe dd15 3e3f f93c 2e3f
000000a0: bc87 26bf e238 303e 491b f4be 56f1 9fbf
000000b0: 8d27 4b3f 267e 9b3f 5a0a 2ebf 5c2b b83f
000000c0: 7cfa 15bf 209b 9bbe 04c4 8e3e a56a 423e
000000d0: e4b5 5c3e b3ad 3d3f d843 9a3f 2a29 a6bf
000000e0: e26b 3b3e e1d8 743e ce55 4ebe d077 f6bd
000000f0: 00b3 08be 534a 51bd a726 3dbf 31e0 5d3f
00000100: 424e 01bf 38ee edbe 21f0 64be 9193 7f3f
00000110: b2e7 24bf 1976 8fbe 966a 013f 0928 b63f
00000120: 5903 da3e 913f 8b3d a7a9 a2be e875 2f3e
00000130: 4e81 35be 494b c33e 5303 13bc 586a 92bf
00000140: 96de 58bf 83f0 15bf 71b9 35bf 7075 ffbe
00000150: 0b44 f03c a74e 0fbf cdd0 36be 1acb 983e
00000160: fbab 18be 549d 4d3f c8f4 4b3f a121 473f
00000170: 2fc9 263e 9cf5 aabd 2760 03bf 272e 873f
00000180: 025b c0bc 18ea dc3c d6d3 4d3e 9fcd 47bf

model.all_layers.1.running_var f4 [100]
22.987202 15.790843 21.40641 20.747673 17.065676 31.027857 36.33554 32.033638
23.138897 16.821646 34.596416 32.04929 23.085587 20.168581 30.996466 19.001657
25.255028 35.519268 30.624119 40.48024 23.56584 20.973162 23.777573 20.13054
17.39386 48.08445 22.00812 24.05535 25.804516 24.197466 22.050463 39.375374
21.683586 29.991493 26.743795 24.010492 17.337482 24.540272 21.392708 41.666134
26.478907 23.568605 30.952154 38.680813 45.018456 32.47337 27.247253 25.225676
21.702976 31.498978 18.384472 31.735308 24.768955 20.320541 38.76107 29.80956
29.759003 35.480434 16.726225 20.317278 25.278337 21.413477 36.518314 22.494574
18.09098 35.514305 26.372892 41.262173 18.840944 34.994946 17.830471 26.049522
24.99333 18.56918 19.181793 18.557014 27.778887 27.251434 25.146097 31.672066
37.325195 17.044928 16.992355 48.152 23.186857 24.058346 46.27358 13.256869
40.583656 26.966011 25.506487 15.217395 19.746525 25.60083 27.311995 36.454838
25.363724 53.20344 23.780575 31.336668
00000000: cae5 b741 4ba7 7c41 5440 ab41 3cfb a541
00000010: 8186 8841 0d39 f841 9857 1142 7222 0042
00000020: 761c b941 bb92 8641 bb62 0a42 7932 0042
00000030: 48af b841 4159 a141 c3f8 f741 6503 9841
00000040: 4c0a ca41 bb13 0e42 32fe f441 c4eb 2142
00000050: d786 bc41 09c9 a741 7838 be41 590b a141
00000060: a026 8b41 7a56 4042 a110 b041 5b71 c041
00000070: a66f ce41 6994 c141 5967 b041 6280 1d42
00000080: fc77 ad41 94ee ef41 4bf3 d541 7d15 c041
00000090: 2ab3 8a41 7a52 c441 4424 ab41 1faa 2642
000000a0: cdd4 d341 818c bc41 039e f741 27b9 1a42
000000b0: e612 3442 bbe4 0142 60fa d941 2fce c941
000000c0: b29f ad41 e8fd fb41 6613 9341 e9e1 fd41
000000d0: d226 c641 7890 a241 560b 1b42 fb79 ee41
000000e0: 7012 ee41 f7eb 0d42 4fcf 8541 c989 a241
000000f0: 093a ca41 cd4e ab41 c112 1242 e3f4 b341
00000100: 54ba 9041 a60e 0e42 affb d241 770c 2542
00000110: 41ba 9641 d3fa 0b42 cea4 8e41 6c65 d041
00000120: 57f2 c741 ae8d 9441 5074 9941 c474 9441
00000130: 293b de41 f002 da41 352b c941 6460 fd41
00000140: 004d 1542 035c 8841 58f0 8741 a69b 4042
00000150: af7e b941 7e77 c041 2518 3942 231c 5441
00000160: aa55 2242 64ba d741 490d cc41 737a 7341
00000170: e2f8 9d41 80ce cc41 f77e da41 c1d1 1142
00000180: e8e8 ca41 53d0 5442 9e3e be41 7fb1 fa41

model.all_layers.3.weight f4 [50, 100]
-0.16987689 0.16458552 -0.12060225 0.06156161 -0.049059782 -0.048850235 0.117723465 0.025259204
-0.037750967 -0.087024204 -0.008191563 -0.15785898 0.13900149 -0.009927848 -0.110251404 0.048005495
-0.1714961 -0.010287109 0.0781391 0.040714413 0.05854026 -0.14067699 -0.15030159 -0.056882795
-0.15122639 -0.05488803 0.13153966 -0.18052885 -0.0930692 -0.008598231 0.17117901 -0.21447814
0.05080931 0.04009466 -0.028111434 0.10214931 -0.13121918 0.13857467 -0.106026135 0.16543177
-0.0020907447 0.0955788 0.0065883514 0.014098169 0.02133567 -0.12253673 -0.034952875 -0.058293547
0.023975901 0.12617233 -0.1284565 -0.091986805 -0.11648582 -0.06380089 -0.030135296 -0.031221338
-0.085277684 -0.018868644 0.012849846 -0.012603184 0.026792195 -0.13350949 -0.007934592 -0.18525492
0.23227508 0.104209304 -0.16267763 0.065319575 0.19944993 0.0001887263 -0.040050615 -0.14289312
-0.09207904 0.12997964 0.03881732 -0.0028955666 0.03320859 0.058782768 0.09048181 0.012878895
0.02085776 -0.08588881 0.16282223 -0.027198799 -0.0058777076 -0.12119745 0.020501629 0.05436637
0.04062621 -0.049991798 0.07482128 0.0023935668 -0.013385296 0.059865348 0.08641805 -0.011767731
0.11172872 0.10684912 0.09372656 -0.052404642 -0.034919202 0.034658182 0.07918511 -0.11053182
-0.066150546 -0.10907283 -0.19386555 0.010962466 0.089701936 -0.1605051 0.08555393 -0.14530024
0.04718561 -0.050545387 -0.086295694 -0.19161116 -0.056105494 -0.08851297 0.043892838 -0.033035893
-0.10745692 0.03700242 0.10655619 -0.08803613 0.03475799 -0.051291503 -0.1935447 -0.065487035
0.022068035 -0.023688477 -0.004528308 0.033666186 0.039984778 0.08894573 0.10945163 0.0024443807
-0.121787906 -0.08713347 0.010765599 0.056176748 0.010402833 0.009846412 0.036643244 0.06416934
0.05844665 -0.15213871 0.094329365 -0.0563353 -0.054324187 0.03343005 -0.043905806 0.11615028
0.04082616 0.009118645 0.015789255 0.033776555 -0.017520472 0.10662581 0.076300316 0.075704075
0.039237395 -0.17936528 -0.08189254 -0.046763554 0.039735526 -0.061926838 -0.07787605 0.088414006
-0.021678187 -0.013584877 0.045720793 0.029141018 0.084870435 -0.015606454 -0.057893418 0.1351784
0.14545855 -0.014895881 -0.003656281 -0.03548642 0.030256916 0.015112434 -0.090018354 -0.052574225
0.07178859 -0.032987602 0.05242721 0.08026314 0.1562776 -0.03639787 0.04048973 0.062645026
-0.11659174 0.00219116 0.07824575 0.007954805 -0.046294846 0.04357215 -0.066111155 0.10292587
-0.095437564 -0.065404944 0.089584574 -0.011907098 0.004560213 0.111269176 -0.039873056 -0.08235045
-0.037736204 -0.027408507 -0.19359317 -0.018460521 0.060436856 -0.013234801 -0.0008491597 -0.074691944
-0.012229042 0.11013862 -0.21734233 0.07274397 0.011657984 -0.07956109 -0.02791051 0.0721258
-0.033188246 -0.0058226553 -0.14390634 -0.10363853 0.010249569 -0.07198594 -0.057256464 0.050003227
-0.037393823 -0.03185788 -0.15616684 -0.05230274 0.12634231 -0.07318487 0.0414275 0.046682417
0.04469369 -0.061800927 -0.094013296 -0.061673746 0.056036096 -0.011978973 -0.16167592 0.041678634
-0.039912526 -0.05237221 0.018912202 0.12036017 0.008643023 0.028049933 -0.15228109 0.09817168
00000000: 35f4 2dbe 1b89 283e 50fe f6bd 0728 7c3d
00000010: e9f2 48bd 2f17 48bd 0019 f13d 64ec ce3c
00000020: c2a0 1abd bf39 b2bd e835 06bc c9a5 21be
00000030: 6856 0e3e 6aa8 22bc 7dcb e1bd 69a1 443d
00000040: ac9c 2fbe 438b 28bc 6407 a03d 28c4 263d
00000050: e9c7 6f3d a10d 10be a9e8 19be effd 68bd
00000060: 17db 1abe 45d2 60bd 55b2 063e 8edc 38be
00000070: 119b bebd 98df 0cbc 8d49 2f3e 28a0 5bbe
00000080: 6c1d 503d 4c3a 243d f349 e6bc a833 d13d
00000090: 525e 06be 85e6 0d3e 3b24 d9bd f266 293e
000000a0: e004 09bb d1be c33d 19e3 d73b 02fc 663c
000000b0: 25c8 ae3c 89f4 fabd bf2a 0fbd 37c5 6ebd
000000c0: 1c69 c43c 5233 013e 1a8a 03be 9463 bcbd
000000d0: 1e90 eebd 0baa 82bd 4cde f6bc e4c3 ffbc
000000e0: 11a6 aebd 6a92 9abc 2988 523c 967d 4ebc
000000f0: 4e7b db3c b6b6 08be 1700 02bc 77b3 3dbe
00000100: 85d9 6d3e b06b d53d f794 26be 45c6 853d
00000110: 9a3c 4c3e d5e4 4539 1d0c 24bd 9352 12be
00000120: f093 bcbd 6219 053e e9fe 1e3d 8cc3 3dbb
00000130: bb05 083d 33c6 703d 874e b93d 0002 533c
00000140: e5dd aa3c 79e6 afbd dfba 263e 04d0 debc
00000150: c999 c0bb 5e36 f8bd 08f3 a73c 45af 5e3d
00000160: ab67 263d 33c4 4cbd e63b 993d 63dd 1c3b
00000170: 004e 5bbc 5e35 753d f2fb b03d 71cd 40bc
00000180: 07d2 e43d b6d3 da3d b6f3 bf3d 40a6 56bd
00000190: 7007 0fbd bdf5 0d3d ce2b a23d 825e e2bd
000001a0: f079 87bd 9361 dfbd b184 46be ea9b 333c
000001b0: a6b5 b73d 735b 24be e636 af3d 96c9 14be
000001c0: b345 413d ae08 4fbd ccbb b0bd b735 44be
000001d0: e0ce 65bd 4a46 b5bd fac8 333d a550 07bd
000001e0: 6012 dcbd d98f 173d 223a da3d 494c b4bd
000001f0: 655e 0e3d 0a17 52bd 9530 46be 111e 86bd
00000200: 06c8 b43c 560e c2bc 3362 94bb 8ee5 093d
00000210: 14c7 233d 2e29 b63d 2d28 e03d e731 203b
00000220: f06b f9bd 0873 b2bd 3262 303c 9719 663d
00000230: a570 2a3c d852 213c 3a17 163d 376b 833d
00000240: c165 6f3d 40ca 1bbe c12f c13d d8bf 66bd
00000250: 0a83 5ebd f3ed 083d 93d6 33bd 33e0 ed3d
00000260: 5539 273d 5f66 153c 7858 813c 4959 0a3d
00000270: 1887 8fbc a25e da3d 5743 9c3d bd0a 9b3d
00000280: 64b7 203d 88ab 37be 47b7 a7bd 248b 3fbd
00000290: b8c1 223d ffa6 7dbd 7a7d 9fbd 6712 b53d
000002a0: 7496 b1bc 1b93 5ebc ba45 3b3d 25b9 ee3c
000002b0: 8dd0 ad3d 36b2 7fbc a621 6dbd 356c 0a3e
000002c0: 16f3 143e da0d 74bc 379e 6fbb 355a 11bd
000002d0: 5add f73c 249a 773c 8b5b b8bd 1258 57bd
000002e0: e505 933d 021e 07bd eabd 563d 0061 a43d
000002f0: 3c07 203e ef15 15bd 8fd8 253d 094c 803d
00000300: a6c7 eebd 9199 0f3b 4f3f a03d df54 023c
00000310: aa9f 3dbd b678 323d 4965 87bd ccca d23d
00000320: c574 c3bd 07f3 85bd 1e78 b73d fd15 43bc
00000330: d76d 953b 18e1 e33d ee51 23bd 5aa7 a8bd
00000340: 4791 1abd ce87 e0bc 4a3d 46be 853a 97bc
00000350: a38c 773d c7d6 58bc 259a 5eba 17f8 98bd
00000360: 525c 48bc 5b90 e13d fd8e 5ebe cafa 943d
00000370: 2101 3f3c edf0 a2bd 95a4 e4bc b1b6 933d
00000380: 66f0 07bd f9cb bebb 2f5c 13be 7040 d4bd
00000390: cfed 273c 5d6d 93bd c185 6abd 2fd0 4c3d
000003a0: 442a 19bd 697d 02bd 33ea 1fbe 663b 56bd
000003b0: e15f 013e f3e1 95bd e2af 293d 1036 3f3d
000003c0: bb10 373d f822 7dbd 0b8a c0bd 9c9d 7cbd
000003d0: 1b86 653d 7443 44bc 5f8e 25be 37b7 2a3d
000003e0: 517b 23bd 3e84 56bd c3ed 9a3c 657f f63d
000003f0: 779b 0d3c f9c8 e53c 93ef 1bbe 3c0e c93d

model.all_layers.3.bias f4 [50]
-0.08645761 -0.00085606135 0.017236853 0.030479865 0.0056844363 -0.043928504 0.017264025 0.062280662
-0.04695461 -0.06036584 -0.08993707 0.040228866 -0.013220574 0.07103733 -0.020354213 0.005568414
-0.08674189 0.037303798 -0.002920213 0.0892682 0.045742765 0.016121073 0.031673647 0.050400518
-0.008639751 0.012040061 0.0031919538 -0.059396338 -0.059469692 0.021779701 0.07997335 0.06460703
0.056317486 0.035469733 0.055868316 -0.032738294 -0.03180995 0.016840063 -0.017645799 -0.093616724
0.049768798 0.043953184 -0.09180405 0.0778374 -0.0009940834 -0.079422876 -0.05343486 0.012391254
-0.07151739 0.06615914
00000000: b010 b1bd 4e69 60ba 4d34 8d3c e9b0 f93c
00000010: 8244 ba3b 60ee 33bd 496d 8d3c 021a 7f3d
00000020: 7a53 40bd 2c42 77bd ed30 b8bd 06c7 243d
00000030: 1b9b 58bc 057c 913d e1bd a6bc 3e77 b63b
00000040: bba5 b1bd decb 183d 0b61 3fbb 3fd2 b63d
00000050: c45c 3b3d 5710 843c 3abc 013d c670 4e3d
00000060: be8d 0dbc ad43 453c 1930 513b 9349 73bd
00000070: 7e96 73bd 586b b23c 11c9 a33d b150 843d
00000080: 2aad 663d b648 113d 2dd6 643d 9718 06bd
00000090: 264b 02bd 2cf4 893c ec8d 90bc 20ba bfbd
000000a0: 5eda 4b3d 4108 343d c303 bcbd 3769 9f3d
000000b0: e74b 82ba 76a8 a2bd 83de 5abd b004 4b3c
000000c0: b677 92bd 717e 873d

model.all_layers.4.weight f4 [50]
0.947309 0.892221 0.91542685 0.8844556 0.8933964 1.1022123 0.9175414 0.974352
0.96115315 0.9444549 1.0717777 0.88417345 0.915386 0.9728844 0.9325323 1.0408285
0.9789194 0.94611686 0.9531817 1.0161818 1.1042339 1.1418595 0.88497305 0.89257026
0.93958944 1.0084941 0.89293396 0.9119706 0.9294389 0.88945234 0.9248611 0.8923443
0.89721686 0.9550096 0.9521267 0.9620609 0.9264381 0.9727218 0.88795257 0.93493986
0.88433486 1.006022 1.0360389 0.87918484 0.94406116 1.0173807 0.9287343 0.9198247
0.9306086 0.98779166
00000000: d882 723f 9868 643f 6a59 6a3f af6b 623f
00000010: a0b5 643f 4b15 8d3f fee3 6a3f 226f 793f
00000020: 220e 763f ccc7 713f 0330 893f 3159 623f
00000030: bd56 6a3f f40e 793f 70ba 6e3f de39 853f
00000040: 769a 7a3f b734 723f b703 743f 3f12 823f
00000050: 8957 8d3f 7428 923f 988d 623f 7c7f 643f
00000060: ef88 703f 5616 813f 5297 643f e876 693f
00000070: b5ef 6d3f 26b3 633f b2c3 6c3f ad70 643f
00000080: 01b0 653f 827b 743f 93be 733f a049 763f
00000090: 0c2b 6d3f 4c04 793f dc50 633f 3858 6f3f
000000a0: c563 623f 54c5 803f ec9c 843f 4212 613f
000000b0: fead 713f 8839 823f 88c1 6d3f a279 6b3f
000000c0: 5d3c 6e3f eadf 7c3f

model.all_layers.4.bias f4 [50]
-0.14038733 -0.08958985 -0.120739646 -0.1294236 -0.07992883 -0.03710508 -0.14973219 -0.13348496
-0.09477438 -0.10317297 -0.3081113 -0.15788841 0.055228394 -0.1632715 -0.08325177 -0.14547506
-0.18338566 -0.09538886 -0.15156396 -0.33452174 -0.17597453 -0.070091404 -0.13013981 -0.17054945
-0.21219671 -0.18899293 -0.16286145 -0.29461446 -0.19171605 -0.10923553 -0.21423338 -0.1519157
-0.2001387 -0.06636623 -0.11097834 -0.24299394 -0.13827997 -0.33223605 -0.1109038 -0.17136657
-0.11629539 -0.21323715 -0.11249046 -0.12325951 -0.15134405 -0.043663125 -0.105046265 -0.2112651
-0.18815897 -0.10673691
00000000: b2c1 0fbe e27a b7bd 5946 f7bd 9f87 04be
00000010: bab1 a3bd 7ffb 17bd 6553 19be 48b0 08be
00000020: 1219 c2bd 5a4c d3bd c4c0 9dbe 80ad 21be
00000030: 2b37 623d a530 27be e77f aabd 6af7 14be
00000040: 73c9 3bbe 3c5b c3bd 9533 1bbe 6f46 abbe
00000050: ab32 34be 158c 8fbd 5f43 05be 84a4 2ebe
00000060: 184a 59be 5d87 41be 27c5 26be b5d7 96be
00000070: 3651 44be e1b6 dfbd ff5f 5bbe ca8f 1bbe
00000080: 29f1 4cbe 05eb 87bd 9d48 e3bd 67d3 78be
00000090: 4499 0dbe d81a aabe 8821 e3bd b87a 2fbe
000000a0: 472c eebd d75a 5abe 6661 e6bd 7b6f fcbd
000000b0: eff9 1abe 1bd8 32bd 7f22 d7bd e155 58be
000000c0: bfac 40be e298 dabd

model.all_layers.4.running_mean f4 [50]
-0.29088667 -0.19244899 -0.7898695 0.019454729 -0.10216955 0.079223186 0.024419308 0.8577121
-0.5206676 -0.26766056 -0.67526877 -0.0579715 0.6316096 -0.49154177 -0.6109962 0.35104
-0.63722974 -0.24670841 0.25943634 0.57920027 -0.2929232 -0.6156502 -0.24114797 0.5200851
0.2434217 -0.12079821 -0.07121278 -0.7139708 -0.76048386 0.28603253 -0.55587554 -0.06094832
0.12652244 -0.47548547 -0.32319587 -0.6254494 -0.2563799 -0.97835773 -0.28671658 -0.81481004
-0.13010077 -0.1488843 -0.4544369 -0.45665208 -0.2019987 -0.59257233 0.12527455 -0.27016705
-0.5753617 0.30589494
00000000: 19ef 94be 5911 45be e334 4abf 865f 9f3c
00000010: 453e d1bd c43f a23d 000b c83c 0593 5b3f
00000020: 794a 05bf ce0a 89be 6ade 2cbf 8673 6dbd
00000030: 2bb1 213f 5dab fbbe 3f6a 1cbf 84bb b33e
00000040: 7d21 23bf 21a1 7cbe d7d4 843e 7846 143f
00000050: 08fa 95be 409b 1dbf 7eef 76be 4c24 053f
00000060: 8a43 793e 0d65 f7bd 02d8 91bd cac6 36bf
00000070: 12af 42bf db72 923e dc4d 0ebf f2a4 79bd
00000080: 198f 013e d572 f3be ee79 a5be 741d 20bf
00000090: 3a44 83be a775 7abf 84cc 92be 6497 50bf
000000a0: 2339 05be 2075 18be f4ab e8be 4dce e9be
000000b0: bfd8 4ebe d2b2 17bf f947 003e 5653 8abe
000000c0: e84a 13bf 439e 9c3e

model.all_layers.4.running_var f4 [50]
0.903061 0.43407086 0.5059267 0.59808403 0.23593771 1.6852001 0.70551383 1.2162397
1.0669452 0.9338997 1.0653498 0.2784752 0.8842399 0.7483355 0.9898117 1.2925857
1.223344 0.77961195 0.82301855 0.85611033 1.3345712 2.290465 0.32877702 0.41827765
0.69934607 1.2261406 0.42209196 0.60338163 0.5140682 0.3033442 0.7850504 0.3465801
0.4415082 0.8802883 0.58706826 1.1789622 0.30317575 0.8084779 0.12721878 0.46444815
0.15276013 0.8747803 1.7825925 0.30955887 0.62245715 1.6827089 0.9295198 0.38892868
0.41824132 0.68681824
00000000: 012f 673f 893e de3e 6a84 013f 091c 193f
00000010: a899 713e a3b4 d73f 8e9c 343f bead 9b3f
00000020: a991 883f 0d14 6f3f 625d 883f 4d94 8e3e
00000030: 8c5d 623f ea92 3f3f 4d64 7d3f 7373 a53f
00000040: 8996 9c3f a694 473f 58b1 523f 0c2a 5b3f
00000050: 3bd3 aa3f fb96 1240 7655 a83e 7d28 d63e
00000060: 5808 333f 2df2 9c3f 701c d83e 3877 1a3f
00000070: f999 033f ee4f 9b3e 10f9 483f f272 b13e
00000080: 5d0d e23e 935a 613f 1b4a 163f 3ce8 963f
00000090: da39 9b3e 68f8 4e3f a445 023e 26cc ed3e
000000a0: 276d 1c3e 9af1 5f3f fe2b e43f 807e 9e3e
000000b0: 5a59 1f3f 0163 d73f 02f5 6d3f a921 c73e
000000c0: ba23 d63e 52d3 2f3f

model.all_layers.6.weight f4 [2, 50]
0.2217996 -0.0046462235 -0.11131378 -0.094271064 0.124234684 -0.36521998 -0.21037294 0.32065302
-0.27712327 -0.22299822 -0.41282505 0.025674442 0.16995409 0.38383275 0.2483522 0.37088576
-0.28389728 0.25002939 -0.2185558 0.434513 -0.45159444 0.46259975 -0.086843796 0.10779612
-0.21495996 0.3170835 -0.15897085 -0.255462 -0.30957833 -0.019812616 -0.09720125 0.05537666
-0.1875394 0.21899441 0.25600606 -0.28559935 0.11076113 -0.2566694 0.06163317 -0.32607913
-0.07572629 -0.39518642 -0.35993177 -0.10431535 0.13022757 0.32609284 -0.22150475 -0.25674978
0.18413287 0.2270344 -0.22774202 -0.22532795 0.18160129 0.113349825 -0.025792625 0.5023945
0.15936926 -0.2501678 0.23195398 0.23034433 0.47665593 -0.12873575 -0.2479821 -0.13705568
-0.13117386 -0.33473903 0.28906438 -0.16894959 0.29025474 -0.34305915 0.44822878 -0.4746796
0.036718134 -0.20954295 0.25566 -0.39837885 0.114734285 0.12966022 0.09669436 0.14708385
0.30242383 -0.19602616 0.17635821 -0.23195419 -0.20562574 0.29837057 -0.25883478 0.37540808
0.035247345 0.11209886 0.024242429 0.25772458 0.35139337 -0.035311703 -0.30918053 -0.31268728
0.22343355 0.15194243 -0.21590225 -0.33792028
00000000: 6f1f 633e 593f 98bb 7bf8 e3bd 3011 c1bd
00000010: c16e fe3d 1dfe babe 016c 57be a22c a43e
00000020: 1ae3 8dbe a559 64be ce5d d3be 3553 d23c
00000030: 7208 2e3e ba85 c43e 0a50 7e3e bde4 bd3e
00000040: fc5a 91be da03 803e 17cd 5fbe 7d78 de3e
00000050: 6337 e7be e0d9 ec3e 29db b1bd 36c4 dc3d
00000060: 771e 5cbe c558 a23e 41c9 22be eacb 82be
00000070: 0d81 9ebe 114e a2bc 7311 c7bd a3d2 623d
00000080: 540a 40be 1240 603e 3a13 833e 143a 92be
00000090: bbd6 e23d 2c6a 83be 1073 7c3d d8f3 a6be
000000a0: 6316 9bbd e055 cabe fa48 b8be 49a3 d5bd
000000b0: 605a 053e a4f5 a63e 24d2 62be b574 83be
000000c0: 548d 3c3e b57b 683e 3435 69be 5fbc 66be
000000d0: b0f5 393e f423 e83d 0e4b d3bc ed9c 003f
000000e0: b231 233e fe15 80be 5885 6d3e 62df 6b3e
000000f0: 3f0c f43e 4ed3 03be 05ef 7dbe 5358 0cbe
00000100: 7152 06be ea62 abbe 3f00 943e 1f01 2dbe
00000110: 459c 943e 73a5 afbe 3e7e e53e 3409 f3be
00000120: c165 163d 6d92 56be dee5 823e 50f8 cbbe
00000130: cff9 ea3d a6c5 043e b107 c63d 269d 163e
00000140: 4cd7 9a3e 15bb 48be 3f97 343e 6685 6dbe
00000150: 8e8f 52be 07c4 983e fe85 84be 7d35 c03e
00000160: 855f 103d 1694 e53d 0f98 c63c 7af4 833e
00000170: d5e9 b33e 01a3 10bd e94c 9ebe 8c18 a0be
00000180: c4cb 643e cc96 1b3e 7b15 5dbe e303 adbe

model.all_layers.6.bias f4 [2]
0.18085834 -0.3586709
00000000: ee32 393e b6a3 b7be
