unit06-dl-tips/6.8-debugging/logs/my-model/version_4/checkpoints/epoch=4-step=500.ckpt (torch, 71666 bytes, 14 tensors)

model.all_layers.0.weight f4 [100, 100]
-0.051183093 0.038385484 -0.064156346 0.049626917 -0.10222377 0.07410346 -0.033836428 -0.08362991
-0.003438848 0.038734626 -0.052060056 0.06677322 -0.12322444 -0.059410553 -0.037022922 -0.017305797
-0.110861644 0.029886333 -0.02278413 0.030039497 0.08604207 0.0076485276 -0.028372217 0.086005
-0.035743497 0.045488425 -0.027684228 0.038306024 0.09286047 -0.1253563 0.06450578 0.054366883
0.039577927 0.05728143 0.06674957 -0.025353443 -0.10925312 -0.037728712 -0.06527353 -0.0054792934
-0.057022203 -0.014790909 0.024608133 0.08821527 -0.008192878 0.018847452 0.008660149 -0.020528218
0.10576699 0.10811952 0.012403981 0.060578633 -0.0058995304 0.03681083 -0.0071060634 -0.12584728
-0.07251089 0.062314313 0.0075651845 -0.11660002 0.02513016 0.1065137 -0.088845454 -0.060677562
-0.09658205 0.04286132 -0.046367176 -0.028122876 -0.12721826 0.034737967 0.11712629 0.07225601
-0.097742446 -0.113769256 0.0061146766 0.014647332 0.055472635 -0.088791035 -0.014996133 0.089168474
0.06211642 -0.025827073 0.021527609 -0.0036517214 -0.04562599 -0.032635964 -0.09649067 0.02734362
0.06438611 0.04945179 -0.112277925 0.07303644 0.055275954 0.104252465 -0.054507617 -0.024255682
0.09863948 0.04645486 0.08110514 -0.043054353 0.0683088 -0.036168694 0.0629787 -0.08182133
-0.04004509 -0.029057028 -0.023725769 0.11938257 0.06909041 0.02180534 0.09811774 -0.069953404
0.07368388 0.0064960304 -0.036636747 -0.045075085 -0.07653756 -0.029655319 0.030176522 0.12532957
-0.017115075 0.023229817 0.09156707 -0.08048432 0.1479304 -0.08127675 0.083537705 0.06504134
0.034939803 0.10494672 -0.02582082 0.027588967 -0.028063826 -0.07550898 -0.0070381197 -0.076478995
0.059945095 -0.022284891 -0.033370018 -0.08000812 0.022627616 -0.06231199 0.007975902 0.09724176
-0.0040885974 -0.09081112 -0.03758504 -0.03344053 -0.056655355 -0.069268465 -0.094837986 -0.065172136
0.020293873 0.09476327 0.07654728 0.035690125 -0.06986977 -0.021010531 -0.086330846 0.016154658
0.07371219 0.09157327 -0.057107575 0.075881496 0.058713757 0.049644053 -0.015179863 0.012817905
0.071886845 0.024936914 -0.025203882 -0.082270674 0.028306505 0.044620212 -0.041725405 -0.066799305
-0.057392996 -0.050880697 0.055832405 -0.0111967875 0.021868581 0.016907936 0.0663175 -0.050493076
-0.024287775 -0.07641343 -0.09876283 0.043194395 0.12352959 -0.058540944 -0.126079 -0.06901319
0.040828973 0.12264 -0.088983506 -0.0601328 0.04584375 -0.07576324 0.11276732 0.041239496
-0.062710375 0.005427247 0.0020912131 -0.02108644 -0.0704015 0.0376496 -0.008055684 0.013451851
-0.07869601 0.099709794 -0.031226203 0.017279435 0.07497809 -0.05364728 0.014911637 -0.00043521795
0.06675108 -0.048631802 0.040673252 -0.015933214 -0.085524596 -0.08687083 0.07363839 -0.020302474
0.030238733 -0.12101368 -0.06261457 -0.08490661 0.05643863 -0.005439513 0.014491842 0.019071063
-0.097820066 0.03187259 -0.027586387 -0.052893966 0.032836486 0.013285883 -0.07891329 0.08004343
0.08734804 -0.028718205 -0.08823832 -0.016842317 0.06359378 0.090153046 -0.07618813 -0.02842851
0.07260063 0.06388995 0.11016401 -0.059650593 0.10210061 -0.06438818 -0.020238295 0.015071336
00000000: 5da5 51bd 193a 1d3d 6764 83bd 9845 4b3d
00000010: b25a d1bd 8ec3 973d 1198 0abd 2946 abbd
00000020: 4c5e 61bb 33a8 1e3d ed3c 55bd 66c0 883d
00000030: 185d fcbd 7b58 73bd 59a5 17bd e3c4 8dbc
00000040: 6e0b e3bd 2fd4 f43c c9a5 babc 6415 f63c
00000050: d336 b03d 80a0 fa3b da6c e8bc 6423 b03d
00000060: c667 12bd 1252 3a3d 09ca e2bc c7e6 1c3d
00000070: a12d be3d 675d 00be 9b1b 843d cfaf 5e3d
00000080: 771c 223d ef9f 6a3d 00b4 883d 06b2 cfbc
00000090: 1ac0 dfbd 6c89 1abd 21ae 85bd a58b b3bb
000000a0: 1d90 69bd 9255 72bc ff96 c93c 35aa b43d
000000b0: 6c3b 06bc f965 9a3c 4ce3 0d3c cb2a a8bc
000000c0: 5d9c d83d c46d dd3d 113a 4b3c 4d21 783d
000000d0: d950 c1bb f4c6 163d fbd9 e8bb 1cde 00be
000000e0: 9780 94bd 4b3d 7f3d 5ee5 f73b fecb eebd
000000f0: c4dd cd3c db23 da3d 9bf4 b5bd 0989 78bd
00000100: cfcc c5bd 5a8f 2f3d 82eb 3dbd f261 e6bc
00000110: 8145 02be 6649 0e3d e9df ef3d f5fa 933d
00000120: 312d c8bd dbff e8bd a05d c83b 5dfb 6f3c
00000130: 4637 633d 13d8 b5bd 57b2 75bc f69d b63d
00000140: ca6d 7e3d 4c93 d3bc ab5a b03c b851 6fbb
00000150: 51e2 3abd 4aad 05bd e79c c5bd baff df3c
00000160: dddc 833d f68d 4a3d f8f1 e5bd 2194 953d
00000170: 0a69 623d 5182 d53d 6143 5fbd dab3 c6bc
00000180: 7f03 ca3d 7447 3e3d 741a a63d c359 30bd
00000190: 7ce5 8b3d a025 14bd fafa 803d f191 a7bd
000001a0: 5206 24bd 0109 eebc 8b5c c2bc d97e f43d
000001b0: 467f 8d3d 1da1 b23c f4f1 c83d bb43 8fbd
000001c0: 93e7 963d a7dc d43b 6a10 16bd a7a0 38bd
000001d0: b9bf 9cbd b6ef f2bc c134 f73c 6556 003e
000001e0: ea34 8cbc 754c be3c 8487 bb3d f7d4 a4bd
000001f0: 117b 173e 6d74 a6bd d115 ab3d 6534 853d
00000200: 0a1d 0f3d 4eee d63d 2f86 d3bc 4202 e23c
00000210: 1ce6 e5bc 74a4 9abd 07a0 e6bb 05a1 9cbd
00000220: fd88 753d ce8e b6bc 00af 08bd 4cdb a3bd
00000230: 8d5d b93c db3a 7fbd 5cad 023c b026 c73d
00000240: a4f9 85bb 2efb b9bd c5f2 19bd f0f8 08bd
00000250: 720f 68bd a0dc 8dbd 6b3a c2bd f878 85bd
00000260: 563f a63c 3f13 c23d d2c4 9c3d cf2f 123d
00000270: e217 8fbd 471e acbc 3ace b0bd c656 843c
00000280: 6bf6 963d c48a bb3d a2e9 69bd c267 9b3d
00000290: d67d 703d 9057 4b3d f6b4 78bc 3102 523c
000002a0: 6939 933d 8048 cc3c 5f78 cebc 877d a8bd
000002b0: 0be3 e73c afc3 363d 42e8 2abd 13ce 88bd
000002c0: eb14 6bbd 4768 50bd 85b0 643d bb72 37bc
000002d0: bd25 b33c 8382 8a3c 78d1 873d d4d1 4ebd
000002e0: 28f7 c6bc a57e 9cbd 2b44 cabd 9bec 303d
000002f0: 15fd fc3d a1c8 6fbd da1a 01be ca56 8dbd
00000300: 483c 273d ae2a fb3d fc3c b6bd d04d 76bd
00000310: a8c6 3b3d c229 9bbd 8df2 e63d bfea 283d
00000320: 4c6e 80bd 0cd7 b13b bc0c 093b 78bd acbc
00000330: a92e 90bd 7836 1a3d fdfb 03bc 2765 5c3c
00000340: 602b a1bd a634 cc3d 18ce ffbc 9a8d 8d3c
00000350: 1d8e 993d 40bd 5bbd f04f 743c f72d e4b9
00000360: cab4 883d 2432 47bd ff98 263d 5f86 82bc
00000370: 8527 afbd 55e9 b1bd b9cf 963d 6051 a6bc
00000380: 38b7 f73c 05d6 f7bd 113c 80bd 84e3 adbd
00000390: 312c 673d f13d b2bb 316f 6d3c eb3a 9c3c
000003a0: e355 c8bd d58c 023d d9fc e1bc 58a7 58bd
000003b0: 8d7f 063d 08ad 593c 4a9d a1bd cfed a33d
000003c0: 87e3 b23d 7142 ebbc 4bb6 b4bd e6f8 89bc
000003d0: 753d 823d 29a2 b83d 8608 9cbd e8e2 e8bc
000003e0: a4af 943d bcd8 823d ab9d e13d 2e54 74bd
000003f0: 201a d13d f3dd 83bd c8ca a5bc c4ed 763c

model.all_layers.0.bias f4 [100]
0.014835432 0.06831991 0.029112361 -0.036049746 -0.0115737915 0.05810941 0.03397114 0.003862068
-0.049154785 0.07830664 -0.086287454 -0.090748765 0.022133395 0.06539672 -0.09435125 0.035291024
-0.049338546 0.07005385 -0.025464952 0.093709014 -0.040897775 -0.004881583 0.0658908 -0.026846707
0.005352676 0.07649804 -0.035308942 -0.078665055 0.008734323 -0.088866465 0.07159061 0.009620294
-0.027133502 -0.014975034 0.08313059 -0.029656217 -0.0009859427 0.014266804 0.009306848 -0.05195383
-0.006373122 -0.04060818 -0.008555733 -0.07125016 0.03633354 -0.040306795 0.013856515 0.09757077
0.028252758 -0.062812716 -0.077858664 -0.062496543 0.068285264 0.0784462 0.03393314 -0.07774319
0.02693548 0.033362933 -0.018861309 0.02991759 0.08659131 -0.024171695 0.063166596 0.023436867
-0.08877639 -0.007865891 -0.025602773 -0.00948558 -0.0046138316 -0.0748134 0.04901754 -0.06654302
-0.04919356 0.09644974 0.021275386 -0.008679949 0.050122134 0.09734962 -0.05035987 -0.09258522
-0.0147391185 -0.06260194 -0.093927264 -0.033703364 -0.023496628 -0.0010202678 0.04484076 0.06742454
-0.024140395 -0.03032235 -0.061059784 0.07141494 0.038108192 -0.013914362 0.059351765 0.08103419
-0.032623306 0.07361501 -0.035381936 -0.019541822
00000000: 5010 733c 4feb 8b3d 0c7d ee3c e6a8 13bd
00000010: 00a0 3dbc 2204 6e3d 5225 0b3d c01a 7d3b
00000020: 8756 49bd 3b5f a03d 7ab7 b0bd 7dda b9bd
00000030: 1851 b53c b7ee 853d 3a3b c1bd 528d 103d
00000040: 3717 4abd 6578 8f3d e09b d0bc 83ea bf3d
00000050: 6d84 27bd b0f5 9fbb c1f1 863d a0ed dbbc
00000060: 8065 af3b 01ab 9c3d 1ca0 10bd 251b a1bd
00000070: 681a 0f3c 9fff b5bd 199e 923d 709e 1d3c
00000080: 1447 debc d859 75bc 5f40 aa3d 98f1 f2bc
00000090: bf3a 81ba 50bf 693c c07b 183c 8acd 54bd
000000a0: 9fd5 d0bb c354 26bd 582d 0cbc 9beb 91bd
000000b0: 7ad2 143d bd18 25bd 7006 633c 2fd3 c73d
000000c0: 5472 e73c f4a3 80bd 5d74 9fbd 60fc 7fbd
000000d0: 25d9 8b3d 67a8 a03d 7afd 0a3d d237 9fbd
000000e0: cca7 dc3c 92a7 083d 0883 9abc bc15 f53c
000000f0: c956 b13d b803 c6bc 7d5d 813d acfe bf3c
00000100: 65d0 b5bd f0df 00bc e8bc d1bc 6869 1bbc
00000110: a02f 97bb c537 99bd 9ec6 483d b547 88bd
00000120: 307f 49bd 7187 c53d b849 ae3c 5836 0ebc
00000130: de4c 4d3d 3d5f c73d 2746 4ebd 529d bdbd
00000140: 587c 71bc 7235 80bd f05c c0bd 8a0c 0abd
00000150: 007c c0bc 82ba 85ba f2aa 373d e115 8a3d
00000160: 14c2 c5bc 9466 f8bc d319 7abd ff41 923d
00000170: 5617 1c3d 10f9 63bc d61a 733d 41f5 a53d
00000180: 04a0 05bd 77c3 963d a6ec 10bd 2c16 a0bc

model.all_layers.1.weight f4 [100]
0.9777349 0.9760069 1.0160141 0.997212 0.97512573 1.0190123 0.988837 1.027651
1.0016845 1.0113881 1.0000627 0.976996 1.0017784 0.9975386 0.9829592 1.0092423
1.0072436 1.0133935 0.9974882 1.0152681 0.99681044 0.99082786 1.001622 1.0228415
1.0110912 0.99469554 0.9955693 1.010753 0.9743753 1.0147259 0.98310757 0.98201555
1.0117836 1.0177555 0.97690713 1.002542 1.0171628 1.0002775 0.9829586 1.009735
0.99634284 0.9909285 0.9896203 1.0318968 0.98529375 1.013489 1.0175271 0.96729904
0.9918784 0.98635185 0.9967671 0.96940064 1.0018439 1.0023016 0.97648555 0.9852286
1.0294362 1.0084424 0.9988287 1.0159672 1.022578 0.9870253 0.9929734 0.99921733
0.97203434 0.9860344 0.98352575 1.0023226 0.99425197 1.0184808 1.0131679 0.99058
1.01855 0.9841498 0.9975664 0.97511864 1.0047153 1.0014699 1.0057889 1.0569307
1.0252668 0.9979911 0.96481395 1.023099 0.99426425 0.99732697 1.0046196 0.993464
0.9874182 1.0453615 1.0183518 1.0173963 0.98301584 0.99772376 0.9802564 1.0366029
0.9810103 1.0138341 0.9846658 0.9918909
00000000: d64c 7a3f 97db 793f c00c 823f 4949 7f3f
00000010: d7a1 793f ff6e 823f 6c24 7d3f 118a 833f
00000020: 3337 803f 2a75 813f 0e02 803f 691c 7a3f
00000030: 463a 803f b15e 7f3f 37a3 7b3f da2e 813f
00000040: 5ced 803f e1b6 813f 635b 7f3f 4ef4 813f
00000050: f82e 7f3f e5a6 7d3f 2635 803f 78ec 823f
00000060: 706b 813f 5ea4 7e3f a1dd 7e3f 5b60 813f
00000070: a970 793f 8ae2 813f f0ac 7b3f 5f65 7b3f
00000080: 2082 813f d045 823f 9616 7a3f 4c53 803f
00000090: 6432 823f 1809 803f 2da3 7b3f ff3e 813f
000000a0: 5310 7f3f 7dad 7d3f c257 7d3f 3215 843f
000000b0: 363c 7c3f 02ba 813f 543e 823f e9a0 773f
000000c0: beeb 7d3f 8e81 7c3f 212c 7f3f a42a 783f
000000d0: 6c3c 803f 6b4b 803f f5fa 793f f137 7c3f
000000e0: 91c4 833f a414 813f 3db3 7f3f 370b 823f
000000f0: d6e3 823f b1ad 7c3f 8133 7e3f b5cc 7f3f
00000100: 3ed7 783f c06c 7c3f 58c8 7b3f 1b4c 803f
00000110: 4c87 7e3f 945d 823f 7caf 813f a796 7d3f
00000120: d95f 823f 3ef1 7b3f 8360 7f3f 60a1 793f
00000130: 839a 803f 2a30 803f b1bd 803f 8149 873f
00000140: f13b 833f 587c 7f3f 0cfe 763f e8f4 823f
00000150: 1a88 7e3f d250 7f3f 6097 803f a853 7e3f
00000160: 70c7 7c3f 68ce 853f 5a59 823f 0b3a 823f
00000170: eda6 7b3f d36a 7f3f 15f2 7a3f 67af 843f
00000180: 7e23 7b3f 51c5 813f 0f13 7c3f 90ec 7d3f

model.all_layers.1.bias f4 [100]
-0.005480267 -0.0048537017 0.0011112171 -0.019617297 -0.027130561 -0.020939158 -0.019956004 -0.012631428
-0.016114092 -0.04898933 -0.01368351 -0.021726333 -0.009701017 0.0513922 -0.018088691 0.017540181
0.0002525812 -0.0061287154 -0.025943868 -0.022564694 -0.029658068 -0.031362616 -0.016318845 -0.009427216
-0.02616356 -0.0024634697 -0.019278895 -0.0184468 0.015170981 0.0047545563 -0.01592376 -0.02603173
-0.006479772 0.002322289 -0.012509149 -0.014366793 -0.061934985 -0.0113397 -0.017219549 0.0071368422
-0.013610719 -0.034892876 -0.050672464 -0.013521972 0.008676176 -0.00070554094 -0.015955975 -0.049464535
-0.009842666 0.005866827 -0.019652624 0.03978929 -0.056894485 0.02701649 -0.045850676 -0.021133188
-0.007804072 -0.056922026 -0.015763558 -0.011300028 -0.014210071 0.005819126 -0.030925758 -0.007936637
-0.05410453 -0.0363087 0.027420964 0.020695874 -0.017634729 -0.015495269 -0.010769149 -0.018165676
-0.013059033 -0.032491293 0.010688479 -0.05507475 -0.040508676 -0.0102179665 0.0061539765 -0.006201228
-0.070535555 -0.027372438 -0.009776368 -0.027926533 0.0023654602 -0.021285035 -0.07130032 -0.037780154
0.0048284126 -0.020233905 -0.012044062 -0.018262899 0.023953117 -0.019644072 -0.012314262 0.011870582
-0.029500345 -0.039006304 -0.03585774 -0.023938587
00000000: d093 b3bb cd0b 9fbb 42a6 913a 74b4 a0bc
00000010: e940 debc 9988 abbc c67a a3bc 0df4 4ebc
00000020: b301 84bc 09a9 48bd cd30 60bc 6cfb b1bc
00000030: 04f1 1ebc a180 523d bc2e 94bc 6db0 8f3c
00000040: e06c 8439 64d3 c8bb 3c88 d4bc 98d9 b8bc
00000050: 7af5 f2bc 1676 00bd 19af 85bc 9c74 1abc
00000060: f654 d6bc 2a72 21bb c6ee 9dbc be1d 97bc
00000070: b58f 783c 1ccc 9b3b 8c72 82bc 7f40 d5bc
00000080: 4454 d4bb 8b31 183b 2cf3 4cbc b362 6bbc
00000090: 8aaf 7dbd 26ca 39bc 0310 8dbc 2cdc e93b
000000a0: 7eff 5ebc d5eb 0ebd ee8d 4fbd 438b 5dbc
000000b0: 8526 0e3c 0df4 38ba 1bb6 82bc 539b 4abd
000000c0: 2243 21bc 833e c03b 8afe a0bc 18fa 223d
000000d0: 310a 69bd b051 dd3c ebcd 3bbd 821f adbc
000000e0: 4db9 ffbb 1227 69bd 9422 81bc c123 39bc
000000f0: 5cd1 68bc 5eae be3b 0458 fdbc ab08 02bc
00000100: b69c 5dbd 6eb8 14bd eea1 e03c 658a a93c
00000110: b576 90bc dedf 7dbc 1671 30bc 2fd0 94bc
00000120: 8ef5 55bc 9715 05bd bb1e 2f3c 1096 61bd
00000130: 6dec 25bd 4269 27bc 4ca7 c93b ac33 cbbb
00000140: f274 90bd 2a3c e0bc 0f2d 20bc 2fc6 e4bc
00000150: d605 1b3b f45d aebc e705 92bd 5dbf 1abd
00000160: a937 9e3b 93c1 a5bc 7554 45bc 139c 95bc
00000170: 5439 c43c 9bec a0bc c2c1 49bc d47c 423c
00000180: b5aa f1bc 13c5 1fbd 91df 12bd db1a c4bc

model.all_layers.1.running_mean f4 [100]
0.13424243 -0.057422183 -0.14936382 -0.2552765 0.14758797 0.24078862 -0.28264165 0.10864472
0.11014127 -0.47426558 0.36123082 -0.3144629 0.21840096 -0.16871318 -0.32107967 0.18260552
-0.39462578 0.4491288 0.048642244 0.52379763 0.31462935 -0.14650255 -0.30002013 -0.0762703
-0.15210842 -0.16018432 0.017969217 0.32058617 0.04141377 -0.22251889 0.12712374 -0.22670962
0.0079121515 -0.067609526 0.029324325 -0.27729052 0.25447357 0.121229924 0.049345624 0.056452285
-0.38900736 -0.25422862 0.050389774 -0.5893599 -0.050326083 0.27876735 0.16545163 0.24008687
-0.2835521 -0.49994588 0.22055368 -0.23242825 0.48278886 0.47118342 0.09327655 -0.1040627
0.22493143 -0.14746462 0.070811406 -0.035042383 0.24549283 -0.13185617 -0.35152373 0.3145007
-0.4235565 -0.031191971 -0.046564624 0.2304398 -0.20173591 -0.41968375 0.23172626 0.14621061
-0.23279281 0.183999 -0.076942354 0.22095238 -0.00052503403 -0.09358514 -0.12741575 -0.55344945
-0.1354488 -0.32424122 -0.23314784 0.194946 0.21423648 -0.33064866 0.22896437 -0.03673185
-0.085427575 0.23264575 0.26865074 0.21125159 0.16486937 -0.030246397 -0.2755239 -0.23171008
0.024404993 -0.14485118 0.20090272 -0.1417374
00000000: d976 093e 8633 6bbd d4f2 18be 9ab3 82be
00000010: 4d21 173e 4b91 763e 68b6 90be 1f81 de3d
00000020: bf91 e13d f0d2 f2be 3ff3 b83e 4801 a1be
00000030: 80a4 5f3e 26c3 2cbe 8e64 a4be f1fc 3a3e
00000040: 640c cabe 36f4 e53e 173d 473d 9a17 063f
00000050: 1917 a13e c404 16be 3d9c 99be 9a33 9cbd
00000060: 4fc2 1bbe 5c07 24be 2e34 933c df23 a43e
00000070: 7ca1 293d fedb 63be ba2c 023e 9126 68be
00000080: f8a1 013c dd76 8abd 9139 f03c 06f9 8dbe
00000090: 5c4a 823e 6547 f83d a31e 4a3d 833a 673d
000000a0: f92b c7be 412a 82be 8265 4e3d 4ae0 16bf
000000b0: b922 4ebd 98ba 8e3e 276c 293e 55d9 753e
000000c0: be2d 91be e8f8 ffbe d3d8 613e ac01 6ebe
000000d0: 1a30 f73e f43e f13e c707 bf3d d31e d5bd
000000e0: 6d54 663e f700 17be 9205 913d 9a88 0fbd
000000f0: 7962 7b3e 4e05 07be ebfa b3be 3c06 a13e
00000100: 66dc d8be 4e86 ffbc 8cba 3ebd 69f8 6b3e
00000110: dc93 4ebe cae0 d6be a649 6d3e 3cb8 153e
00000120: 3d61 6ebe 3c6a 3c3e f493 9dbd 5741 623e
00000130: 70a2 09ba 91a9 bfbd 4679 02be ddae 0dbf
00000140: 17b3 0abe f202 a6be 4fbe 6ebe ed9f 473e
00000150: cf60 5b3e c84a a9be a375 6a3e 2374 16bd
00000160: a7f4 aebd b03a 6e3e 978c 893e 5652 583e
00000170: 84d3 283e 4bc7 f7bc 7811 8dbe 6845 6dbe
00000180: fbec c73c de53 14be 71b9 4d3e 9c23 11be

model.all_layers.1.running_var f4 [100]
8.353977 7.816243 8.1523695 5.8506503 8.426506 8.344559 7.66913 10.472378
5.9552646 9.639071 8.747199 7.4367447 5.2016354 11.382776 9.345377 9.926574
12.760426 9.058731 9.42906 9.095931 11.4717245 6.142219 8.789335 7.7967234
7.333106 5.693978 7.6522646 8.683573 10.164618 14.451258 12.860291 5.134708
8.312408 14.720006 11.765211 5.2963986 7.0096393 7.6624413 4.983892 13.43237
9.931007 8.74761 12.157121 12.751007 13.120003 8.57938 14.520278 8.034638
10.763947 13.127926 7.5429454 12.375334 8.835771 5.4334807 9.276121 4.8448305
13.401932 7.909611 7.5788136 8.893577 12.035778 11.97155 8.152977 7.3053923
9.649576 10.333874 5.9616013 7.713045 9.473164 8.536506 7.2704473 5.456432
7.9108596 8.063205 6.1888666 6.9078126 11.018286 6.382454 8.076556 11.33688
13.263936 9.446736 6.7146263 16.579422 8.312853 4.9596715 13.7453575 6.939111
11.25296 12.6047125 7.282951 8.743888 7.8888407 8.177561 9.020268 8.013268
8.253549 6.9987407 9.795121 8.978088
00000000: e4a9 0541 aa1e fa40 1b70 0241 8738 bb40
00000010: f8d2 0641 5083 0541 8369 f540 dc8e 2741
00000020: 8791 be40 a339 1a41 87f4 0b41 d0f9 ed40
00000030: cc73 a640 da1f 3641 aa86 1541 3fd3 1e41
00000040: b42a 4c41 90f0 1041 6edd 1641 ef88 1141
00000050: 2f8c 3741 0f8d c440 1ea1 0c41 c27e f940
00000060: cea8 ea40 1135 b640 5adf f440 eaef 0a41
00000070: 46a2 2241 5a38 6741 c0c3 4d41 874f a440
00000080: a0ff 0441 2585 6b41 4e3e 3c41 197c a940
00000090: f74e e040 b832 f540 0b7c 9f40 fdea 5641
000000a0: 68e5 1e41 36f6 0b41 9183 4241 2004 4c41
000000b0: 88eb 5141 2445 0941 0f53 6841 e18d 0041
000000c0: 2039 2c41 fc0b 5241 cf5f f140 5e01 4641
000000d0: 515f 0d41 13df ad40 fe6a 1441 da08 9b40
000000e0: 506e 5641 891b fd40 a485 f240 174c 0e41
000000f0: 8c92 4041 788b 3f41 9872 0241 c6c5 e940
00000100: aa64 1a41 8c57 2541 70c5 be40 44d1 f640
00000110: 1492 1741 8795 0841 81a7 e840 179b ae40
00000120: c325 fd40 e302 0141 320b c640 cd0c dd40
00000130: e64a 3041 103d cc40 9339 0141 dc63 3541
00000140: 1539 5441 d525 1741 38de d640 a8a2 8441
00000150: 7201 0541 a1b5 9e40 fcec 5b41 330d de40
00000160: 200c 3441 e7ac 4941 ef0d e940 f7e6 0b41
00000170: 6271 fc40 4ad7 0241 0553 1041 5936 0041
00000180: 890e 0441 aff5 df40 d1b8 1c41 40a6 0f41

model.all_layers.3.weight f4 [50, 100]
-0.06481177 0.0828533 -0.092441514 0.106176615 -0.106611244 -0.024298687 0.015074232 -0.0033521892
0.019919539 -0.020437509 0.06659797 0.005695018 0.067482255 -0.044937726 -0.12255432 0.015293319
-0.1746564 0.049574014 0.06619161 0.08608638 0.10596299 -0.08010489 -0.14741331 0.045919888
-0.13179864 0.022948926 -0.04999718 -0.06970122 -0.06535835 -0.026744878 0.035243064 -0.07038705
-0.030896023 0.04742755 0.028141055 0.11834779 -0.069268644 0.15047725 0.018594814 0.09512392
0.023864767 0.042922534 -0.123543546 -0.105554424 0.023743408 -0.04466821 -0.0147974435 -0.012651432
0.08299396 0.043474738 -0.054199744 -0.09474003 -0.010894215 0.015526885 -0.0010194906 -0.03799758
-0.09048763 0.06975049 0.057629827 0.007419814 0.08301698 -0.08943906 -0.09539044 -0.08785652
0.043251406 0.009542284 -0.08001661 0.052495074 0.12072726 -0.1263557 -0.002504812 -0.15255347
-0.144764 0.005361479 0.0146255605 -0.022547672 0.119019374 0.06952784 0.014864965 -0.100185655
-0.062055953 -0.10174006 0.020981971 0.01943636 -0.014592754 -0.041959006 0.03759178 0.00369662
-0.093550906 0.0066704066 0.01426914 0.14826551 -0.032473862 0.025325315 -0.079258196 0.036083832
0.11686518 0.08291958 0.10729589 0.046981532 -0.041625515 -0.017859392 0.04107046 -0.09834769
-0.040528484 -0.0072944546 -0.030017326 0.070222996 0.109449066 -0.1160734 0.04340093 -0.11578894
0.053466663 -0.0154037215 -0.09400855 -0.08502296 -0.031900287 -0.014721167 0.066564105 -0.042735953
-0.06947415 0.042779595 0.056705087 -0.1071582 0.07137801 0.004139 -0.09121745 -0.035595585
-0.024429835 -0.025753448 0.06395493 0.043240484 0.076037765 0.06631905 0.08297362 -0.02466268
0.03483569 -0.017891265 -0.034112148 -0.0113061145 0.0048894156 -0.0547514 0.023254426 -0.0012728192
0.033542622 -0.08631126 0.07185878 0.011962844 -0.08205899 0.033317223 -0.041437607 0.015328475
0.044645675 0.011588828 -0.018828 0.017887468 -0.03859612 0.020850599 0.06118399 0.083528556
-0.013511276 -0.06920322 -0.0409173 -0.0007238338 0.03519611 -0.045603327 -0.0711255 0.046796963
-0.05405986 -0.07240523 -0.025101403 0.04379334 0.04556227 0.032148592 -0.098579146 0.012092891
0.07162897 -0.05945946 0.059133854 0.004263351 0.0049746325 0.021382568 -0.097179495 -0.12088828
0.07066743 -0.018641667 0.055035584 0.059330095 0.07397792 -0.03657605 0.099264145 0.09088219
-0.07638815 -0.04141908 0.03942251 -0.005940901 -0.022186998 0.032294933 -0.11775557 0.04673842
-0.093955204 -0.05689423 0.08214089 -0.00012912898 0.057287257 0.056034863 -0.04911042 -0.0028030493
-0.074771576 -0.03194876 -0.079535455 -0.0064421985 0.13325687 -0.04633529 0.0053149303 -0.01973167
-0.011497296 0.03974671 -0.09379625 0.068677865 -0.021737074 -0.07241372 0.032164477 0.074464865
0.03588206 -0.03185211 -0.009687095 -0.032811794 0.017458621 -0.117360115 -0.0040341336 -0.003282945
-0.019266943 0.0015437978 -0.06962464 -0.03411541 0.067541316 0.06766477 0.051818546 0.010226488
0.058570076 -0.08628165 -0.1011357 -0.032606672 0.10164442 -0.056096923 -0.06432987 0.05766977
0.0045266505 -0.059015803 0.015985338 0.076122254 -0.028214216 -0.051023554 -0.09243099 0.06839058
00000000: 09bc 84bd feae a93d fa51 bdbd 2073 d93d
00000010: ff56 dabd 0a0e c7bc e9f9 763c 67b0 5bbb
00000020: 4d2e a33c 906c a7bc 8464 883d 469d ba3b
00000030: 2334 8a3d 9f10 38bd c2fd fabd d490 7a3c
00000040: 21d9 32be 1f0e 4b3d 788f 873d 0e4e b03d
00000050: 2003 d93d 080e a4bd 84f3 16be 7e16 3c3d
00000060: 39f6 06be 63ff bb3c d8c9 4cbd 83bf 8ebd
00000070: 99da 85bd 1318 dbbc 085b 103d 1627 90bd
00000080: a819 fdbc 6443 423d 1288 e63c 5360 f23d
00000090: b8dc 8dbd b516 1a3e 2754 983c 54d0 c23d
000000a0: 0b80 c33c 8acf 2f3d 6604 fdbd eb2c d8bd
000000b0: 8981 c23c 03f6 36bd fa70 72bc f447 4fbc
000000c0: bdf8 a93d 9112 323d 8d00 5ebd 1007 c2bd
000000d0: a67d 32bc 7a64 7e3c 6ea0 85ba 5aa3 1bbd
000000e0: 9451 b9bd 58d9 8e3d 410d 6c3d e921 f33b
000000f0: ce04 aa3d d32b b7bd 105c c3bd 1fee b3bd
00000100: 6328 313d 3d57 1c3c c0df a3bd 1305 573d
00000110: db3f f73d 6363 01be c627 24bb fa36 1cbe
00000120: 043d 14be 58af af3b 0ca0 6f3c e5b5 b8bc
00000130: 6ec0 f33d 9d64 8e3d 2f8c 733c 232e cdbd
00000140: 622e 7ebd 185d d0bd 62e2 ab3c 0039 9f3c
00000150: 7216 6fbc 35dd 2bbd d7f9 193d fe42 723b
00000160: 9e97 bfbd 6d93 da3b 1cc9 693c ead2 173e
00000170: 5003 05bd 0977 cf3c 1f52 a2bd a4cc 133d
00000180: 0357 ef3d bed1 a93d f3bd db3d b56f 403d
00000190: 847f 2abd dc4d 92bc 8039 283d 846a c9bd
000001a0: 3201 26bd 5206 efbb e5e6 f5bc 13d1 8f3d
000001b0: d526 e03d e4b7 edbd 2cc5 313d c022 edbd
000001c0: dcff 5a3d e45f 7cbc 8e87 c0bd 8520 aebd
000001d0: e0a9 02bd 0d31 71bc c352 883d e50b 2fbd
000001e0: 7748 8ebd a839 2f3d 9843 683d c275 dbbd
000001f0: a22e 923d 73a0 873b 37d0 babd adcc 11bd
00000200: 1421 c8bc e5f8 d2bc cdfa 823d ef1c 313d
00000210: b0b9 9b3d 48d2 873d 13ee a93d 6409 cabc
00000220: deaf 0e3d b490 92bc 2eb9 0bbd 483d 39bc
00000230: 6437 a03b 0143 60bd 1180 be3c bad4 a6ba
00000240: fd63 093d f5c3 b0bd b22a 933d ceff 433c
00000250: 8b0e a8bd a477 083d 7bba 29bd 4924 7b3c
00000260: 62de 363d 11df 3d3c 2e3d 9abc bd88 923c
00000270: f716 1ebd e0ce aa3c 109c 7a3d 0511 ab3d
00000280: 665e 5dbc 6bba 8dbd e698 27bd aabf 3dba
00000290: cc29 103d 8eca 3abd 3faa 91bd 2cae 3f3d
000002a0: df6d 5dbd 3149 94bd 75a1 cdbc a560 333d
000002b0: 819f 3a3d 3eae 033d dde3 c9bd 4321 463c
000002c0: 36b2 923d c38b 73bd 5736 723d 95b3 8b3b
000002d0: 3e02 a33b 7f2a af3c 0b06 c7bd 4694 f7bd
000002e0: 16ba 903d 69b6 98bc fe6c 613d 1d04 733d
000002f0: bc81 973d c5d0 15bd 004b cb3d 7120 ba3d
00000300: 6471 9cbd 0ea7 29bd 7f79 213d e4ab c2bb
00000310: 82c1 b5bc b147 043d d529 f1bd c970 3f3d
00000320: 966b c0bd ed09 69bd 7c39 a83d cc66 07b9
00000330: 0ba6 6a3d d084 653d 0228 49bd 5db3 37bb
00000340: d721 99bd b4dc 02bd 7ce3 a2bd 1419 d3bb
00000350: 7d74 083e 13ca 3dbd de28 ae3b 50a4 a1bc
00000360: 285f 3cbc 72cd 223d 4018 c0bd fba6 8c3d
00000370: f311 b2bc a54d 94bd e6be 033d 0981 983d
00000380: 11f9 123d 5c77 02bd 9fb6 1ebc a965 06bd
00000390: 6205 8f3c 805a f0bd c430 84bb ad26 57bb
000003a0: b5d5 9dbc 4259 ca3a 5d97 8ebd 9abc 0bbd
000003b0: 1a53 8a3d d493 8a3d af3f 543d 008d 273c
000003c0: 2de7 6f3d 6fb4 b0bd 3c20 cfbd 938e 05bd
000003d0: f32a d03d e3c5 65bd 61bf 83bd 2337 6c3d
000003e0: 4c54 943b 8eba 71bd aff3 823c fce5 9b3d
000003f0: 8021 e7bc 13fe 50bd 754c bdbd 5c10 8c3d

model.all_layers.3.bias f4 [50]
-0.08645761 -0.00085607124 0.017236851 0.030479873 0.005684437 -0.0439285 0.01726403 0.062280662
-0.04695461 -0.060365845 -0.08993707 0.040228866 -0.013220584 0.07103733 -0.020354211 0.0055683963
-0.08674189 0.037303798 -0.0029202173 0.0892682 0.045742773 0.01612101 0.031673647 0.050400518
-0.008639744 0.012040023 0.0031919698 -0.059396338 -0.05946969 0.021779701 0.07997335 0.06460703
0.056317486 0.035469733 0.05586832 -0.03273829 -0.03180995 0.016840063 -0.0176458 -0.093616724
0.049768798 0.043953188 -0.09180405 0.0778374 -0.0009940615 -0.079422876 -0.05343486 0.012391254
-0.07151739 0.06615914
00000000: b010 b1bd f869 60ba 4c34 8d3c edb0 f93c
00000010: 8444 ba3b 5fee 33bd 4c6d 8d3c 021a 7f3d
00000020: 7a53 40bd 2d42 77bd ed30 b8bd 06c7 243d
00000030: 269b 58bc 057c 913d e0bd a6bc 1877 b63b
00000040: bba5 b1bd decb 183d 1e61 3fbb 3fd2 b63d
00000050: c65c 3b3d 3510 843c 3abc 013d c670 4e3d
00000060: b68d 0dbc 8443 453c 5e30 513b 9349 73bd
00000070: 7d96 73bd 586b b23c 11c9 a33d b150 843d
00000080: 2aad 663d b648 113d 2ed6 643d 9618 06bd
00000090: 264b 02bd 2cf4 893c ed8d 90bc 20ba bfbd
000000a0: 5eda 4b3d 4208 343d c303 bcbd 3769 9f3d
000000b0: 2b4b 82ba 76a8 a2bd 83de 5abd b004 4b3c
000000c0: b677 92bd 717e 873d

model.all_layers.4.weight f4 [50]
0.9926144 0.9693533 0.9768053 0.98371094 0.9866164 1.000208 0.97782457 0.978661
0.9600802 0.9663368 0.9985303 0.9674782 0.96436083 1.0050087 0.9990712 1.0316914
0.9779002 0.97515815 0.9982884 0.9771156 1.0465128 1.030724 0.9706925 1.0001371
1.0341843 0.9819547 0.96059716 0.96718466 0.99850917 0.96949315 0.9954128 0.9633465
0.987898 1.0138444 1.0048307 0.98250353 0.9875939 0.9659491 0.9956034 0.9889933
0.989127 0.98544717 1.0167658 0.9927543 0.9974584 1.0357908 1.0213895 0.9978038
0.9636362 1.0504452
00000000: fa1b 7e3f 8a27 783f ea0f 7a3f 7bd4 7b3f
00000010: e492 7c3f d106 803f b652 7a3f 8789 7a3f
00000020: d1c7 753f d961 773f af9f 7f3f a7ac 773f
00000030: 5ae0 763f 20a4 803f 21c3 7f3f 770e 843f
00000040: ab57 7a3f f7a3 793f d48f 7f3f 3f24 7a3f
00000050: 22f4 853f c4ee 833f 4e7f 783f 7e04 803f
00000060: 2760 843f 6261 7b3f b2e9 753f 6a99 773f
00000070: 4c9e 7f3f b430 783f 60d3 7e3f e09d 763f
00000080: e2e6 7c3f a7c5 813f 4b9e 803f 5a85 7b3f
00000090: f4d2 7c3f 7148 773f dddf 7e3f aa2e 7d3f
000000a0: 6d37 7d3f 4446 7c3f 6225 823f 2525 7e3f
000000b0: 6f59 7f3f cb94 843f e4bc 823f 1270 7f3f
000000c0: ddb0 763f fd74 863f

model.all_layers.4.bias f4 [50]
-0.050128885 -0.036833487 -0.051071733 -0.08433461 -0.053049427 -0.04840378 -0.06909241 -0.09741802
-0.03877472 -0.028858857 -0.044371683 -0.030948 -0.03974931 -0.054893997 -0.106350526 -0.074633986
-0.04938779 -0.076656625 -0.08005123 -0.04770457 -0.021933855 -0.11154509 -0.033148788 -0.029734282
-0.07392201 -0.08325998 -0.034053117 -0.037985552 -0.05677248 -0.031907137 -0.03462507 -0.024768608
-0.080096185 -0.049192112 -0.046681438 -0.0040113623 -0.056948 -0.04481564 -0.08698786 -0.06999173
-0.010253917 -0.039573096 -0.022646872 -0.02393389 -0.06531064 0.00052888505 -0.022001812 0.021117289
-0.043094702 -0.10840341
00000000: f253 4dbd b6de 16bd 9830 51bd a0b7 acbd
00000010: 5b4a 59bd 0b43 46bd 5280 8dbd 1983 c7bd
00000020: 3ed2 1ebd 6969 ecbc 15bf 35bd a986 fdbc
00000030: 2cd0 22bd 87d8 60bd 4ece d9bd b4d9 98bd
00000040: da4a 4abd 26fe 9cbd e6f1 a3bd de65 43bd
00000050: a1ae b3bc c171 e4bd 06c7 07bd 4f95 f3bc
00000060: 6c64 97bd 3584 aabd 487b 0bbd bd96 1bbd
00000070: 438a 68bd 0fb1 02bd 04d3 0dbd 89e7 cabc
00000080: 7809 a4bd ab7d 49bd 0935 3fbd bf71 83bb
00000090: 4e42 69bd 9b90 37bd b126 b2bd d357 8fbd
000000a0: 0c00 28bc 6617 22bd ef85 b9bc 0111 c4bc
000000b0: 96c1 85bd e0a4 0a3a 253d b4bc 2afe ac3c
000000c0: 1284 30bd 9b02 debd

model.all_layers.4.running_mean f4 [50]
-0.31477252 -0.09912999 -0.15107197 -0.18933128 0.007089085 0.4041537 -0.5449122 0.78554857
0.52754325 -0.20998724 -0.21818718 -0.23912212 0.408425 0.21704638 -0.9229856 -0.02498933
-0.37764502 -0.34115732 -0.12600113 0.109897286 0.7928126 -0.2008007 -0.06541334 0.12094406
-0.23554301 0.44430363 -0.20419401 -0.6644032 -0.5680003 0.23232287 -0.53694665 -0.16477077
0.04883669 0.2687327 -0.5793454 -0.5309549 -0.62910986 -0.10647091 0.2242515 -0.59795034
-0.30239674 0.10716304 -0.2517164 -0.85091573 -0.19554387 -0.70244795 -0.14313117 -0.32688794
-0.515456 0.44978753
00000000: dd29 a1be aa04 cbbd 9cb2 1abe 0fe0 41be
00000010: 8e4b e83b 3ced ce3e 5e7f 0bbf b619 493f
00000020: 130d 073f e506 57be 766c 5fbe 6edc 74be
00000030: 151d d13e 6841 5e3e c948 6cbf 6cb6 ccbc
00000040: b05a c1be 2cac aebe 7106 01be d411 e13d
00000050: c4f5 4a3f b39e 4dbe 6ef7 85bd 85b1 f73d
00000060: 3032 71be c47b e33e 3c18 51be 5416 2abf
00000070: 7868 11bf 0ce6 6d3e 5675 09bf abb9 28be
00000080: fb08 483d 5597 893e fb4f 14bf a9ec 07bf
00000090: 580d 21bf 6c0d dabd 2fa2 653e 4613 19bf
000000a0: bfd3 9abe 4c78 db3d f9e0 80be 9dd5 59bf
000000b0: a73c 48be a1d3 33bf fa90 12be db5d a7be
000000c0: edf4 03bf 8d4a e63e

model.all_layers.4.running_var f4 [50]
0.35220695 0.21902268 0.21991673 0.38687798 0.17134225 0.21293217 0.13796891 0.31073222
0.2248356 0.16723089 0.34999368 0.13810271 0.20168222 0.3026904 0.34043404 0.5010879
0.1822918 0.22076763 0.27117035 0.19250496 0.40725967 0.36769834 0.13036625 0.27543595
0.39804044 0.20238636 0.21148379 0.19489299 0.3150435 0.19793501 0.28053892 0.14768593
0.2747624 0.4811471 0.45691904 0.4356717 0.30282742 0.17502707 0.37771672 0.20825326
0.2345334 0.2894792 0.64674366 0.3855768 0.22213788 0.7974736 0.54528904 0.40308222
0.06897813 0.5307084
00000000: 7854 b43e 7b47 603e da31 613e df14 c63e
00000010: 5874 2f3e e40a 5a3e b947 0d3e 4b18 9f3e
00000020: 4e3b 663e 933e 2b3e 5f32 b33e cc6a 0d3e
00000030: c985 4e3e 3cfa 9a3e 5f4d ae3e 4c47 003f
00000040: b4aa 3a3e e910 623e d7d6 8a3e 0520 453e
00000050: 5784 d03e f542 bc3e bb7e 053e f105 8d3e
00000060: f5cb cb3e 5f3e 4f3e 358f 583e 0792 473e
00000070: 624d a13e 7aaf 4a3e cca2 8f3e fb3a 173e
00000080: a8ad 8c3e ea58 f63e 4bf1 e93e 5c10 df3e
00000090: 320c 9b3e 4c3a 333e 1664 c13e 5840 553e
000000a0: 8629 703e 9e36 943e fe90 253f 536a c53e
000000b0: 1d78 633e 3b27 4c3f 1098 0b3f cb60 ce3e
000000c0: 6844 8d3d 81dc 073f

model.all_layers.6.weight f4 [2, 50]
0.16394095 -0.17406698 0.130839 -0.17579807 -0.08185787 -0.10421037 -0.13513196 0.19493502
0.030003298 -0.016812323 -0.17623083 -0.07910846 0.006261954 0.30748615 0.25739345 0.27639112
0.09639191 0.15367632 -0.15164489 0.15859662 -0.30488852 0.2757397 -0.00774755 0.14588358
-0.26150802 0.10610551 -0.012568575 -0.027612874 -0.27443674 0.021019142 -0.050920054 -0.0993396
-0.21727113 0.20145404 0.23252286 -0.14625753 0.06718929 -0.023131372 -0.138977 -0.25767532
-0.1585294 -0.22604555 -0.2576973 -0.2419554 0.07023357 0.27405602 -0.26491594 -0.24632439
-0.030626558 0.2510938 -0.16988325 -0.05590694 -0.060551874 0.1948768 0.1803 0.24138491
0.084128365 -0.12445006 -0.075173184 0.02415835 0.24006164 -0.023952646 -0.08429055 -0.06070905
-0.14021456 -0.24024443 -0.09122484 -0.072596595 0.22334442 -0.06714279 0.30152255 -0.2878195
-0.0423781 -0.24763031 0.30220824 -0.18740149 -0.03166771 -0.09818905 0.06155294 0.1062524
0.25614336 -0.041309856 0.20608976 -0.21441378 -0.18214223 0.1590288 -0.2152629 0.14187016
0.23585752 0.0436957 0.10704554 0.08858343 0.24915874 0.1023285 -0.2491862 -0.26065078
0.26684463 0.14151777 -0.0011430441 -0.36197954
00000000: 23e0 273e 9d3e 32be a9fa 053e 6904 34be
00000010: 19a5 a7bd 3f6c d5bd 0860 0abe 0c9d 473e
00000020: 7ac9 f53c ffb9 89bc db75 34be 9e03 a2bd
00000030: 1431 cd3b d36e 9d3e 13c9 833e 2383 8d3e
00000040: 1f69 c53d 535d 1d3e cc48 1bbe 2767 223e
00000050: 591a 9cbe c12d 8d3e 29df fdbb 8162 153e
00000060: 61e4 85be d84d d93d 6dec 4dbc 6534 e2bc
00000070: f982 8cbe 5630 ac3c 8c91 50bd 8f72 cbbd
00000080: 537c 5ebe f849 4e3e 791a 6e3e 89c4 15be
00000090: 8a9a 893d 017e bdbc fd4f 0ebe 05ee 83be
000000a0: 8855 22be 7c78 67be e7f0 83be 28c3 77be
000000b0: 9ed6 8f3d 1251 8c3e 10a3 87be 763c 7cbe
000000c0: 8ce4 fabc 5e8f 803e e0f5 2dbe adfe 64bd
000000d0: 3e05 78bd c98d 473e 90a0 383e 9b2d 773e
000000e0: 7e4b ac3d acdf febd 66f4 99bd bbe7 c53c
000000f0: b8d2 753e 5738 c4bc 86a0 acbd 0eaa 78bd
00000100: 6894 0fbe a302 76be 17d4 babd 86ad 94bd
00000110: 66b4 643e 2982 89bd 2a61 9a3e 145d 93be
00000120: a994 2dbd cd92 7dbe 0abb 9a3e 2de6 3fbe
00000130: 00b6 01bd 5717 c9bd f01e 7c3d dc9a d93d
00000140: 3925 833e 8634 29bd 3209 533e 498f 5bbe
00000150: 7e83 3abe 72d8 223e e16d 5cbe 6946 113e
00000160: a284 713e 43fa 323d b13a db3d 3b6b b53d
00000170: 7823 7f3e 9b91 d13d ab2a 7fbe 0574 85be
00000180: dc9f 883e 09ea 103e 32d2 95ba 6255 b9be

model.all_layers.6.bias f4 [2]
-0.0482516 -0.12956089
00000000: 78a3 45bd 9cab 04be
