unit06-dl-tips/6.8-debugging/lightning_logs/version_2/checkpoints/epoch=4-step=5.ckpt (torch, 71858 bytes, 14 tensors)

model.all_layers.0.weight f4 [100, 100]
0	0xbd09d5eb	-0.033651274
1	0xbc5c7981	-0.013456703
2	0xbdfeefa6	-0.12448053
3	0x3c9d31a4	0.01918871
4	0xbded26f2	-0.11579694
5	0x3d52a057	0.051422443
6	0xbd3fcca2	-0.046826012
7	0x3bb3d05f	0.0054874863
8	0xbde00dd1	-0.10940135
9	0x3d120b1e	0.035655133
10	0xbd933562	-0.07187916
11	0x3de5200d	0.11187754
12	0xbcc2b92d	-0.02376994
13	0xbcef2be8	-0.02919574
14	0xbd8a36ad	-0.0674871
15	0xbcbc9553	-0.023020422
16	0xbdadd30d	-0.0848752
17	0x3db29e9a	0.08721657
18	0xbd3a3993	-0.045465063
19	0x3d76382b	0.06011216
20	0x3c923b15	0.017850438
21	0x3bc378b6	0.0059653176
22	0xbcfb8b16	-0.03070597
23	0x3d9abec0	0.07555914
24	0xbdc8ee56	-0.09811084
25	0x3be9e7c5	0.007138225
26	0xbcddf859	-0.02709596
27	0xbca77be1	-0.020444812
28	0x3de97251	0.11398757
29	0xbe3c867a	-0.18410674
30	0x3def7d9a	0.116938785
31	0x3d9c7ef7	0.07641404
32	0x3a952fc1	0.001138203
33	0x39c43697	0.00037424706
34	0x3d434780	0.04767561
35	0xbd38a9f7	-0.045083966
36	0xbdc2aac1	-0.09505225
37	0xbdc26224	-0.09491375
38	0xbdf004c4	-0.11719659
39	0x3c7bdeaa	0.0153729115
40	0x3d2dcd60	0.04243219
41	0xbce393f8	-0.027780518
42	0x3d8135bc	0.06309077
43	0x3dee3564	0.11631277
44	0xbd1e56e3	-0.03865708
45	0x3d44f169	0.04808179
46	0x3b4478a0	0.0029979125
47	0x3c86eabe	0.016469356
48	0x3e4535f1	0.19258858
49	0x3d9f1fa6	0.07769708
50	0x3d0fe2ff	0.03512859
51	0x3d42ecc7	0.04758909
52	0xbc965bff	-0.018354414
53	0x3dddcf8a	0.108306006
54	0xbbdc5bd4	-0.006724814
55	0xbd8d6891	-0.0690471
56	0xbcee36a9	-0.029078798
57	0x3d049065	0.032364268
58	0x3dd22836	0.10261576
59	0xbd72c4fb	-0.059269886
60	0xbd1885c4	-0.037236944
61	0x3d573aa5	0.052546162
62	0xbdc9b174	-0.098482996
63	0xbd82168b	-0.06351956
64	0xbdd5946e	-0.10428701
65	0x3cf4b58f	0.02987173
66	0xbd9c4c3d	-0.07631729
67	0x3d1d55d8	0.038411945
68	0xbdda8654	-0.10670152
69	0x3d63b282	0.05559016
70	0x3e261fc6	0.16223058
71	0x3da40cc3	0.080102466
72	0xbe2e0801	-0.16995241
73	0xbe30a90a	-0.17251983
74	0x3cde8603	0.027163511
75	0xbbb2a26c	-0.005451491
76	0xbc7ebc56	-0.0155478325
77	0xbdba228d	-0.09088621
78	0xbd93d3b9	-0.07218117
79	0x3db1bf12	0.08679022
80	0x3dddd438	0.10831493
81	0xbd1ccd77	-0.038281884
82	0x3d17af68	0.037032515
83	0xbb565577	-0.003270475
84	0xbddd2b92	-0.10799326
85	0xbdad2d4b	-0.084559046
86	0xbd2066c0	-0.03916049
87	0x3ccce1b5	0.02500997
88	0x3b045094	0.002018963
89	0xbcb0b0b9	-0.021568643
90	0xbd6110df	-0.05494773
91	0x3e260bab	0.16215388
92	0x3d70b7c1	0.05876899
93	0x3d56ac0f	0.05241018
94	0xbdb90c09	-0.09035499
95	0xbbe4894f	-0.0069743763
96	0x3d97c93e	0.07411431
97	0x3d08d053	0.0334018
98	0x3da80c6f	0.082054965
99	0xbd3cb04d	-0.04606657
100	0x3d3da8e4	0.046303645
101	0xbdce5912	-0.100755826
102	0xbc1b18cb	-0.00946636
103	0xbd78834e	-0.060672097
104	0xbcffad80	-0.031210661
105	0x3c8a4f0e	0.0168834
106	0x3d9c5772	0.07633866
107	0x3dbcc051	0.09216369
108	0xbc5e7816	-0.013578435
109	0xbd0e1c8a	-0.034695186
110	0x3d882e1a	0.06649418
111	0xbdd6ed49	-0.10494477
112	0x3d8be96a	0.068316296
113	0x3b732227	0.0037099214
114	0x3d2acb76	0.04169794
115	0x3d94bd7c	0.07262704
116	0xbd881379	-0.06644339
117	0xbc0db38b	-0.008648763
118	0x3d9be33a	0.076116994
119	0x3e0138c9	0.12619318
120	0xbd3524c5	-0.04422452
121	0x3db24520	0.08704591
122	0x3e1a5fad	0.1507556
123	0xbd646a0b	-0.055765193
124	0x3dfd5213	0.1236917
125	0xbe0b9432	-0.13630751
126	0x3c000b72	0.007815229
127	0x3d757fa7	0.059936192
128	0xbccaf4c7	-0.024774922
129	0x3dcc79b3	0.0998415
130	0xbd253127	-0.04033008
131	0x3da47f4f	0.08032095
132	0x3d81f60d	0.063457586
133	0xbd2c464d	-0.04205923
134	0xbd1de365	-0.03854694
135	0xbdc28ff1	-0.09500111
136	0x3d32196d	0.04348128
137	0x3d2231aa	0.039598145
138	0x3d35fb98	0.04442939
139	0xbd2a3a62	-0.041559584
140	0x3c8d64eb	0.017260035
141	0x3d1aa246	0.037752412
142	0xba709298	-0.00091771176
143	0x3e0e5635	0.13900073
144	0x3d980e57	0.0742461
145	0xbd99d770	-0.075117946
146	0xbdb3bf5e	-0.08776735
147	0xbbb7abab	-0.005605181
148	0xbdbd505b	-0.09243842
149	0xbdb49eb2	-0.08819331
150	0xbd9d2410	-0.07672894
151	0x3d0eeb38	0.03489229
152	0x3d58c83c	0.052925333
153	0x3d1c6811	0.038185183
154	0xbdb33d74	-0.08751956
155	0x3d032e50	0.03202659
156	0xbd98c5b9	-0.074595876
157	0x3d6acb22	0.05732263
158	0xbe0ac136	-0.13550267
159	0x3d183668	0.03716126
160	0x3d4aa4a6	0.049473427
161	0x3dec40c8	0.115357935
162	0xbd4fe648	-0.050756723
163	0x3de93f54	0.11389032
164	0x3e1910a2	0.14947751
165	0x3e194d30	0.14970851
166	0x3d81567a	0.06315322
167	0x3decb707	0.11558347
168	0x3db6dd3c	0.08928916
169	0x3d81d02d	0.063385345
170	0xbd768f5d	-0.060195316
171	0xbd097047	-0.03355434
172	0x3cd99b63	0.026563352
173	0x3d21da7d	0.039515007
174	0xbd88e82c	-0.06684908
175	0x3d39a70e	0.04532533
176	0xbe02ce24	-0.12773949
177	0xbca630fb	-0.020287028
178	0x3df114ca	0.11771543
179	0xbc8b24ce	-0.016985323
180	0xbcd62327	-0.026139809
181	0x3d4ae9d3	0.0495394
182	0x3d6f03c1	0.05835319
183	0xbe5bb598	-0.21455991
184	0xbd46c3c9	-0.04852656
185	0x3ab5a7f3	0.0013859257
186	0xbd9f3eb5	-0.07775632
187	0x3dd1ae0c	0.10238275
188	0x3dcb58f6	0.09929077
189	0xbe03fb0c	-0.12888736
190	0xbdd7303d	-0.105072476
191	0xbdc51552	-0.09623207
192	0x3dd86a3f	0.1056714
193	0x3d6dc8ca	0.058052815
194	0xbda429f5	-0.08015815
195	0xbb9965aa	-0.0046813088
196	0x3c8a924d	0.016915465
197	0xbda3b1a0	-0.07992864
198	0x3dbdfb0d	0.092764
199	0x3cd740ac	0.026275955
200	0xbd76f309	-0.06029037
201	0xbc07e2f1	-0.008293853
202	0x3de8526a	0.11343844
203	0xbc6deb17	-0.014521382
204	0xbd749a5e	-0.05971753
205	0x3c3a7745	0.011380975
206	0xbdafbd1e	-0.08580993
207	0xbb2531f2	-0.0025206772
208	0xbdb6e04b	-0.08929499
209	0x3d3f1d21	0.04665864
210	0x3c93d17a	0.018044222
211	0xbdc51b88	-0.09624392
212	0x3dcd5f3c	0.1002793
213	0xbdb08899	-0.08619804
214	0x3d4706c8	0.04859045
215	0xbd3186ff	-0.043341633
216	0x3d7e8757	0.06214079
217	0xbcd6611f	-0.026169358
218	0x3c6c0173	0.014404642
219	0x3ca3eaf5	0.020009497
220	0xbd8a11a9	-0.0674165
221	0xbd971f6b	-0.073790394
222	0x3e399f5b	0.18127196
223	0xbc677b27	-0.014128483
224	0x3db4b422	0.0882342
225	0xbe290684	-0.16506392
226	0xbd8e07e8	-0.06935102
227	0xbd2a822d	-0.04162805
228	0xbcb3597f	-0.021893261
229	0x3d1afd32	0.037839122
230	0xbd7fd378	-0.06245753
231	0xbd552d23	-0.052045
232	0xbd42dbdb	-0.04757295
233	0x3c1dcc9a	0.0096313
234	0xbcb6c78a	-0.022311945
235	0xbded154e	-0.11576329
236	0x3da019b1	0.078174
237	0x3d096f3d	0.03355335
238	0xbdc6cf97	-0.09707563
239	0x3d94a280	0.07257557
240	0x3de6b4b2	0.11264934
241	0xbdda0e39	-0.10647244
242	0xbe2d8dc4	-0.1694861
243	0xbbf9a7eb	-0.0076188943
244	0x3dc736ea	0.09727271
245	0x3cff21ac	0.031143986
246	0xbdce5636	-0.10075037
247	0xbbb48ea2	-0.005510167
248	0x3c42a99d	0.011881259
249	0x3d7753ba	0.060382582
250	0x3d4c7b3d	0.049922217
251	0xbe0cb3ed	-0.13740511
252	0x3e29dec2	0.16588882
253	0xbdba5b2d	-0.09099422
254	0xbc7a0b78	-0.015261523
255	0x3beb6b18	0.0071843974

model.all_layers.0.bias f4 [100]
0	0x3c731050	0.014835432
1	0x3d8beb4f	0.06831991
2	0x3cee7d0c	0.029112361
3	0xbd13a8e6	-0.036049746
4	0xbc3da000	-0.0115737915
5	0x3d6e0422	0.05810941
6	0x3d0b2552	0.03397114
7	0x3b7d1abf	0.0038620678
8	0xbd495687	-0.049154785
9	0x3da05f3b	0.07830664
10	0xbdb0b77a	-0.086287454
11	0xbdb9da7d	-0.090748765
12	0x3cb55118	0.022133395
13	0x3d85eeb7	0.06539672
14	0xbdc13b3a	-0.09435125
15	0x3d108d52	0.035291024
16	0xbd4a1737	-0.049338546
17	0x3d8f7865	0.07005385
18	0xbcd09be0	-0.025464952
19	0x3dbfea83	0.093709014
20	0xbd27846d	-0.040897775
21	0xbb9ff5b0	-0.004881583
22	0x3d86f1c1	0.0658908
23	0xbcdbeda0	-0.026846707
24	0x3baf6580	0.005352676
25	0x3d9cab01	0.07649804
26	0xbd10a01c	-0.035308942
27	0xbda11b25	-0.078665055
28	0x3c0f1a68	0.008734323
29	0xbdb5ff9f	-0.088866465
30	0x3d929e19	0.07159061
31	0x3c1d9e70	0.009620294
32	0xbcde4714	-0.027133502
33	0xbc7559d8	-0.014975034
34	0x3daa405f	0.08313059
35	0xbcf2f198	-0.029656217
36	0xba813a8a	-0.0009859365
37	0x3c69bf50	0.014266804
38	0x3c187bc0	0.009306848
39	0xbd54cd8a	-0.05195383
40	0xbbd0d5a0	-0.0063731223
41	0xbd2654c3	-0.04060818
42	0xbc0c2d58	-0.008555733
43	0xbd91eb9b	-0.07125016
44	0x3d14d27a	0.03633354
45	0xbd2518bd	-0.040306795
46	0x3c630670	0.013856515
47	0x3dc7d32f	0.09757077
48	0x3ce77254	0.028252758
49	0xbd80a3f4	-0.062812716
50	0xbd9f745d	-0.077858664
51	0xbd7ffc60	-0.062496543
52	0x3d8bd925	0.068285264
53	0x3da0a867	0.0784462
54	0x3d0afd7a	0.03393314
55	0xbd9f37d2	-0.07774319
56	0x3cdca7cc	0.02693548
57	0x3d08a792	0.033362933
58	0xbc9a8308	-0.018861309
59	0x3cf515bc	0.02991759
60	0x3db156c9	0.08659131
61	0xbcc603b8	-0.024171695
62	0x3d815d7d	0.063166596
63	0x3cbffeac	0.023436867
64	0xbdb5d065	-0.08877639
65	0xbc00dff0	-0.007865891
66	0xbcd1bce8	-0.025602773
67	0xbc1b6968	-0.00948558
68	0xbb972fa0	-0.0046138316
69	0xbd9937c5	-0.0748134
70	0x3d48c69e	0.04901754
71	0xbd8847b5	-0.06654302
72	0xbd497f30	-0.04919356
73	0x3dc58771	0.09644974
74	0x3cae49b8	0.021275386
75	0xbc0e3658	-0.008679949
76	0x3d4d4cde	0.050122134
77	0x3dc75f3d	0.09734962
78	0xbd4e4627	-0.05035987
79	0xbdbd9d52	-0.09258522
80	0xbc717c58	-0.0147391185
81	0xbd803572	-0.06260194
82	0xbdc05cf0	-0.093927264
83	0xbd0a0c8a	-0.033703364
84	0xbcc07c00	-0.023496628
85	0xba85ba7f	-0.0010202675
86	0x3d37aaf2	0.04484076
87	0x3d8a15e1	0.06742454
88	0xbcc5c214	-0.024140395
89	0xbcf86694	-0.03032235
90	0xbd7a19d3	-0.061059784
91	0x3d9241ff	0.07141494
92	0x3d1c1756	0.038108192
93	0xbc63f910	-0.013914362
94	0x3d731ad6	0.059351765
95	0x3da5f541	0.08103419
96	0xbd05a004	-0.032623306
97	0x3d96c377	0.07361501
98	0xbd10eca6	-0.035381936
99	0xbca0162c	-0.019541822

model.all_layers.1.weight f4 [100]
0	0x3f6d6560	0.9273281
1	0x3f74c913	0.95619315
2	0x3f7f4de9	0.99728256
3	0x3f73499a	0.9503418
4	0x3f72c0c7	0.94825405
5	0x3f814e45	1.0102011
6	0x3f8ea94d	1.1145416
7	0x3f846ad7	1.0345105
8	0x3f7b53d0	0.9817476
9	0x3f68912f	0.9084653
10	0x3f860bee	1.0472391
11	0x3f840af3	1.0315841
12	0x3f840e56	1.0316875
13	0x3f72b8db	0.9481332
14	0x3f7913c2	0.97295773
15	0x3f87ba48	1.0603724
16	0x3f80091f	1.0002784
17	0x3f882a84	1.0637975
18	0x3f8632da	1.0484269
19	0x3f900a92	1.1253226
20	0x3f6c9242	0.9241067
21	0x3f7c3dc9	0.98531777
22	0x3f76eefd	0.9645842
23	0x3f76a48f	0.96344846
24	0x3f75cc10	0.960145
25	0x3f83f2ea	1.0308506
26	0x3f86c622	1.0529215
27	0x3f830f17	1.023898
28	0x3f8212fc	1.0162044
29	0x3f73e308	0.952683
30	0x3f860406	1.0469978
31	0x3f84d040	1.0376053
32	0x3f7b651c	0.98201156
33	0x3f74844d	0.95514375
34	0x3f79b031	0.9753447
35	0x3f844d4d	1.033609
36	0x3f7ca81d	0.9869402
37	0x3f7c7e2c	0.98630023
38	0x3f82564e	1.0182588
39	0x3f8cd04b	1.1001066
40	0x3f72b9f5	0.94815
41	0x3f7b66b0	0.98203564
42	0x3f895bb6	1.0731113
43	0x3f740da5	0.9533332
44	0x3f813d51	1.0096837
45	0x3f795292	0.9739162
46	0x3f80178d	1.0007187
47	0x3f8165a9	1.0109149
48	0x3f6d6972	0.9273902
49	0x3f83d05d	1.0297962
50	0x3f6c7596	0.9236692
51	0x3f812bb4	1.0091462
52	0x3f7da728	0.99083185
53	0x3f7a1a18	0.97696066
54	0x3f7e993f	0.99452585
55	0x3f7798b5	0.9671739
56	0x3f7c5a1c	0.98574996
57	0x3f868fd7	1.0512646
58	0x3f7200cc	0.94532466
59	0x3f7416b5	0.9534715
60	0x3f75dc87	0.96039623
61	0x3f6f10b7	0.9338488
62	0x3f84d6d8	1.0378065
63	0x3f83981a	1.0280793
64	0x3f8410c4	1.0317616
65	0x3f8edebe	1.1161726
66	0x3f728f08	0.947495
67	0x3f89b67d	1.0758816
68	0x3f821bb3	1.0164703
69	0x3f8a307d	1.0796047
70	0x3f813735	1.0094973
71	0x3f7b6c1d	0.9821184
72	0x3f7918cc	0.9730346
73	0x3f80f924	1.0076032
74	0x3f77a561	0.96736723
75	0x3f81dc03	1.0145267
76	0x3f70d8cd	0.9408081
77	0x3f71c989	0.94448143
78	0x3f847101	1.0346986
79	0x3f8aacc1	1.083397
80	0x3f82b66a	1.0211918
81	0x3f773bb9	0.96575505
82	0x3f80d212	1.0064108
83	0x3f8db9b9	1.1072303
84	0x3f7564bf	0.9585685
85	0x3f71f3c9	0.9451261
86	0x3f7f3fed	0.9970692
87	0x3f76224c	0.9614608
88	0x3f7b73fe	0.98223865
89	0x3f7ed468	0.99542856
90	0x3f8741b0	1.0566921
91	0x3f73aeb3	0.95188445
92	0x3f7227d4	0.9459202
93	0x3f75ee2d	0.9606655
94	0x3f7f03be	0.99615085
95	0x3f7b1fd7	0.9809546
96	0x3f6e0659	0.92978436
97	0x3f873eb2	1.0566008
98	0x3f81adfb	1.013122
99	0x3f801ff7	1.0009755

model.all_layers.1.bias f4 [100]
0	0xbde3df5f	-0.11126589
1	0xbe5137fc	-0.20431513
2	0x3c9c773a	0.01909982
3	0xbd3436c0	-0.043997526
4	0xbd6b4770	-0.057441175
5	0xbcaa0588	-0.02075459
6	0xbdc6f64b	-0.097149454
7	0xbe29930b	-0.16559999
8	0xbdb9a010	-0.090637326
9	0xbda3aeae	-0.07992302
10	0xbd963eea	-0.07336219
11	0x3d3b44d5	0.04571994
12	0xbc05225f	-0.0081258705
13	0xbcef2c16	-0.029195827
14	0xbcf039ef	-0.0293245
15	0xbbb5c3fe	-0.0055470457
16	0xbdc0692c	-0.0939506
17	0xbd6a1d96	-0.05715712
18	0xbc117269	-0.008877375
19	0xbd2020ff	-0.039093968
20	0xbdc76090	-0.09735215
21	0xbcfcf8ff	-0.03088045
22	0x3c348132	0.011017131
23	0xbd20c954	-0.0392545
24	0xbdf6eddc	-0.12057087
25	0xbd802302	-0.06256677
26	0xbda35104	-0.07974437
27	0xbd836c8c	-0.06417188
28	0xbe238b42	-0.15971091
29	0xbc64e543	-0.013970676
30	0xbdf36d7a	-0.11886115
31	0x3d3f1c76	0.046658
32	0xbc407cf6	-0.011748543
33	0x3cc23d3a	0.023710836
34	0x3c7ca8f9	0.015421146
35	0xbd321558	-0.043477386
36	0xbd84005f	-0.06445383
37	0xbd35705d	-0.04429661
38	0xbdeae75c	-0.114699095
39	0x3c9fe4f9	0.019518362
40	0xbd9c0336	-0.076178
41	0xb9650c74	-0.00021843781
42	0xbd59ef76	-0.053206883
43	0xbe24c7b6	-0.16091809
44	0xbbc5014e	-0.0060121184
45	0xbd106167	-0.03524914
46	0xbb8364f9	-0.0040098396
47	0x3c735506	0.014851814
48	0xbdbc4a0a	-0.09193809
49	0xbd97aa94	-0.07405582
50	0x3d06ead8	0.03293881
51	0x3d2c6d83	0.042096626
52	0xbde9c746	-0.114149615
53	0xbd8995b2	-0.06718005
54	0xbd8ac53e	-0.06775902
55	0xbd9711bf	-0.07376432
56	0xbe369c6e	-0.1783311
57	0xbd8496c7	-0.06474071
58	0xbdbd2905	-0.092363395
59	0xbdbe424b	-0.09289988
60	0xbde74a05	-0.11293415
61	0xbdbf01c7	-0.09326511
62	0x3d9316ce	0.07182084
63	0xbc7beb5f	-0.015375941
64	0xbe2b3ac4	-0.16721636
65	0xbd307bba	-0.043086745
66	0xbda17e08	-0.07885367
67	0x3d1fba5b	0.03899608
68	0x3d7168ef	0.058937963
69	0x3e10a032	0.1412361
70	0xbdd14c9f	-0.102196924
71	0xbe1b7557	-0.1518148
72	0xbd481dad	-0.048856426
73	0xbe0df58a	-0.13863197
74	0xbcabe9c5	-0.020985493
75	0xbd0248e4	-0.031807795
76	0xbda44ca0	-0.080224276
77	0xbdc31061	-0.095246084
78	0xbd2341dc	-0.03985773
79	0xbd948dfd	-0.072536446
80	0xbe0ccb47	-0.13749419
81	0xbda5a62d	-0.08088336
82	0xbd1725ec	-0.0369014
83	0x3dff6468	0.12470323
84	0xbdc9e640	-0.0985837
85	0xbd99e7f0	-0.07514942
86	0xbe2c50a2	-0.16827634
87	0x3cc176db	0.023616245
88	0xbe24e584	-0.16103178
89	0xbdabd52a	-0.08390267
90	0xbdde9f4a	-0.10870226
91	0xbd95d938	-0.07316822
92	0xbd12e7fd	-0.035865773
93	0x3d6ce2e6	0.057833575
94	0xbddd8edc	-0.10818264
95	0xbd9e8410	-0.07740033
96	0xbe1c2d6e	-0.15251705
97	0xbe1a0063	-0.1503921
98	0x3d00418f	0.03131252
99	0xbe15be40	-0.14623356

model.all_layers.1.running_mean f4 [100]
0	0xbd3595bb	-0.044332247
1	0x3d94272d	0.07234035
2	0xbeace8b5	-0.3377129
3	0xbf523996	-0.8211912
4	0xbe8c5a4a	-0.27412635
5	0xbe565882	-0.209322
6	0xbf39c865	-0.725714
7	0xbf127549	-0.5721021
8	0xbe4dd3ee	-0.20100376
9	0xbf3ef270	-0.7458868
10	0x3edacce7	0.42734453
11	0xbe83fd26	-0.25779074
12	0xbebc4530	-0.36771536
13	0xbf8fdec7	-1.1239861
14	0xbf9a87e7	-1.2072724
15	0xbea5ca58	-0.3238094
16	0xbd1f0044	-0.038818613
17	0x3e0b7fd2	0.13622978
18	0x3f1dcd27	0.6164116
19	0xbea91040	-0.3302021
20	0x3eefe3ca	0.46853477
21	0x3db9c1d1	0.09070171
22	0x3e03086f	0.12796186
23	0x3ef188df	0.47174737
24	0xbe30d277	-0.17267786
25	0xbf2ea9a2	-0.6822759
26	0x3f0657d4	0.52477765
27	0x3e2c00ae	0.16797134
28	0xbe46878e	-0.19387648
29	0x3de865cb	0.113475405
30	0xbe1d22f3	-0.15345363
31	0xbf356747	-0.70860714
32	0xbe3e545b	-0.18586867
33	0x3dc362e8	0.09540349
34	0xbb5dc72a	-0.0033840635
35	0x3e838033	0.25683746
36	0xbd73bbd3	-0.059505295
37	0x3eca33e9	0.3949273
38	0x3f159f5f	0.58446306
39	0x3f9dce85	1.232865
40	0xbf52031b	-0.8203599
41	0xbe17f0c8	-0.14837945
42	0xbefd799e	-0.4950685
43	0xbf11b98b	-0.5692374
44	0x3f88ad21	1.0677835
45	0x3f3ff392	0.74981034
46	0x3e250418	0.16114843
47	0x3f9fa620	1.2472572
48	0x3cd44436	0.025911432
49	0xbf1e2715	-0.61778384
50	0x3e2afa0c	0.16696948
51	0x3f008e12	0.5021678
52	0x3ebeb51d	0.37247553
53	0x3e95a705	0.29228988
54	0x3f1b336f	0.60625356
55	0xbf877163	-1.0581478
56	0x3e9ffe38	0.3124864
57	0x3f1b950e	0.60774314
58	0xbe0c0483	-0.13673596
59	0x3f1189ca	0.56850874
60	0xbe139431	-0.14412
61	0xbf17ea9f	-0.5934238
62	0xbfa263c5	-1.2686697
63	0x3f3dfecc	0.74216914
64	0xbeddcf64	-0.4332229
65	0xbd6ebff1	-0.05828852
66	0xbeeb7700	-0.45989227
67	0x3f2ae8c1	0.66761404
68	0xbf40a8d6	-0.75257623
69	0xbef95c0a	-0.48703033
70	0x3eb95d05	0.3620378
71	0x3f6c07c0	0.92199326
72	0xbe290cad	-0.16508742
73	0x3e9f622b	0.31129584
74	0xbeb5be07	-0.35496542
75	0x3d18d231	0.03730983
76	0x3cc036cb	0.023463627
77	0xbdf5a4b8	-0.11994308
78	0x3ddbdef6	0.10735886
79	0xbf44bafa	-0.76847804
80	0xbe973aa2	-0.2953692
81	0xbbe82550	-0.007084526
82	0xbf319785	-0.69371825
83	0xbe611e44	-0.21984202
84	0xbe679cd6	-0.22618422
85	0xbe2f6e88	-0.17132008
86	0xbf11f6af	-0.57017034
87	0xbd878206	-0.06616597
88	0x3f025371	0.5090857
89	0x3f27b156	0.6550497
90	0x3f7a0841	0.97668844
91	0x3ec0cda4	0.3765689
92	0x3f0d8a99	0.5528961
93	0xbe2e8101	-0.17041399
94	0xbf288f43	-0.658436
95	0x3f61c2f2	0.8818809
96	0x3e946f2d	0.2899107
97	0xbe8c3bf1	-0.27389482
98	0xbdc84978	-0.09779638
99	0xbe156d9d	-0.14592595

model.all_layers.1.running_var f4 [100]
0	0x41cfbffc	25.968742
1	0x417d59e6	15.834448
2	0x41b5257b	22.643301
3	0x418a62cb	17.298239
4	0x4175a002	15.351564
5	0x41cfd176	25.977276
6	0x41f9822b	31.188559
7	0x41ec845f	29.564634
8	0x41bdc357	23.72038
9	0x4170cc3a	15.04986
10	0x42050720	33.256958
11	0x41f4f55e	30.619808
12	0x41c31699	24.386034
13	0x418bfccd	17.498438
14	0x41e862ac	29.04818
15	0x4193065a	18.378101
16	0x41e935d9	29.151293
17	0x4224b56a	41.177162
18	0x41d88d6c	27.069054
19	0x4235d6c2	45.459724
20	0x41aa5c07	21.294935
21	0x41af55f5	21.916971
22	0x41eb48df	29.410582
23	0x41c05ff4	24.046852
24	0x418c4227	17.5323
25	0x42359f33	45.405468
26	0x41baf8b0	23.37143
27	0x41b3d4d2	22.478916
28	0x41ebf77d	29.495844
29	0x41d5b4f5	26.713358
30	0x41afd0ea	21.977009
31	0x421b347b	38.80125
32	0x41b8ff13	23.124548
33	0x41e5a803	28.707037
34	0x4208ae1a	34.17002
35	0x41a0bba5	20.091623
36	0x4183a474	16.4553
37	0x41cfee4d	25.991358
38	0x41c08f93	24.070105
39	0x4222f001	40.73438
40	0x41b40904	22.504402
41	0x41c2951c	24.322807
42	0x4204b9d0	33.181458
43	0x42154999	37.321873
44	0x42479504	49.895523
45	0x41d7e610	26.987335
46	0x41d280f1	26.31296
47	0x41da2c7f	27.271727
48	0x41cdb46b	25.713095
49	0x420490dd	33.141468
50	0x419ef9f5	19.87205
51	0x4212e577	36.724087
52	0x41c1f29a	24.243458
53	0x41ac5b26	21.544506
54	0x4215201f	37.28137
55	0x41deb62e	27.838955
56	0x41fd9b33	31.70078
57	0x420ae221	34.72083
58	0x41892844	17.14466
59	0x41ac0a4f	21.505033
60	0x41d72489	26.89284
61	0x41bf2a2d	23.895594
62	0x420227ce	32.53887
63	0x41c00bbd	24.005732
64	0x41af41c2	21.907108
65	0x420fb772	35.929146
66	0x41d60337	26.75157
67	0x420f4ab0	35.822937
68	0x418a43e0	17.283142
69	0x41f77838	30.9337
70	0x4181eeba	16.241566
71	0x41c19b6c	24.20089
72	0x41b9dee4	23.233833
73	0x41921cdd	18.264093
74	0x419e6b58	19.802414
75	0x419ea900	19.83252
76	0x41f2e074	30.359596
77	0x41c31287	24.384047
78	0x41b6dcab	22.857748
79	0x41cff16a	25.992878
80	0x42112460	36.285522
81	0x4188d387	17.103285
82	0x4185cc8a	16.724873
83	0x424543cb	49.316204
84	0x41a3df3a	20.483997
85	0x41d2c3c6	26.345592
86	0x4228430a	42.065468
87	0x415fa34a	13.9773655
88	0x421aed9f	38.73205
89	0x41c045c6	24.03407
90	0x41b14c81	22.162355
91	0x4165e8d3	14.369342
92	0x41adf2c8	21.743546
93	0x41e0f592	28.119907
94	0x41e2c6ab	28.347006
95	0x42080534	34.00508
96	0x41f6218b	30.766378
97	0x423df1ce	47.486137
98	0x41a66d91	20.8035
99	0x41f0afcc	30.085838

model.all_layers.3.weight f4 [50, 100]
0	0xbe2b43a0	-0.16725016
1	0x3e25dfa9	0.16198601
2	0xbdf99bdd	-0.12187932
3	0x3d778ac3	0.060435068
4	0xbd5258a9	-0.051354084
5	0xbd440db3	-0.047864627
6	0x3df478b7	0.11937087
7	0x3cde0297	0.027100844
8	0xbd1f91b9	-0.03895733
9	0xbdae6477	-0.08515256
10	0xbb7f40cd	-0.0038948536
11	0xbe1db133	-0.15399627
12	0x3e179571	0.14803101
13	0xbc49c19c	-0.0123142265
14	0xbde9f583	-0.11423781
15	0x3d5d0621	0.053960923
16	0xbe304095	-0.17212136
17	0xbbef780d	-0.0073080123
18	0x3d999a9e	0.07500194
19	0x3d327979	0.043572877
20	0x3d747b66	0.059687994
21	0xbe0d8fca	-0.13824382
22	0xbe19e258	-0.1502775
23	0xbd565200	-0.052324295
24	0xbe20bceb	-0.15697066
25	0xbd652417	-0.05594262
26	0x3e02f7cd	0.12789841
27	0xbe38b3f3	-0.18037395
28	0xbdbc090b	-0.09181412
29	0xbc03a889	-0.008035787
30	0x3e312954	0.17300922
31	0xbe5bd58d	-0.21468182
32	0x3d6ff2c2	0.05858112
33	0x3d1fd489	0.03902105
34	0xbcddfdda	-0.027098585
35	0x3dc57ed3	0.096433304
36	0xbe03ea46	-0.12882337
37	0x3e0ef494	0.13960487
38	0xbdd47513	-0.10373893
39	0x3e21ef8d	0.15814038
40	0xbb08a566	-0.0020850538
41	0x3dcba1fb	0.09943005
42	0x3c00b1bc	0.007854875
43	0x3c2e38d4	0.010633666
44	0x3c800fef	0.015632598
45	0xbdf847c8	-0.12123066
46	0xbd227cf0	-0.03966993
47	0xbd6c9e31	-0.05776805
48	0x3cd5eaee	0.026113
49	0x3dfc65d3	0.12324109
50	0xbe019be8	-0.1265713
51	0xbdbf9f4b	-0.093565546
52	0xbdf42a17	-0.119220905
53	0xbd812337	-0.06305545
54	0xbcd094f6	-0.025461655
55	0xbd0903eb	-0.033451002
56	0xbdaa0c83	-0.08303168
57	0xbc80c161	-0.01571721
58	0x3c5d4958	0.013506256
59	0xbc6936e0	-0.014234275
60	0x3cea3182	0.02858806
61	0xbe04e2da	-0.12977162
62	0xbb4dd95e	-0.0031410079
63	0xbe3c16ee	-0.18368122
64	0x3e7165e3	0.23574023
65	0x3dd522c5	0.104070224
66	0xbe249a85	-0.1607457
67	0x3d943412	0.07236494
68	0x3e480ac4	0.19535357
69	0x3c29c9f3	0.01036309
70	0xbd24218a	-0.040071048
71	0xbe0f7e66	-0.14013061
72	0xbdb21b41	-0.086966045
73	0x3e056490	0.13026643
74	0x3d2a1b68	0.041530043
75	0xbb779537	-0.0037778148
76	0x3cffde71	0.031233998
77	0x3d830439	0.0639729
78	0x3dc4f3c7	0.09616809
79	0x3c04e4d9	0.008111202
80	0x3c996ed0	0.018729597
81	0xbdb82d2a	-0.08992989
82	0x3e29097e	0.16507527
83	0xbc8e9217	-0.017403645
84	0xbbd5d431	-0.0065255393
85	0xbdeeccbd	-0.116601445
86	0x3cc90a0b	0.024540922
87	0x3d6109a5	0.05494084
88	0x3d1ca549	0.038243566
89	0xbd5cd0c1	-0.05391002
90	0x3da2e404	0.07953647
91	0x3ab05dcc	0.0013455688
92	0xbc67968b	-0.014135013
93	0x3d7b93d3	0.061420273
94	0x3db14b41	0.08656932
95	0xbc8ac3b7	-0.016939027
96	0x3de6e2a8	0.112737
97	0x3ddb2e0f	0.10702144
98	0x3dcbcf92	0.099517
99	0xbd6a5bbb	-0.057216387
100	0xbd0c65d7	-0.03427681
101	0x3d0dd09a	0.034622766
102	0x3da76132	0.081728354
103	0xbde18d31	-0.11013258
104	0xbd8711f5	-0.06595222
105	0xbdd2fb6a	-0.1030186
106	0xbe456843	-0.19278054
107	0x3c44aa94	0.01200356
108	0x3db951e2	0.09048821
109	0xbe23c1ec	-0.15991944
110	0x3db299d9	0.0872075
111	0xbe103764	-0.1408363
112	0x3d430b19	0.047618005
113	0xbd539f2c	-0.05166547
114	0xbdaedb53	-0.085379265
115	0xbe430760	-0.19045782
116	0xbd64b1b6	-0.05583354
117	0xbdb02ecd	-0.086026765
118	0x3d24134c	0.040057465
119	0xbd044f29	-0.032302056
120	0xbddf88fb	-0.10914799
121	0x3d2e276a	0.042518057
122	0x3dd8b6a5	0.10581712
123	0xbdaf0086	-0.08545022
124	0x3d10a1bc	0.035310492
125	0xbd529a3f	-0.05141663
126	0xbe4960a0	-0.19665766
127	0xbd7ef900	-0.062249184
128	0x3cbee441	0.0233022
129	0xbc8dc737	-0.017306907
130	0xbb9bdaa0	-0.0047562867
131	0x3d113ddd	0.035459388
132	0x3d261107	0.040543582
133	0x3db1ba11	0.086780675
134	0x3ddb4a4e	0.10707532
135	0xbb1a1f95	-0.002351736
136	0xbdf6d121	-0.12051607
137	0xbdb21f44	-0.0869737
138	0x3c4b799a	0.012419129
139	0x3d6ed86a	0.058311857
140	0x3c1c725e	0.009548752
141	0x3c2c4955	0.010515531
142	0x3d177fc3	0.036987077
143	0x3d84d901	0.06486703
144	0x3d5e90ea	0.05433742
145	0xbe1a7155	-0.15082295
146	0x3dc118f9	0.09428591
147	0xbd62e246	-0.055391572
148	0xbd59bb44	-0.053157106
149	0x3d05badf	0.032648917
150	0xbd1ffe05	-0.03906061
151	0x3df7b7bd	0.12095592
152	0x3d322e31	0.043501083
153	0x3c1be6cc	0.0095154755
154	0x3c90a229	0.017655449
155	0x3d04979b	0.032371145
156	0xbc71a88d	-0.014749658
157	0x3dde5846	0.108566806
158	0x3d9ea508	0.07746321
159	0x3d9f2753	0.077711724
160	0x3d268275	0.040651757
161	0xbe3582c3	-0.17725663
162	0xbda4a8c6	-0.080400035
163	0xbd3a6524	-0.04550661
164	0x3d20e9e6	0.039285563
165	0xbd7952c3	-0.060869943
166	0xbd9fab9b	-0.07796403
167	0x3db64504	0.088998824
168	0xbca7d8fe	-0.020489212
169	0xbc3d9b93	-0.011572736
170	0x3d486ba3	0.048930775
171	0x3cfe18d5	0.0310177
172	0x3db58c51	0.08864654
173	0xbc78846d	-0.0151682915
174	0xbd635def	-0.055509504
175	0x3e0f4bdf	0.13993786
176	0x3e18e15a	0.14929715
177	0xbc396042	-0.011314454
178	0xb9fe8fad	-0.00048553702
179	0xbd19ba6a	-0.037531294
180	0x3cfc4719	0.03079562
181	0x3c557bba	0.013029987
182	0xbdb726d3	-0.08942952
183	0xbd4aeaf7	-0.049540486
184	0x3d917169	0.071017094
185	0xbd029412	-0.031879492
186	0x3d660069	0.056152735
187	0x3da57bd6	0.080802605
188	0x3e217559	0.15767421
189	0xbd1680a3	-0.03674377
190	0x3d309184	0.043107525
191	0x3d8a056e	0.06739317
192	0xbdf18025	-0.1179202
193	0x3b86b933	0.004111433
194	0x3d9fd5a5	0.07804421
195	0x3c21e8df	0.009882181
196	0xbd3823e9	-0.04495612
197	0x3d3ec013	0.046569895
198	0xbd814d07	-0.0631352
199	0x3dcff7e3	0.101547025
200	0xbdbc240e	-0.091865644
201	0xbd7ac259	-0.0612205
202	0x3db5b2d7	0.088720016
203	0xbc5412f8	-0.012943976
204	0x3c11de87	0.008903152
205	0x3de6ff92	0.11279215
206	0xbd0c7658	-0.03429255
207	0xbdaa23f4	-0.08307639
208	0xbd15a3ac	-0.036533043
209	0xbcd9585f	-0.026531396
210	0xbe471809	-0.19442762
211	0xbcb5cf20	-0.022193491
212	0x3d50a867	0.05094185
213	0xbc430503	-0.01190305
214	0xb91052d7	-0.0001376377
215	0xbd94387c	-0.07237336
216	0xbbc6661c	-0.006054653
217	0x3dea5adb	0.114431106
218	0xbe5e7acc	-0.21726531
219	0x3d965a55	0.07341448
220	0x3c3c5205	0.011494164
221	0xbda0f118	-0.07858485
222	0xbcce3267	-0.025170518
223	0x3d949822	0.072555795
224	0xbd05853f	-0.032597777
225	0x3b2fff75	0.0026855145
226	0xbe0fd2ea	-0.14045301
227	0xbdd47267	-0.10373383
228	0x3c2db693	0.010602611
229	0xbd94f7e5	-0.07273845
230	0xbd6c4e2c	-0.057691738
231	0x3d49bfb7	0.0492551
232	0xbd38d2c3	-0.045122873
233	0xbcfdf359	-0.030999826
234	0xbe227778	-0.15865886
235	0xbd4b5c73	-0.049648713
236	0x3dfd22a1	0.123601206
237	0xbd96cb0c	-0.07362947
238	0x3d29aaae	0.04142254
239	0x3d2fbf6e	0.04290717
240	0x3d489e07	0.04897883
241	0xbd815292	-0.06314577
242	0xbdc0b927	-0.09410315
243	0xbd799657	-0.06093439
244	0x3d6fbf1c	0.058531865
245	0xbc763163	-0.015026423
246	0xbe25ebe5	-0.16203268
247	0x3d2732cc	0.040819928
248	0xbd26eb55	-0.040751774
249	0xbd47091d	-0.048592675
250	0x3c7dbb66	0.015486574
251	0x3dfa74ff	0.122293465
252	0x3bef776f	0.0073079388
253	0x3cdf5836	0.027263742
254	0xbe1e2a59	-0.15445842
255	0x3dcba7c0	0.09944105

model.all_layers.3.bias f4 [50]
0	0xbdb110b0	-0.08645761
1	0xba60694a	-0.0008560611
2	0x3c8d344d	0.017236853
3	0x3cf9b0e9	0.030479865
4	0x3bba4482	0.0056844363
5	0xbd33ee60	-0.043928504
6	0x3c8d6d49	0.017264025
7	0x3d7f1a02	0.062280662
8	0xbd40537a	-0.04695461
9	0xbd77422c	-0.06036584
10	0xbdb830ed	-0.08993707
11	0x3d24c706	0.040228866
12	0xbc589b1b	-0.013220574
13	0x3d917c05	0.07103733
14	0xbca6bde1	-0.020354213
15	0x3bb6773c	0.005568413
16	0xbdb1a5bb	-0.08674189
17	0x3d18cbde	0.037303798
18	0xbb3f610b	-0.002920213
19	0x3db6d23f	0.0892682
20	0x3d3b5cc4	0.045742765
21	0x3c841057	0.016121073
22	0x3d01bc3a	0.031673647
23	0x3d4e70c6	0.050400518
24	0xbc0d8dbe	-0.008639751
25	0x3c4543ad	0.012040061
26	0x3b513019	0.0031919538
27	0xbd734993	-0.059396338
28	0xbd73967e	-0.059469692
29	0x3cb26b58	0.021779701
30	0x3da3c911	0.07997335
31	0x3d8450b1	0.06460703
32	0x3d66ad2a	0.056317486
33	0x3d1148b6	0.035469733
34	0x3d64d62d	0.055868316
35	0xbd061897	-0.032738294
36	0xbd024b26	-0.03180995
37	0x3c89f42c	0.016840063
38	0xbc908dec	-0.017645799
39	0xbdbfba20	-0.093616724
40	0x3d4bda5e	0.049768798
41	0x3d340841	0.043953184
42	0xbdbc03c3	-0.09180405
43	0x3d9f6937	0.0778374
44	0xba824be7	-0.0009940834
45	0xbda2a876	-0.079422876
46	0xbd5ade83	-0.05343486
47	0x3c4b04b1	0.012391255
48	0xbd9277b6	-0.07151739
49	0x3d877e71	0.06615914

model.all_layers.4.weight f4 [50]
0	0x3f73e1d9	0.9526649
1	0x3f65c987	0.8976063
2	0x3f6abef8	0.91697645
3	0x3f61da11	0.8822337
4	0x3f64a9c9	0.8932157
5	0x3f8b77cb	1.0895933
6	0x3f6be6d0	0.92149067
7	0x3f7c2e0e	0.98507774
8	0x3f78207f	0.96924585
9	0x3f72735f	0.9470729
10	0x3f8998ba	1.0749733
11	0x3f6274d7	0.88459533
12	0x3f69f007	0.9138188
13	0x3f7b195c	0.9808557
14	0x3f6feb44	0.9371836
15	0x3f86f4bc	1.0543437
16	0x3f7cbe9f	0.98728365
17	0x3f7311b4	0.9494889
18	0x3f745d24	0.9545462
19	0x3f824a12	1.0178854
20	0x3f8c3654	1.095408
21	0x3f93b069	1.1538211
22	0x3f621532	0.8831359
23	0x3f654832	0.89563286
24	0x3f70df8b	0.940911
25	0x3f81ff6b	1.0156072
26	0x3f639017	0.8889174
27	0x3f69fe7c	0.9140394
28	0x3f6e61c6	0.9311794
29	0x3f6320b6	0.8872179
30	0x3f6c5a73	0.92325515
31	0x3f644e52	0.8918201
32	0x3f662f49	0.899159
33	0x3f74ac6a	0.95575583
34	0x3f734482	0.9502641
35	0x3f7450c7	0.95435756
36	0x3f6d261c	0.92636275
37	0x3f7dbc7b	0.99115723
38	0x3f6355fb	0.8880307
39	0x3f6eb42a	0.9324366
40	0x3f623954	0.88368726
41	0x3f7ec8e9	0.99525315
42	0x3f85c532	1.0450804
43	0x3f610aa6	0.87906873
44	0x3f71ce24	0.9445517
45	0x3f83fe54	1.031199
46	0x3f6ea019	0.9321304
47	0x3f6bdb69	0.9213167
48	0x3f701db5	0.9379533
49	0x3f7e81ab	0.9941661

model.all_layers.4.bias f4 [50]
0	0xbe1277a8	-0.14303458
1	0xbdb57a94	-0.088612705
2	0xbdf2fd4a	-0.11864717
3	0xbe078089	-0.13232626
4	0xbda575e7	-0.08079129
5	0xbd3e81f4	-0.04651065
6	0xbe1331a5	-0.14374407
7	0xbdf8f1ce	-0.121554956
8	0xbdaba53a	-0.08381124
9	0xbdce0578	-0.10059637
10	0xbe9f42c9	-0.3110564
11	0xbe217862	-0.15768579
12	0x3d59e2c7	0.053194787
13	0xbe21281e	-0.1573796
14	0xbda9dada	-0.08293696
15	0xbe0a9def	-0.1353681
16	0xbe34306b	-0.17596595
17	0xbdc8089a	-0.097672656
18	0xbe141439	-0.1446084
19	0xbeac851d	-0.33695307
20	0xbe452eff	-0.19256209
21	0xbd870324	-0.06592396
22	0xbe072968	-0.13199389
23	0xbe29892c	-0.16556233
24	0xbe57b847	-0.2106639
25	0xbe38ccbf	-0.18046854
26	0xbe28f9a8	-0.16501486
27	0xbe95657e	-0.29178995
28	0xbe428af1	-0.18998314
29	0xbde18a32	-0.11012687
30	0xbe5c7bd1	-0.21531607
31	0xbe1b5a5f	-0.15171193
32	0xbe4ca506	-0.19984826
33	0xbd852627	-0.065014176
34	0xbdf1fe69	-0.11816103
35	0xbe7f2999	-0.24918212
36	0xbe0a8114	-0.13525802
37	0xbea37a01	-0.3192902
38	0xbde39716	-0.11112802
39	0xbe3693ec	-0.17829865
40	0xbded788b	-0.11595257
41	0xbe581480	-0.2110157
42	0xbdd86b7b	-0.10567375
43	0xbdfc3086	-0.123139426
44	0xbe1a2898	-0.15054548
45	0xbd2d1f91	-0.042266432
46	0xbdc592a7	-0.09647112
47	0xbe5b4e99	-0.21416701
48	0xbe3a3ea0	-0.18187952
49	0xbdd89316	-0.105749294

model.all_layers.4.running_mean f4 [50]
0	0xbe87ab17	-0.2649772
1	0xbe30014d	-0.17187996
2	0xbf4e5604	-0.806
3	0x3b87ac89	0.004140441
4	0xbda5b78c	-0.080916494
5	0x3d48c745	0.049018163
6	0x3c68b766	0.014203882
7	0x3f665691	0.8997584
8	0xbf12611e	-0.5717944
9	0xbe9a0249	-0.30079868
10	0xbf2becc0	-0.67158127
11	0xbd82e64c	-0.06391582
12	0x3f25a36b	0.6470248
13	0xbef1ceba	-0.47228032
14	0xbf1d7592	-0.61507523
15	0x3ebdad73	0.37046394
16	0xbf2e9000	-0.68188477
17	0xbe5de974	-0.21671087
18	0x3e6d9577	0.23201548
19	0x3f1a067e	0.60166156
20	0xbe94c9ab	-0.2906011
21	0xbf1874e7	-0.5955338
22	0xbe7870a4	-0.24261719
23	0x3f0c8a98	0.5489898
24	0x3e40d053	0.1882947
25	0xbdaad146	-0.08340697
26	0xbdb6a269	-0.08917696
27	0xbf3f7333	-0.74785155
28	0xbf489dd0	-0.783658
29	0x3e95dffa	0.29272443
30	0xbf1187c6	-0.568478
31	0xbd5c08f0	-0.05371946
32	0x3dc4bda9	0.09606487
33	0xbee785ba	-0.45219213
34	0xbe89b981	-0.2689934
35	0xbf21b822	-0.6317159
36	0xbe696fef	-0.22796606
37	0xbf82fb90	-1.0233021
38	0xbe8f1a8a	-0.27949935
39	0xbf536102	-0.825699
40	0xbe0c16e4	-0.13680607
41	0xbe593249	-0.21210589
42	0xbef5b793	-0.4799162
43	0xbeec75c8	-0.4618361
44	0xbe427d4c	-0.1899311
45	0xbf124d50	-0.5714922
46	0x3dd6f9af	0.10496842
47	0xbe9bb8e5	-0.304145
48	0xbf0a6318	-0.54057455
49	0x3ea1e699	0.31621245

model.all_layers.4.running_var f4 [50]
0	0x3f4ea604	0.8072207
1	0x3ed315e7	0.41227648
2	0x3ece4674	0.40288126
3	0x3f101a0e	0.56289756
4	0x3e859907	0.26093313
5	0x3fb4963e	1.410835
6	0x3f2c6bf7	0.6735224
7	0x3f91b173	1.1382278
8	0x3f785129	0.9699884
9	0x3f3bfd97	0.7343382
10	0x3f629ab0	0.88517284
11	0x3e7b7a5c	0.24558395
12	0x3f650711	0.8946391
13	0x3f48b277	0.78397316
14	0x3f5dba09	0.8661199
15	0x3fb07920	1.3786964
16	0x3f971c98	1.1805601
17	0x3f3efdba	0.74605906
18	0x3f3648f9	0.712051
19	0x3f37effd	0.7185057
20	0x3f91c756	1.1388958
21	0x401f4679	2.4886763
22	0x3e9deb0e	0.30843395
23	0x3ed69fff	0.41918942
24	0x3f2f24c6	0.68415487
25	0x3fb2077a	1.3908532
26	0x3ec2a031	0.3801284
27	0x3f0373fd	0.5134886
28	0x3f0b89e5	0.54507285
29	0x3e744e90	0.23858094
30	0x3f313775	0.69225246
31	0x3edc692e	0.43048996
32	0x3ec15ee4	0.37767708
33	0x3f75a508	0.9595494
34	0x3f10dceb	0.56587094
35	0x3f93525f	1.1509513
36	0x3eb3c1c7	0.35108778
37	0x3f402a1f	0.7506427
38	0x3e09d17f	0.13458823
39	0x3f025654	0.50912976
40	0x3e2c80b1	0.16845967
41	0x3f6002fd	0.8750456
42	0x3fbd8b30	1.4808102
43	0x3e952980	0.29133224
44	0x3f0c5478	0.5481639
45	0x3fcccf40	1.6000748
46	0x3f9059da	1.127742
47	0x3ec19775	0.37810865
48	0x3ec92ad2	0.39290482
49	0x3f47e419	0.78082424

model.all_layers.6.weight f4 [2, 50]
0	0x3e6f50a8	0.23370612
1	0x3c7dbf40	0.015487492
2	0xbdec1018	-0.11526507
3	0xbdb10fef	-0.08645617
4	0x3dfd2f8a	0.12362583
5	0xbeb2f217	-0.34950325
6	0xbe5eeab0	-0.21769214
7	0x3eac0ab5	0.3360192
8	0xbe949c26	-0.29025382
9	0xbe695275	-0.22785361
10	0xbed5da89	-0.41768292
11	0x3ce438a7	0.027859045
12	0x3e2a3b7c	0.16624254
13	0x3ecb1c37	0.39669964
14	0x3e84db22	0.25948435
15	0x3ec6eff4	0.38854945
16	0xbe976714	-0.2957083
17	0x3e842003	0.25805673
18	0xbe605a9f	-0.21909569
19	0x3ee0244b	0.4377769
20	0xbee362bb	-0.44411263
21	0x3ef41a24	0.47676194
22	0xbd994d4d	-0.07485447
23	0x3de8d5cc	0.113689035
24	0xbe5e1c1a	-0.21690407
25	0x3ea65422	0.32486063
26	0xbe165f74	-0.1468485
27	0xbe8434bb	-0.2582148
28	0xbea02079	-0.31274775
29	0xbc02be4b	-0.00797994
30	0xbdc0ac7e	-0.094079
31	0x3d5ab507	0.053395297
32	0xbe44bcbe	-0.19212624
33	0x3e61aa3a	0.22037593
34	0x3e8203dd	0.25393572
35	0xbe8d05a7	-0.27543375
36	0x3de02c01	0.10945893
37	0xbe8e5398	-0.27798152
38	0x3d84e613	0.06489196
39	0xbea5a545	-0.32352653
40	0xbd8dee55	-0.06930224
41	0xbec159f5	-0.37763944
42	0xbebe6e4d	-0.37193528
43	0xbdd2434a	-0.102667406
44	0x3e062686	0.13100633
45	0x3eb1f45d	0.34756747
46	0xbe6809c0	-0.2265997
47	0xbe85ece3	-0.26157293
48	0x3e4abbff	0.19798277
49	0x3e739251	0.23786284
50	0xbe75666d	-0.23964854
51	0xbe7b5a4e	-0.24546167
52	0x3e3e017f	0.18555258
53	0x3dd822b3	0.10553493
54	0xbcce4e32	-0.02518377
55	0x3ef92dd4	0.48667777
56	0x3e2ab061	0.16668846
57	0xbe87f411	-0.26553395
58	0x3e7af771	0.24508454
59	0x3e70d832	0.23519972
60	0x3ef688fa	0.4815138
61	0xbe060ffc	-0.13092035
62	0xbe7a220e	-0.24427053
63	0xbe198550	-0.14992261
64	0xbe11b8ac	-0.14230603
65	0xbeb46e21	-0.35240272
66	0x3e9a0c57	0.3008754
67	0xbe35396f	-0.1769769
68	0x3e94e307	0.29079458
69	0xbeb15141	-0.34632304
70	0x3ee1a996	0.44074696
71	0xbefa4978	-0.48884177
72	0x3cca9413	0.02472881
73	0xbe5c9b38	-0.21543586
74	0x3e83e4b0	0.25760412
75	0xbecff3ad	-0.40615597
76	0x3dd22636	0.102611944
77	0x3e079747	0.13241301
78	0x3dcc8563	0.09986379
79	0x3e0a7f47	0.13525115
80	0x3e993e0e	0.29930156
81	0xbe46b3ae	-0.1940448
82	0x3e3949a9	0.18094505
83	0xbe6eef8e	-0.2333357
84	0xbe5070d7	-0.20355545
85	0x3e938f9a	0.28820497
86	0xbe83db50	-0.2575326
87	0x3ecb1ee9	0.3967202
88	0x3d030670	0.03198856
89	0x3de059c8	0.109546244
90	0x3c91f7d9	0.017818378
91	0x3e75f11a	0.24017754
92	0x3eba0f28	0.36339688
93	0xbd1762fd	-0.036959637
94	0xbe9eb2fc	-0.3099593
95	0xbeab1745	-0.3341619
96	0x3e6a0361	0.22852851
97	0x3e20872b	0.15676562
98	0xbe6b4426	-0.22975215
99	0xbeb28f32	-0.34874874

model.all_layers.6.bias f4 [2]
0	0x3e3df9fc	0.18552393
1	0xbeba073e	-0.3633365
